results/Train5/DriveAroundTrack/DriveAroundTrack-500050.pt (torch, 541687 bytes, 39 tensors)

network_body.linear_encoder.seq_layers.0.weight f4 [128, 37]
0.19233662 0.046884432 -0.06380676 0.01439288 0.2568955 -0.098708086 0.27010745 0.3700462
0.010660648 0.21951675 0.26672092 0.14131816 0.44664443 -0.33932874 0.06367931 -0.17354248
-0.14803861 0.3033135 -0.13283266 -0.11659431 0.15027297 0.11478178 0.064006925 -0.022450265
-0.0880239 0.014288765 0.10681551 0.11506006 0.060161382 0.26652494 -0.14392632 -0.016688814
0.0835437 0.10541639 0.25262308 0.39499366 -0.2518025 0.3729047 -0.38304222 -0.06948407
0.021334838 0.25358588 0.19635783 0.005041697 -0.2295063 -0.1462598 0.11695703 0.14689338
0.35234004 0.09911942 -0.038418267 0.06698752 -0.016836898 0.009676783 0.13381745 0.3336579
-0.0117164375 0.053041838 0.13814737 0.06685 -0.13921426 0.23195736 0.34862018 0.2894328
-0.16075642 0.008681752 0.06706276 -0.11225669 -0.0005736995 0.08777399 -0.13666102 0.12091621
-0.03317863 -0.08668246 -0.062183022 -0.15261126 0.031175658 0.24100702 0.0019304377 0.13913153
-0.057389837 0.019094009 0.19670808 -0.11491827 -0.22362477 -0.12529793 0.15207064 -0.0012368923
0.059499685 -0.20542231 0.20582406 -0.17479102 0.15701939 0.0002106574 0.0391741 0.066920765
0.0021041026 -0.07480176 -0.1424236 -0.3161682 -0.31636664 -0.1803913 0.14482312 0.092458606
-0.15322773 0.37511596 -0.0658599 -0.07334706 -0.22414042 -0.19304341 -0.07978271 0.4397564
0.1457934 -0.20029339 -0.17768054 -0.20705365 0.2940882 0.0077963197 -0.113128066 -0.033886626
-0.12677914 0.06795902 -0.012672769 -0.08097514 -0.0059941513 0.006916254 0.21731824 -0.087174386
0.28423098 -0.2454912 0.18855569 0.30496398 0.16806258 -0.011074751 0.44334778 0.16037807
0.039420046 0.10790073 0.092302665 0.08566176 0.048545197 -0.08726418 -0.18156219 -0.15153673
0.1154257 -0.14256227 0.10961919 0.10119886 0.08114259 -0.019908799 0.15049852 0.22381693
-0.08419574 0.3502158 -0.0025483293 0.34498984 0.075094804 0.18233925 0.18136325 0.13009451
0.35366613 0.14488518 -0.13082479 0.28222126 0.18114418 -0.10420855 0.07951719 -0.11571418
0.123574376 -0.14705402 0.15395908 0.062268235 -0.0048626084 0.08686678 0.30197096 -0.12136039
-0.050450023 -0.00402857 -0.21226583 0.074430384 -0.1368901 0.2438521 -0.0045871153 -0.037148844
0.3177451 0.27039787 0.3981694 -0.15753438 -0.09353105 0.2989729 -0.030307053 0.088010415
0.07227627 -0.11908128 0.11836153 -0.23721778 -0.013220957 0.17167643 -0.07061953 0.105646715
0.1431947 -0.16512917 -0.06428794 -0.16439208 -0.055459492 -0.018107587 0.06710467 0.07850649
-0.07647931 -0.25048065 -0.056439996 -0.05579462 0.038864788 0.09778714 -0.022932341 0.09332493
0.09300153 -0.37295106 0.4439317 0.23301002 0.040978346 0.09157272 -0.07706822 0.15254329
0.059641596 0.19669932 0.18190542 -0.08350305 -0.266805 -0.11813076 -0.3032068 0.10140859
-0.0068801534 0.026797166 0.057299692 -0.10584758 -0.24750258 0.396767 0.037581652 0.056886043
0.14506403 0.16187912 0.07863221 -0.3039372 0.07372904 0.2608506 -0.044275723 -0.0953984
0.10329977 0.16382183 0.05182966 0.05297938 -0.0506823 -0.2747552 0.07183854 -0.032714456
00000000: e4f3 443e e409 403d 1ead 82bd 1dd0 6b3c
00000010: cf87 833e 7727 cabd 864b 8a3e b276 bd3e
00000020: 00aa 2e3c 00c9 603e a58f 883e b5b5 103e
00000030: 94ae e43e 7fbc adbe 4c6a 823d 1fb5 31be
00000040: 6f97 17be e84b 9b3e 4905 08be ffc8 eebd
00000050: 28e1 193e b612 eb3d 1016 833d 9ee9 b7bc
00000060: e045 b4bd 6d1b 6a3c 17c2 da3d 9ca4 eb3d
00000070: c86b 763d f575 883e 6c61 13be fbb6 88bc
00000080: f618 ab3d 8ce4 d73d d057 813e 9c3c ca3e
00000090: 42ec 80be 5ded be3e 1c1e c4be aa4d 8ebd
000000a0: 66c6 ae3c 02d6 813e 0712 493e d234 a53b
000000b0: b303 6bbe 21c5 15be 2b87 ef3d 386b 163e
000000c0: ea65 b43e 1fff ca3d 795c 1dbd c130 893d
000000d0: 89ed 89bc 5f8b 1e3c 7107 093e 35d5 aa3e
000000e0: 4df6 3fbc 6642 593d 8176 0d3e a7e8 883d
000000f0: 2f8e 0ebe 3b86 6d3e 587e b23e 8930 943e
00000100: 559d 24be e83d 0e3c 3358 893d d6e6 e5bd
00000110: 5264 16ba dac2 b33d def0 0bbe eba2 f73d
00000120: 51e6 07bd 9386 b1bd a0b3 7ebd 2046 1cbe
00000130: 1864 ff3c 8bca 763e be06 fd3a 7f78 0e3e
00000140: 9b11 6bbd 0a6b 9c3c d86d 493e 455a ebbd
00000150: e4fd 64be 1a4e 00be 68b8 1b3e 381f a2ba
00000160: f1b5 733d 3a5a 52be 8bc3 523e 6bfc 32be
00000170: b1c9 203e eae3 5c39 0575 203d c10d 893d
00000180: fce4 093b aa31 99bd 7ed7 11be cce0 a1be
00000190: cffa a1be 7fb8 38be 834c 143e f05a bd3d
000001a0: bbe7 1cbe 330f c03e 8ee1 86bd fc36 96bd
000001b0: 1185 65be 2cad 45be 1e65 a3bd c027 e13e
000001c0: dd4a 153e b619 4dbe e3f1 35be df05 54be
000001d0: bb92 963e 4578 ff3b b0af e7bd b4cc 0abd
000001e0: 64d2 01be 192e 8b3d 72a1 4fbc 4bd6 a5bd
000001f0: 966a c4bb bea1 e23b ac88 5e3e 7c88 b2bd
00000200: b986 913e 0c62 7bbe be14 413e 3d24 9c3e
00000210: 9918 2c3e df72 35bc 7bfe e23e 263a 243e
00000220: ea76 213d 0ffb dc3d 2e09 bd3d 6f6f af3d
00000230: 54d7 463d 90b7 b2bd 70eb 39be 722c 1bbe
00000240: 4f64 ec3d d8fb 11be 0780 e03d 5941 cf3d
00000250: 162e a63d c717 a3bc 491c 1a3e 4430 653e
00000260: d16e acbd 7c4f b33e df01 27bb 82a2 b03e
00000270: 4ecb 993d 24b7 3a3e 4ab7 393e 7f37 053e
00000280: ba13 b53e c85c 143e eff6 05be 4e7f 903e
00000290: dc7d 393e 4b6b d5bd e9d9 a23d 8efb ecbd
000002a0: 9014 fd3d 5495 16be 73a7 1d3e fa0c 7f3d
000002b0: 8456 9fbb 36e7 b13d f09b 9a3e cc8b f8bd
000002c0: afa4 4ebd 1802 84bb 375c 59be f56e 983d
000002d0: eb2c 0cbe 5db4 793e 834f 96bb 6329 18bd
000002e0: 7caf a23e 9771 8a3e dcdc cb3e b150 21be
000002f0: 358d bfbd fa12 993e 7f46 f8bc ce3e b43d
00000300: 9505 943d e3e0 f3bd 8867 f23d 38e9 72be
00000310: b69c 58bc f2cb 2f3e f9a0 90bd 4e5d d83d
00000320: a2a1 123e 9f17 29be 65a9 83bd 6656 28be
00000330: 7e29 63bd 5d56 94bc 2c6e 893d 03c8 a03d
00000340: 2fa1 9cbd 003f 80be a02d 67bd e688 64bd
00000350: af30 1f3d a044 c83d 9bdc bbbc 2421 bf3d
00000360: 9677 be3d 71f3 bebe 044b e33e 2e9a 6e3e
00000370: e9d8 273d 7a8a bb3d f1d5 9dbd 4f34 1c3e
00000380: bf4a 743d 8c6b 493e 6a45 3a3e a603 abbd
00000390: aa9a 88be 8aee f1bd ec3d 9bbe 4faf cf3d
000003a0: e972 e1bb bb85 db3c 15b3 6a3d 9ec6 d8bd
000003b0: 5171 7dbe 0b25 cb3e 38ef 193d 5701 693d
000003c0: aa8b 143e a4c3 253e ed09 a13d a89d 9bbe
000003d0: 40ff 963d 368e 853e 765a 35bd 3d60 c3bd
000003e0: d48e d33d e9c0 273e 564b 543d e800 593d
000003f0: 3e98 4fbd b7ac 8cbe 1620 933d 98ff 05bd

network_body.linear_encoder.seq_layers.0.bias f4 [128]
0.027720658 0.00043250166 0.029089138 0.021828735 0.01750645 0.008078534 0.022770029 0.019442042
0.0066519342 0.020235602 -0.025785537 -0.01603699 -0.0075146244 0.013073768 0.014429828 0.013935111
-0.003495009 0.017893182 0.0022874605 0.02289803 -0.022197695 -0.0064913607 0.008988016 0.0058601135
0.03400415 0.038389355 0.019062594 -0.017997516 0.002592223 0.029326022 0.005296396 -0.027317207
-0.0034647381 -0.012250206 -0.022698324 0.020812921 0.011309727 0.0041944673 0.016358027 0.030239351
0.026500262 -0.00885238 0.0019150274 0.0063489648 0.023298943 0.00078837003 0.0239033 0.016822547
0.019342452 -0.0207221 0.00054277387 0.012486476 -0.008985732 0.02426768 0.0011738818 0.052437283
-0.020125866 0.018913742 0.00896793 0.0005263259 0.011144178 0.022483025 0.014062046 0.02566764
-0.032098897 0.0036283538 -0.022598661 0.022086093 -0.0039186613 0.0131645175 0.048973806 -0.008273689
0.0007515234 -0.0017028945 0.009504542 0.026664836 0.03345273 0.018419836 0.028651897 0.029070083
0.020012345 -0.00062993506 0.020694789 0.017236678 -0.007051971 0.020684972 -0.011631834 0.013644133
0.05846764 0.00907059 0.007961349 0.013481212 0.01956585 0.00634015 0.011327942 -0.009213732
-0.0031263041 -0.029577853 -0.0023447797 -0.020075416 -0.036223494 -0.00057367317 -0.036766108 0.037572686
0.0036520401 0.026786814 0.006239982 0.011308721 0.019485269 0.008041494 0.027199527 0.03430114
0.02052385 0.031593073 0.013266035 0.029929766 0.019779991 0.0180857 0.022519946 0.015007812
0.010535422 -0.021599723 0.01501966 0.033308677 -0.012279798 -0.0040343786 0.009095048 0.034099624
00000000: 6f16 e33c 64c1 e239 584c ee3c 2dd2 b23c
00000010: b069 8f3c d45b 043c 3688 ba3c eb44 9f3c
00000020: 78f8 d93b 22c5 a53c 313c d3bc 0160 83bc
00000030: 3d3d f6bb 5b33 563c 166b 6c3c 1850 643c
00000040: 850c 65bb b994 923c 38e9 153b a694 bb3c
00000050: f1d7 b5bc 7bb5 d4bb 7942 133c 3206 c03b
00000060: f047 0b3d 283e 1d3d 2829 9c3c 876f 93bc
00000070: 49e2 293b 203d f03c 648d ad3b 56c8 dfbc
00000080: a910 63bb 17b5 48bc d6f1 b9bc dc7f aa3c
00000090: 6f4c 393c be71 893b 4501 863c 84b8 f73c
000000a0: 1417 d93c 9309 11bc a801 fb3a fa0a d03b
000000b0: 6ddd be3c 9eaa 4e3a dad0 c33c 70cf 893c
000000c0: 1074 9e3c 65c1 a9bc f048 0e3a 1494 4c3c
000000d0: e438 13bc 03cd c63c f0dc 993a 7ac8 563d
000000e0: 00df a4bc fef0 9a3c 3aee 123c 22f9 093a
000000f0: 1296 363c 522e b83c 7f64 663c f144 d23c
00000100: 227a 03bd adc9 6d3b d420 b9bc e5ed b43c
00000110: 1d68 80bb fdaf 573c c298 483d 5e8e 07bc
00000120: e201 453a a833 dfba f0b8 1b3c 3770 da3c
00000130: bb05 093d 32e5 963c 62b7 ea3c 6224 ee3c
00000140: eef0 a33c 3a22 25ba 1e88 a93c ef33 8d3c
00000150: 3814 e7bb 8873 a93c 7393 3ebc a48b 5f3c
00000160: c47b 6f3d d09c 143c 5170 023c 4de0 5c3c
00000170: 9048 a03c 08c1 cf3b d598 393c 31f5 16bc
00000180: aee2 4cbb 414d f2bc e0aa 19bb 3375 a4bc
00000190: 165f 14bd 8e62 16ba 0f98 16bd d1e5 193d
000001a0: 1157 6f3b 0570 db3c c378 cc3b 3748 393c
000001b0: 929f 9f3c 78c0 033c 8bd1 de3c 5a7f 0c3d
000001c0: a221 a83c bd67 013d c959 593c 452f f53c
000001d0: a609 a23c 7628 943c c07b b83c 53e3 753c
000001e0: c39c 2c3c e7f1 b0bc 0515 763c ae6e 083d
000001f0: 3531 49bc d232 84bb 6503 153c 0cac 0b3d

network_body.linear_encoder.seq_layers.2.weight f4 [128, 128]
0.003705493 0.2058681 -0.043076348 0.07497997 0.03580932 -0.043616924 0.07730201 0.07404536
0.10602106 0.05051456 0.1918 -0.027318392 0.079951815 -0.041269626 0.008610286 0.1635273
0.012003518 0.04537434 -0.0685344 -0.017941836 0.06043983 -0.13967486 -0.089103684 -0.060772724
0.016647007 0.02328463 0.031475965 0.0030860961 0.16230468 -0.18778624 -0.010532537 -0.08476982
-0.034757785 -0.21882866 -0.0042658774 -0.072286904 0.09390846 0.03620683 0.015277987 0.20522335
-0.022115085 0.15592465 -0.11019145 -0.07607436 -0.13196896 -0.22343747 0.10885673 -0.0768376
0.07980351 0.04208347 -0.08867826 0.01728517 -0.12002372 -0.00079061196 -0.18251532 0.17671493
-0.080577865 0.109608784 0.07182691 0.07559079 -0.044953153 0.008154031 -0.0057238284 -0.050379742
0.038304072 -0.19479093 -0.12272147 0.03677536 -0.0008973957 -0.08303745 -0.035889313 0.18834679
-0.13290386 -0.10287954 0.14119433 -0.10719784 0.06211411 0.09103495 0.12295112 0.036347847
0.045944374 0.01613867 0.07887973 -0.091512255 -0.14260136 0.08147022 -0.013611272 -0.0041789697
-0.041049432 -0.037073594 0.008761662 -0.0523106 -0.0047647813 0.082845874 0.03999603 -0.06944975
0.11568202 -0.07767903 0.14619814 0.066413485 0.011184722 -0.05519086 -0.15059502 -0.12694587
0.0080723185 -0.20035166 -0.018447215 0.089196935 -0.0741724 0.07508713 0.016074574 0.07125387
-0.0843509 -0.043279923 -0.06480753 -0.0017031698 -0.016114252 0.030967267 0.0611292 0.07406248
0.10820681 0.018613642 0.08937554 0.1418115 -0.13845982 0.11966753 -0.019570375 -0.0162589
0.056077324 0.2370199 -0.008128764 -0.006804479 -0.16806956 0.15978186 0.18812177 -0.0050339215
0.08007249 -0.06804123 0.13697018 0.036882956 -0.17524302 -0.12895174 -0.16609383 0.0051844693
0.09131859 0.24220084 0.038128708 0.0117373485 0.14409146 -0.12241574 -0.18003091 -0.08200683
-0.1288018 -0.21157227 -0.053173956 -0.037131667 0.0946428 0.00093066035 0.17364256 0.038551383
0.1404254 0.030001739 0.1939272 -0.076275006 0.015999261 0.061518393 0.10566816 0.13462357
0.11008673 0.050870463 0.006203321 -0.06119369 -0.18968418 0.019646319 0.15732569 0.05371514
-0.08446168 0.02332932 0.035469502 -0.0038492477 -0.030236522 0.022807222 0.04156651 0.05303865
0.038151905 -0.11191014 0.13744801 -0.036557008 0.2579696 -0.08591881 0.109150246 0.014339833
-0.09719174 -0.037024744 -0.029514799 -0.046298116 0.027828222 0.049298562 -0.053950373 -0.06891344
0.11139746 -0.030971905 -0.071133845 0.09487151 0.19552404 -0.07623633 -0.09545555 0.06751678
0.13108754 0.00831705 -0.042352986 0.011372044 -0.045878217 -0.031174526 -0.004805103 0.036915068
0.06822144 -0.3642073 0.036069926 0.051662035 -0.04296796 0.009700014 0.22164834 -0.08387376
0.11445783 0.007965674 0.0033815098 0.11672049 -0.09791443 -0.11274214 -0.055048645 0.21519235
-0.1965568 0.08003562 -0.10394425 0.04586682 0.013864644 0.14459114 0.010410228 -0.0058278604
-0.057802647 -0.014068944 0.030018436 0.026514124 -0.28614718 0.092908405 -0.21229427 -0.14669491
0.13308443 -0.1592517 0.12878239 0.015460507 -0.08737354 -0.033808086 0.007892623 -0.047434855
00000000: dbd7 723b 16cf 523e d370 30bd 198f 993d
00000010: cbac 123d a9a7 32bd 8450 9e3d 18a5 973d
00000020: 9221 d93d 5be8 4e3d 3867 443e d2ca dfbc
00000030: c7bd a33d 570a 29bd 2812 0d3c b373 273e
00000040: 67aa 443c 72da 393d c35b 8cbd c2fa 92bc
00000050: c18f 773d ed06 0fbe fe7b b6bd d2ec 78bd
00000060: 4e5f 883c 69bf be3c f1ec 003d 1a40 4a3b
00000070: 3333 263e 094b 40be a990 2cbc cd9b adbd
00000080: 2e5e 0ebd 9f14 60be c6c8 8bbb 280b 94bd
00000090: 1453 c03d 9d4d 143d 8650 7a3c 1226 523e
000000a0: b22a b5bc b6aa 1f3e 0eac e1bd e0cc 9bbd
000000b0: df22 07be cbcc 64be 47f0 de3d 085d 9dbd
000000c0: 0670 a33d b75f 2c3d f39c b5bd a199 8d3c
000000d0: ffce f5bd 1241 4fba 4ce5 3abe c2f4 343e
000000e0: 0206 a5bd 927a e03d fd19 933d 58cf 9a3d
000000f0: cc20 38bd 7c98 053c f48e bbbb fd5a 4ebd
00000100: bbe4 1c3d 4677 47be 6555 fbbd c3a1 163d
00000110: 353f 6bba 8a0f aabd ac00 13bd fbdd 403e
00000120: f317 08be 82b2 d2bd 3f95 103e 8b8a dbbd
00000130: 5d6b 7e3d 8870 ba3d cccd fb3d 7be1 143d
00000140: 2b30 3c3d 3e35 843c b28b a13d c76a bbbd
00000150: 1706 12be dcd9 a63d d001 5fbc bdef 88bb
00000160: 7323 28bd 7bda 17bd 138d 0f3c a443 56bd
00000170: e221 9cbb 19ab a93d e1d2 233d ac3b 8ebd
00000180: b2ea ec3d 2f16 9fbd f7b4 153e cb03 883d
00000190: 2040 373c d00f 62bd 9535 1abe 19fe 01be
000001a0: c241 043c fc28 4dbe 9d1e 97bc e2ac b63d
000001b0: b3e7 97bd 48c7 993d d3ae 833c 8ded 913d
000001c0: 2ac0 acbd 4a46 31bd cfb9 84bd e53c dfba
000001d0: 0902 84bc 11af fd3c 9d62 7a3d 12ae 973d
000001e0: 889b dd3d a37b 983c 860a b73d 0937 113e
000001f0: 69c8 0dbe 4014 f53d 0d52 a0bc 6231 85bc
00000200: 56b1 653d 58b5 723e 822e 05bc 1bf8 debb
00000210: 6d1a 2cbe db9d 233e fea2 403e 98f3 a4bb
00000220: 0cfd a33d 3359 8bbd e941 0c3e 9512 173d
00000230: e872 33be ed0b 04be 8014 2abe 7be2 a93b
00000240: 3e05 bb3d 7f03 783e d92c 1c3d 024e 403c
00000250: b68c 133e 1ab5 fabd 065a 38be 32f3 a7bd
00000260: 9ee4 03be 67a6 58be efcc 59bd 6017 18bd
00000270: 16d4 c13d 8ff7 733a 5bcf 313e 0ee8 1d3d
00000280: adcb 0f3e 35c6 f53c da94 463e 1236 9cbd
00000290: e210 833c b6fa 7b3d 8c68 d83d c3da 093e
000002a0: 2775 e13d 8c5d 503d 3a45 cb3b 3ca6 7abd
000002b0: 923c 42be 51f1 a03c fc19 213e 6804 5c3d
000002c0: 3ffa acbd 211d bf3c 7848 113d a943 7cbb
000002d0: 95b2 f7bc 36d6 ba3c a541 2a3d 0e3f 593d
000002e0: 2c45 1c3d 2531 e5bd 2cbf 0c3e cdbc 15bd
000002f0: 9714 843e 33f6 afbd 2a8a df3d 9ef1 6a3c
00000300: 770c c7bd 42a7 17bd 05c9 f1bc 18a3 3dbd
00000310: 03f8 e33c 4aed 493d 11fb 5cbd 7d22 8dbd
00000320: 5a24 e43d cbb8 fdbc 9fae 91bd ff4b c23d
00000330: 7437 483e cb21 9cbd 337e c3bd 3d46 8a3d
00000340: d03b 063e 3c44 083c 537a 2dbd cf51 3a3c
00000350: ccea 3bbd b861 ffbc 2074 9dbb 4134 173d
00000360: afb7 8b3d 6179 babe 0fbe 133d 929b 533d
00000370: 2cff 2fbd cfec 1e3c c8f7 623e 02c6 abbd
00000380: de68 ea3d 7582 023c 529c 5d3b 270b ef3d
00000390: 5c87 c8bd 5ae5 e6bd b07a 61bd 625b 5c3e
000003a0: 3046 49be b7e9 a33d b9e0 d4bd d9de 3b3d
000003b0: 8828 633c b30f 143e a98f 2a3c a3f7 bebb
000003c0: 78c2 6cbd 6e81 66bc 39e9 f53c 2634 d93c
000003d0: e281 92be c346 be3d ab63 59be 3137 16be
000003e0: 4947 083e e112 23be 88df 033e 114e 7d3c
000003f0: e6f0 b2bd 597a 0abd 0f50 013c 0d4b 42bd

network_body.linear_encoder.seq_layers.2.bias f4 [128]
0.01232305 0.009820771 0.025746811 0.011653925 -0.0022683144 0.016349515 0.021838121 -0.005565889
0.00070527964 0.01563181 0.013291292 -0.009344626 0.005662093 0.016688585 -0.0033814833 0.02243808
0.01395523 -0.030305838 0.018744174 0.02045678 0.025580995 0.025357088 0.02080417 -0.0006492791
0.013953795 -0.00048650528 0.007896222 0.016038205 0.007955136 0.014988429 0.0026116255 0.0011935994
0.022961637 -0.023158533 0.024679482 0.01368775 0.025080048 0.019935146 -0.00017193973 -0.004358655
0.0013233636 0.0005264477 -0.01685607 0.005931636 0.024426792 0.010001552 0.015185693 0.024291843
0.012203567 0.023172593 0.019544126 0.007381414 0.026814288 0.02380713 0.010655633 0.02020767
0.018708428 0.017076636 -0.019043447 0.02042837 -0.00069337944 0.008992916 0.031489234 -0.009479525
0.017851282 0.0046574785 0.0135923885 0.008352054 -0.006318111 0.004739111 0.009494767 0.025146428
0.0014623492 0.0047080736 0.0092181275 0.014636906 0.004126722 0.021415954 0.025188193 0.021493584
0.00594401 -0.021841776 0.009413673 0.011041523 0.027875777 0.0231485 0.018060934 0.0146040255
-0.02013799 0.02014572 -0.008523416 0.0084541235 -0.011674835 -0.009745772 0.024716793 0.0049833544
0.015418967 0.015597154 0.0100131435 0.007890443 0.0013151052 0.03086523 -0.025572155 0.017705053
0.018145788 0.011409055 -0.0010029898 0.0074942587 0.015169655 0.015155805 0.014425523 0.009462679
0.01742183 0.020794291 0.00026532443 0.0148588065 0.009134983 0.03299949 0.015275838 -0.007396945
-0.016924985 -0.005661654 0.016023386 0.015255282 0.021427033 0.008111546 0.02172034 0.018976662
00000000: 9ee6 493c 4de7 203c faea d23c 1bf0 3e3c
00000010: 00a8 14bb 6bef 853c dce5 b23c 1062 b6bb
00000020: 84e2 383a 480e 803c b8c3 593c 341a 19bc
00000030: 1489 b93b 80b6 883c e09b 5dbb 10d0 b73c
00000040: 7aa4 643c f343 f8bc 628d 993c fa94 a73c
00000050: 3c8f d13c abb9 cf3c 826d aa3c 6234 2aba
00000060: 759e 643c a211 ffb9 285f 013c 8e62 833c
00000070: 4256 023c 0792 753c ce27 2b3b 8d72 9c3a
00000080: 0b1a bc3c f7b6 bdbc a02c ca3c 9642 603c
00000090: ac74 cd3c 084f a33c b84a 34b9 0cd3 8ebb
000000a0: b774 ad3a 4f01 0a3a be15 8abc 2b5e c23b
000000b0: b21a c83c 8ddd 233c 6acd 783c b0ff c63c
000000c0: 78f1 473c 73d4 bd3c 011b a03c cadf f13b
000000d0: a3a9 db3c 2c07 c33c f794 2e3c 8e8a a53c
000000e0: 6b42 993c 4de4 8b3c 0101 9cbc 6659 a73c
000000f0: e8c3 35ba 0657 133c dbfa 003d 0250 1bbc
00000100: da3c 923c c39d 983b 9cb2 5e3c 0ed7 083c
00000110: 2808 cfbb 8b4a 9b3b f08f 1b3c e2ff cd3c
00000120: 4cac bf3a 2f46 9a3b a107 173c a2cf 6f3c
00000130: 7439 873b 8370 af3c 7857 ce3c 5013 b03c
00000140: f8c5 c23b 86ed b2bc ce3b 1a3c 81e7 343c
00000150: be5b e43c eca1 bd3c 86f4 933c b945 6f3c
00000160: 6df8 a4bc a308 a53c cca5 0bbc 2a83 0a3c
00000170: cf47 3fbc bbac 1fbc df7a ca3c 684b a33b
00000180: d69f 7c3c 358b 7f3c 2b0e 243c eb46 013c
00000190: 9c5f ac3a 14d9 fc3c b27c d1bc 300a 913c
000001a0: 7aa6 943c 0ced 3a3c c176 83ba 6692 f53b
000001b0: 258a 783c 0e50 783c 0759 6c3c 5a09 1b3c
000001c0: 3ab8 8e3c ca58 aa3c 3e1b 8b39 5a72 733c
000001d0: e5aa 153c 792a 073d 8247 7a3c 1262 f2bb
000001e0: 44a6 8abc 6585 b9bb 7a43 833c 4af1 793c
000001f0: bf87 af3c 4ae6 043c dbee b13c f274 9b3c

action_model._discrete_distribution.branches.0.weight f4 [3, 128]
-0.0074951206 0.020004995 -0.011910966 0.007863077 0.0048198397 -0.018980239 0.00057833694 0.020821257
-0.023671286 0.02095653 -0.0051401006 -0.020154184 0.0037221115 -0.018906416 -0.018248487 0.025294948
0.0074264426 0.007565631 -0.021201616 -0.025046142 -0.01972383 -0.029176062 -0.010038027 0.004159539
-0.026995672 0.015055502 0.017236179 -0.00527613 -0.0066412417 0.008215778 0.022789447 -0.02073542
-0.024438486 0.012651095 0.026819777 -0.011358329 -0.007289871 -0.02773594 0.024218101 0.0054031913
-0.008152942 0.0017090122 0.00014006118 -0.015784223 -0.022590214 -0.024803951 0.008048662 -0.021489643
-0.00017048574 -0.028463105 -0.015693761 -0.019873584 0.009455025 0.02922306 -0.010074812 6.067151e-05
-0.01435424 -0.01531728 0.008838598 0.02503561 0.002435199 -0.01438504 -0.017529717 0.02169713
-0.024975395 -0.0076873517 0.019544285 -0.0051054317 0.0011836654 0.013186296 0.0042528803 0.018570673
0.010745169 0.012337377 0.0032537512 -0.018884366 -0.010324292 -0.008299907 -0.020976381 -0.0014169833
0.009858517 0.002462947 -0.008242327 -0.008402148 -0.009617754 -0.024671922 -0.033683624 0.025822464
0.014585467 0.002225723 0.0071724686 0.003125648 0.03586224 0.015027524 -0.009740252 -0.019411935
-0.0033721654 0.004899405 -0.01796836 0.023101905 -0.03103857 0.03529259 0.019152915 0.03235654
-0.011875484 -0.030859359 0.011937408 -0.030345725 -8.360947e-05 0.008626916 -0.0020136982 0.0013843057
-0.021403315 -0.010656644 0.021937838 0.013494745 -0.007823158 0.00497729 -0.016353304 0.024957903
0.023211544 -0.010115439 0.029882198 -0.013727193 -0.023188587 -0.00811143 0.013667253 -0.009026866
0.021378618 0.0143365655 0.06490388 0.017818589 -0.02997717 0.013536336 -0.0046626604 -0.037004102
0.027886588 -0.026248327 0.009190447 -0.028164238 0.0110846395 0.045536995 0.008968483 -0.023754688
-0.0024789446 -0.02293342 0.03558669 0.042826455 0.03176476 0.03382193 0.048895806 -0.028156044
0.032247998 -0.018830135 0.0029768914 -0.04089008 -0.012328794 -0.035396107 -0.016640473 0.023587858
0.04076808 -0.030984584 0.0027022394 0.0373615 0.0023551376 0.03451968 -0.014771378 -0.034664195
-0.011871637 -0.023592008 -0.03449839 0.013192355 0.012380101 0.030458307 0.017972223 0.04163036
-0.015132104 0.050487217 0.039202604 0.022429101 0.0059175696 -0.022740882 0.027446639 -0.022596477
0.019327 0.03329903 -0.034240186 -0.03154157 -0.035545114 0.026544696 0.043398753 -0.043026477
0.035354663 0.019871805 0.029360069 -0.0033503568 -0.018736355 -0.0043329834 0.024508672 -0.00023315343
0.00052066485 -0.013442805 0.023692794 0.0032625187 0.027154999 0.014936766 0.023366997 0.0025557238
-0.026173744 -0.03960304 0.027924519 0.027708016 -0.0032121832 0.030712305 0.03270669 -0.011745579
-0.0436673 0.013492947 -0.030510306 -0.0144574335 -0.013557503 -0.049348164 -0.012822075 -0.011249781
0.0037742252 0.019868866 0.023670878 -0.030802233 0.010654325 -0.014814251 -0.02792975 -0.02144465
0.03025777 0.038262915 -0.006766986 0.030732024 0.028407723 -0.014816078 0.050635714 0.026676586
0.043882202 -0.0076845232 -0.006657552 -0.022692665 0.03942307 0.0011531475 0.024660418 -0.050539684
-0.04618324 -0.008323079 -0.0056273397 0.018034471 0.03552759 -0.0047575766 0.034264676 0.035409175
00000000: a199 f5bb 84e1 a33c 3626 43bc 23d4 003c
00000010: bfef 9d3b 727c 9bbc 899b 173a 5791 aa3c
00000020: 49ea c1bc 07ad ab3c 4a6e a8bb 631a a5bc
00000030: abee 733b a1e1 9abc da7d 95bc 5a37 cf3c
00000040: 8459 f33b 1de9 f73b 03af adbc 912d cdbc
00000050: df93 a1bc a302 efbc 8976 24bc be4c 883b
00000060: 0726 ddbc 5aab 763c e332 8d3c 63e3 acbb
00000070: c69e d9bb 789b 063c efb0 ba3c 54dd a9bc
00000080: 3833 c8bc 8a46 4f3c 26b5 db3c 4918 3abc
00000090: dfdf eebb 7b36 e3bc 0a65 c63c 410d b13b
000000a0: eb93 05bc ef00 e03a 63dd 1239 ea4d 81bc
000000b0: 1d0f b9bc a831 cbbc 89de 033c 0c0b b0bc
000000c0: 6bc4 32b9 752b e9bc 3490 80bc edcd a2bc
000000d0: 40e9 1a3c 3365 ef3c d310 25bc 8a79 7e38
000000e0: 0c2e 6bbc 54f5 7abc c4cf 103c 7b17 cd3c
000000f0: dc97 1f3b 3baf 6bbc 7b9a 8fbc 2ebe b13c
00000100: 3399 ccbc 2ee6 fbbb 561b a03c 774b a7bb
00000110: 3825 9b3a 560b 583c bf5b 8b3b 8621 983c
00000120: 810c 303c b622 4a3c e33c 553b 63b3 9abc
00000130: 3827 29bc 55fc 07bc a9d6 abbc 12ba b9ba
00000140: 9e85 213c 6569 213b d30a 07bc 2aa9 09bc
00000150: c993 1dbc c51c cabc d7f7 09bd a289 d33c
00000160: e2f7 6e3c 6fdd 113b 0707 eb3b acd7 4c3b
00000170: 49e4 123d 0136 763c 9495 1fbc c705 9fbc
00000180: 8cff 5cbb 308b a03b 6232 93bc 3540 bd3c
00000190: 9944 febc f68e 103d 93e6 9c3c 4b88 043d
000001a0: 6491 42bc c4cc fcbc 1e95 433c 9997 f8bc
000001b0: 7e57 afb8 e957 0d3c 40f8 03bb 9771 b53a
000001c0: 0156 afbc 3499 2ebc fbb6 b33c 1019 5d3c
000001d0: b42c 00bc 8918 a33b 5df7 85bc 8474 cc3c
000001e0: 2326 be3c 3abb 25bc 83cb f43c 05e8 60bc
000001f0: fef5 bdbc cee5 04bc 9dec 5f3c 6ce5 13bc
00000200: 3622 af3c eae3 6a3c 53ec 843d 4af8 913c
00000210: af92 f5bc 82c7 5d3c 3bc9 98bb 9d91 17bd
00000220: 6a72 e43c bb06 d7bc 8793 163c b0b8 e6bc
00000230: 599c 353c 0085 3a3d 8bf0 123c 3199 c2bc
00000240: ca75 22bb dede bbbc 59c3 113d cb6a 2f3d
00000250: c41b 023d dd88 0a3d f846 483d 81a7 e6bc
00000260: 7a16 043d a841 9abc f317 433b 5b7c 27bd
00000270: b6fe 49bc 82fb 10bd 9a51 88bc 533b c13c
00000280: 6efc 263d 62d3 fdbc 0e18 313b 5f08 193d
00000290: a758 1a3b 8264 0d3d a603 72bc 0bfc 0dbd
000002a0: 4181 42bc 0744 c1bc 2f4e 0dbd bf24 583c
000002b0: e8d5 4a3c b383 f93c 7c3a 933c 9984 2a3d
000002c0: a5ec 77bc afcb 4e3d e992 203d 3cbd b73c
000002d0: 2ce8 c13b 164b babc c6d7 e03c 3f1c b9bc
000002e0: a853 9e3c 9064 083d 703f 0cbd bc31 01bd
000002f0: c197 11bd 4374 d93c e4c2 313d 883c 30bd
00000300: 0dd0 103d 32ca a23c 8784 f03c a991 5bbb
00000310: fc7c 99bc b3fb 8dbb 69c6 c83c a67a 74b9
00000320: 3a7d 083a 363f 5cbc 6417 c23c fbcf 553b
00000330: 2974 de3c 56b9 743c 256c bf3c ee7d 273b
00000340: 526a d6bc cc36 22bd f6c1 e43c ecfb e23c
00000350: 7e83 52bb 5f98 fb3c 73f7 053d 8770 40bc
00000360: 7cdc 32bd 8611 5d3c c0f0 f9bc dfde 6cbc
00000370: 4a20 5ebc 4d21 4abd ae13 52bc 0051 38bc
00000380: fe58 773b 08c4 a23c 6ee9 c13c f754 fcbc
00000390: 7a8f 2e3c 79b7 72bc eecc e4bc b1ac afbc
000003a0: 25df f73c 93b9 1c3d 98bd ddbb bac1 fb3c
000003b0: 50b7 e83c 23bf 72bc 6567 4f3d db88 da3c
000003c0: d3bd 333d 74ce fbbb 9827 dabb f8e5 b9bc
000003d0: 167a 213d 3625 973a a504 ca3c b302 4fbd
000003e0: a32a 3dbd 865d 08bc 8c65 b8bb 07bd 933c
000003f0: 6185 113d 72e5 9bbb 1e59 0c3d 3609 113d

action_model._discrete_distribution.branches.0.bias f4 [3]
-0.013523251 0.028933378 -0.0146069955
00000000: a090 5dbc b105 ed3c 2e52 6fbc

action_model._discrete_distribution.branches.1.weight f4 [3, 128]
0.0057221 -0.006414206 -0.015455106 -0.018135581 -0.051674206 0.008397309 -0.0025448005 -0.014149452
-0.00578606 -0.026405651 -0.03326912 -0.0046779797 -0.005542357 0.027804883 0.03053516 -0.037297074
-0.041863162 -0.00042336428 -0.026202008 -0.004213298 0.0002164121 0.010092738 0.029159334 -0.01779968
-0.01194382 -0.01116366 -0.019761255 -0.020803006 -0.02001266 -0.008318309 -0.013305111 0.007158358
0.0076689087 0.008069771 -0.017011909 0.023814159 -0.0016355774 0.038821038 -0.019306561 0.0013257854
-0.004567743 -0.007843646 -0.0089260675 0.0022465377 0.001847632 0.0071928934 0.017949786 0.051170748
-0.017139636 0.01691059 0.02052286 -0.0044059064 -0.001307199 -0.03267871 -0.029821368 -0.031404518
0.006238911 0.0020335717 0.0009230948 -0.024021905 -0.0011874837 0.04626235 -0.045757934 -0.016239673
0.020611146 -0.017383086 -0.027277676 -0.052358072 0.0035891873 -0.024490748 -0.0062338314 -0.022561371
-0.00018152245 -0.035535663 0.0031950884 -0.030277947 -0.019797103 -0.029368559 0.010675539 -0.026524965
-0.011602901 -0.0008108424 0.0117123835 0.019246375 0.011612505 0.0034363673 0.0020911584 -0.02762924
-0.005188891 -0.003501046 0.0037937397 -0.008815214 -0.01690041 0.0034640748 0.012337002 0.002348134
-0.020472014 -0.018410938 -0.022338454 -0.024356242 0.04980555 -0.028498739 -0.005752341 -0.047171637
-0.064767286 0.025237592 0.025215033 0.018259266 -0.009486581 0.014422262 -0.02383916 -0.028695043
0.03754134 -0.03376341 0.0037092553 -0.045348212 -0.018537795 -0.013504199 0.0077622356 -0.013754808
-0.0049126414 -0.025998432 -0.034947846 -0.015727788 -0.0021322907 -0.030404381 -0.05259822 -0.031457745
-0.016996698 -0.05336136 0.03120714 0.05604857 0.021136463 -0.044886343 -0.054883875 -0.0059045176
0.007895281 -0.03674694 0.09807155 0.044394534 0.03675457 0.028772635 -0.0024831914 -0.050921112
-0.047028825 -0.0074383114 0.017547641 0.03957877 -0.03261952 -0.03663352 0.022401229 0.03541548
0.083855174 0.0018997345 -0.025819119 -0.023835352 0.03193341 -0.04861183 0.057562646 0.006849167
-0.0108121615 0.022489594 -0.06529318 -0.010815938 -0.058213327 -0.05126825 0.063425854 -0.0022307045
-0.06418659 0.016620452 0.023238558 -0.040117275 -0.08615748 0.001257308 -0.04701661 0.014676457
0.05553391 0.025234124 -0.020083806 0.054262694 -0.080198854 -0.067336656 0.07477655 -0.033117168
-0.05805972 0.06505257 -0.0063297334 -0.03718638 -0.004487547 -0.028388102 0.07531159 0.0051401304
-0.013880988 0.083421044 0.084914126 0.07026268 0.0044786325 -0.04509598 0.005645334 -0.07804854
-0.006842734 -0.006570365 0.0710072 0.083942145 0.009513512 0.079352245 -0.07273963 -0.0705314
0.003132046 -0.017385151 0.06435932 -0.038073625 -0.07452743 0.013049026 -0.01253387 -0.060762558
0.014778797 -0.06287222 0.0075725373 0.0563978 0.030245094 0.0018993515 -0.10275526 -0.042889684
0.10223363 -0.02881986 -0.005590996 -0.037220385 -0.009168004 -0.060839172 0.008365663 -0.078461565
0.103057295 0.002433989 -0.002925691 0.012175464 0.07971304 -0.08405427 0.085466556 0.04950673
-0.019023014 -0.04936984 0.063312314 -0.06180085 0.069608845 -0.06747045 -0.03128611 0.00038122266
0.004648645 -0.017137641 -0.036065523 0.062511966 0.060544718 0.06261084 0.07798644 0.047509488
00000000: 7480 bb3b 422e d2bb 6a37 7dbc 1291 94bc
00000010: 55a8 53bd de94 093c abc6 26bb 1ad3 67bc
00000020: fd98 bdbb aa50 d8bc 3345 08bd bd49 99bb
00000030: a99c b5bb 11c7 e33c df24 fa3c d1c4 18bd
00000040: b578 2bbd fef6 ddb9 98a5 d6bc b50f 8abb
00000050: aeec 6239 035c 253c 8edf ee3c a2d0 91bc
00000060: 03b0 43bc c9e7 36bc 5be2 a1bc 116b aabc
00000070: 97f1 a3bc 8449 08bc aefd 59bc a990 ea3b
00000080: 784b fb3b 1337 043c 8f5c 8bbc e915 c33c
00000090: df60 d6ba cf02 1f3d cb28 9ebc fac5 ad3a
000000a0: 01ad 95bb a382 00bc a43e 12bc a63a 133b
000000b0: 3e2c f23a 5db2 eb3b 6e0b 933c 6b98 513d
000000c0: 6c68 8cbc 1488 8a3c 8f1f a83c 6c5f 90bb
000000d0: 5256 abba 1cda 05bd f14b f4bc 06a2 00bd
000000e0: c76f cc3b ac45 053b d8fb 713a 96c9 c4bc
000000f0: 57a5 9bba 977d 3d3d ac6c 3bbd 1009 85bc
00000100: b5d8 a83c f966 8ebc 6f75 dfbc 6b75 56bd
00000110: 9238 6b3b d2a0 c8bc 2b45 ccbb a0d2 b8bc
00000120: 1057 3eb9 d88d 11bd b064 513b 7509 f8bc
00000130: 892d a2bc 5596 f0bc 75e8 2e3c e24a d9bc
00000140: 181a 3ebc b68e 54ba 4ce5 3f3c 93aa 9d3c
00000150: 6042 3e3c ad34 613b d10b 093b b756 e2bc
00000160: 9307 aabb ce71 65bb 64a0 783b b06d 10bc
00000170: bb72 8abc 8805 633b 2321 4a3c 27e3 193b
00000180: edb4 a7bc 89d2 96bc 22ff b6bc be86 c7bc
00000190: e800 4c3d 3076 e9bc 227e bcbb 0c37 41bd
000001a0: b6a4 84bd 11bf ce3c c28f ce3c 7594 953c
000001b0: 9b6d 1bbc 5a4b 6c3c 584a c3bc de11 ebbc
000001c0: f3c4 193d 804b 0abd fa16 733b 0cbf 39bd
000001d0: 93dc 97bc b740 5dbc 5a5a fe3b d95b 61bc
000001e0: 39fa a0bb aafa d4bc 7925 0fbd 90d7 80bc
000001f0: e7bd 0bbb 9c12 f9bc 3b71 57bd d6d9 00bd
00000200: a93c 8bbc 7191 5abd 1ea6 ff3c 2f93 653d
00000210: 6026 ad3c beda 37bd eacd 60bd af7a c1bb
00000220: 355b 013c f683 16bd bdd9 c83d 0bd7 353d
00000230: f68b 163d 97b4 eb3c 0abd 22bb a892 50bd
00000240: 4ca1 40bd 14bd f3bb 12c0 8f3c 591d 223d
00000250: 0c9c 05bd 080d 16bd c882 b73c d30f 113d
00000260: 43bc ab3d 8300 f93a 9e82 d3bc 5b42 c3bc
00000270: 9bcc 023d 331d 47bd cfc6 6b3d fa6e e03b
00000280: 7e25 31bc 193c b83c 6eb8 85bd 5535 31bc
00000290: 1971 6ebd a8fe 51bd 6ae5 813d 0331 12bb
000002a0: 4274 83bd 9d27 883c ca5e be3c 0352 24bd
000002b0: 5573 b0bd 41cc a43a 7d94 40bd 8675 703c
000002c0: 8677 633d cbb7 ce3c cb86 a4bc 8f42 5e3d
000002d0: 4c3f a4bd cde7 89bd 7324 993d dea5 07bd
000002e0: 07d0 6dbd 483a 853d a769 cfbb bf50 18bd
000002f0: 460c 93bb 2a8e e8bc f73c 9a3d 8a6e a83b
00000300: 156d 63bc a7d8 aa3d 75e7 ad3d e1e5 8f3d
00000310: 7ec1 923b 90b6 38bd 7efc b83b ead7 9fbd
00000320: 0339 e0bb 374c d7bb 396c 913d dce9 ab3d
00000330: 90de 1b3c 6e83 a23d 84f8 94bd c472 90bd
00000340: 0343 4d3b 4e6b 8ebc d2ce 833d 17f3 1bbd
00000350: d6a1 98bd 95cb 553c dc5a 4dbc 29e2 78bd
00000360: c422 723c 27c3 80bd 0c23 f83b 6101 673d
00000370: 8fc4 f73c a9f3 f83a 5a71 d2bd 18ad 2fbd
00000380: de5f d13d a117 ecbc ac34 b7bb 6774 18bd
00000390: 6535 16bc 7f32 79bd 2210 093c 75b0 a0bd
000003a0: b40f d33d 8f83 1f3b f3bc 3fbb 997b 473c
000003b0: 9740 a33d a524 acbd 1709 af3d 92c7 4a3d
000003c0: 27d6 9bbc 0838 4abd e3a9 813d e322 7dbd
000003d0: 158f 8e3d f32d 8abd dd25 00bd d7de c739
000003e0: a953 983b 3d64 8cbc 71b9 13bd 4606 803d
000003f0: bdfd 773d 1d3a 803d 5bb7 9f3d 4f99 423d

action_model._discrete_distribution.branches.1.bias f4 [3]
-0.0030236382 -0.009963874 0.014043559
00000000: 3b28 46bb 843f 23bc f516 663c

critic.network_body.linear_encoder.seq_layers.0.weight f4 [128, 37]
0.14840323 0.20837235 -0.18670116 0.0033397628 -0.09035917 -0.13144736 -0.06625377 0.10858609
0.053843204 0.28918192 0.09102702 -0.1293455 0.35290945 0.003323903 0.048636932 0.09309872
-0.2361127 0.13299441 -0.22967736 0.12928306 -0.1502118 -0.15157226 -0.11494821 -0.2783402
-0.2788267 -0.12967537 0.3433656 0.019470414 -0.07535273 -0.07471257 -0.15587737 -0.20481318
0.20971295 -0.13869709 0.10896703 -0.078958444 0.26887098 -0.22314365 -0.08639408 -0.25896606
0.0023228307 -0.17543937 0.29021356 -0.29934093 -0.03607335 -0.30181107 -0.01035594 -0.03309929
-0.1397885 0.114519924 0.24125013 0.17014642 -0.04037099 -0.2541878 0.004071455 -0.16252743
0.103754416 -0.18706867 0.33077192 0.15736575 0.40815127 -0.33706734 0.35193482 0.018575683
0.5424743 -0.20926903 -0.05892989 0.020187387 0.10028393 -0.054488372 0.096781515 0.24480093
0.27250206 -0.4519235 0.09327733 0.21563825 -0.3461734 -0.2380507 -0.0783798 0.2484823
0.07487534 -0.124943465 0.30618092 0.052452166 0.012879091 0.06534978 0.080647804 0.04367171
-0.012617963 -0.30050302 0.0030312655 -0.15600817 0.027680539 -0.0885155 0.083115496 0.18024613
-0.10826491 0.06316041 -0.09997435 0.14271767 0.01955824 0.1803143 -0.21689321 0.014962659
-0.096816406 -0.11934866 -0.014701922 0.12724714 -0.04473553 0.11942396 0.17060447 0.12385604
0.021393823 -0.10473565 0.07282579 -0.024457198 -0.047790587 -0.17526688 0.3537917 0.30262896
0.17243776 0.062297255 0.12747946 -0.04311263 0.12871037 -0.047205135 0.013323411 -0.36626655
0.007762042 -0.031180885 0.1412021 0.13058914 0.45113134 -0.27139524 0.25072092 -0.16138393
0.13149692 0.16395104 0.27803165 0.12945919 -0.09142091 0.034148287 -0.05938602 -0.21889718
0.07256916 0.066051155 -0.07536371 0.10445471 -0.11869262 -0.3427131 -0.14965235 0.3595668
-0.06644345 0.11503418 0.14089246 0.38908514 -0.08907588 -0.31685945 -0.053074516 0.113784015
0.023625936 -0.0015171824 0.1979432 -0.3193771 -0.05952729 0.11887573 0.0601311 0.05361462
-0.06836966 0.0752243 -0.09520718 -0.19545738 -0.004552963 0.11107776 0.17412485 -0.14240007
-0.04960208 -0.22097637 0.100887984 0.06979027 0.2538674 0.025757937 -0.19422917 0.038039286
0.17728177 0.21817245 -0.044281226 -0.085147 0.16333541 -0.022295956 0.12775874 0.0895507
0.25568268 0.27012783 0.21914963 0.24969138 -0.068578176 -0.14934278 0.1975388 0.1735845
0.05583849 -0.029791536 0.035979833 -0.25704813 0.0027716516 -0.039421104 0.07844323 -0.24697538
-0.16334489 0.06870773 0.3029574 -0.01605366 -0.11606042 0.13694943 0.1456174 0.29186293
-0.15841676 0.05542055 0.14372714 0.05793796 -0.009859218 0.019696835 0.26246575 0.04313978
-0.3100851 -0.063232705 0.19006893 0.25895786 0.102185115 0.051822305 -0.1313783 0.19858003
0.17073384 -0.004361798 0.061978348 0.18661737 0.039596103 -0.19084643 -0.12850775 0.05396003
0.011682821 0.11218521 -0.021868037 0.02557681 0.104038715 -0.14236966 -0.45299286 -0.09259824
-0.33917645 0.09731214 0.11585647 -0.17471252 0.43981117 -0.1287447 -0.1431384 0.019588767
00000000: 04f7 173e 905f 553e 972e 3fbe ecdf 5a3b
00000010: 3b0e b9bd 239a 06be 0eb0 87bd 6262 de3d
00000020: b18a 5c3d a70f 943e 606c ba3d 2673 04be
00000030: 8cb0 b43e d7d5 593b 8537 473d 8baa be3d
00000040: 87c7 71be b02f 083e 8b30 6bbe c762 043e
00000050: 1fd1 19be c235 1bbe f869 ebbd 9b82 8ebe
00000060: 60c2 8ebe 9fc9 04be 9ecd af3e 6b80 9f3c
00000070: 8852 9abd e702 99bd 519e 1fbe 8cba 51be
00000080: febe 563e 9c06 0ebe 1b2a df3d f7b4 a1bd
00000090: 75a9 893e c57f 64be 61ef b0bd 3397 84be
000000a0: a23a 183b 61a6 33be df96 943e 3743 99be
000000b0: a6c1 13bd fb86 9abe f6ab 29bc 1f93 07bd
000000c0: b724 0fbe 6c89 ea3d 460a 773e dd3a 2e3e
000000d0: 0d5c 25bd e724 82be d769 853b 976d 26be
000000e0: 327d d43d ee8e 3fbe f05a a93e 7d24 213e
000000f0: 34f9 d03e 1794 acbe cd30 b43e 082c 983c
00000100: 99df 0a3f 9f4a 56be 7860 71bd 0560 a53c
00000110: a961 cd3d 332f 5fbd 6335 c63d 18ad 7a3e
00000120: 6485 8b3e 8462 e7be 2f08 bf3d 46d0 5c3e
00000130: a43d b1be 90c3 73be 9785 a0bd 2572 7e3e
00000140: 3e58 993d 5ce2 ffbd bfc3 9c3e 15d8 563d
00000150: d302 533c 1bd6 853d ad2a a53d 1be1 323d
00000160: 93bb 4ebc 88db 99be 32a8 463b 9bc0 1fbe
00000170: 4cc2 e23c 9d47 b5bd 7538 aa3d 7192 383e
00000180: feb9 ddbd 3f5a 813d 5abf ccbd 9524 123e
00000190: 9a38 a03c 50a4 383e 4119 5ebe f125 753c
000001a0: ae47 c6bd 126d f4bd 55e0 70bc 134d 023e
000001b0: 9a3c 37bd 8d94 f43d f0b2 2e3e 3ca8 fd3d
000001c0: 1942 af3c a57f d6bd b025 953d 765a c8bc
000001d0: 10c0 43bd 2979 33be 3024 b53e 2ff2 9a3e
000001e0: 8693 303e 682b 7f3d fa89 023e de96 30bd
000001f0: a7cc 033e 2c5a 41bd 704a 5a3c 4a87 bbbe
00000200: ba58 fe3b 0e6f ffbc 4997 103e 29b9 053e
00000210: b0fa e63e 51f4 8abe 7e5e 803e d441 25be
00000220: 21a7 063e c8e2 273e 2a5a 8e3e f390 043e
00000230: e33a bbbd 13df 0b3d c13e 73bd 9526 60be
00000240: 249f 943d d445 873d 4a58 9abd 5aec d53d
00000250: 1e15 f3bd 1778 afbe 773e 19be 2419 b83e
00000260: 8113 88bd 0a97 eb3d 1d46 103e 2b36 c73e
00000270: 6a6d b6bd 673b a2be aa64 59bd 9807 e93d
00000280: 2e8b c13c 32dc c6ba 9fb1 4a3e 6585 a3be
00000290: e3d2 73bd 1e75 f33d 074c 763d 019b 5b3d
000002a0: 6405 8cbd 330f 9a3d fbfb c2bd fb25 48be
000002b0: 0631 95bb bd7c e33d c94d 323e 53d1 11be
000002c0: 8d2b 4bbd a147 62be 5c9e ce3d 33ee 8e3d
000002d0: e8fa 813e 4f02 d33c 03e4 46be 15cf 1b3d
000002e0: 5a89 353e 9968 5f3e 3b60 35bd 8d61 aebd
000002f0: 6641 273e 02a6 b6bc 30d3 023e 5b66 b73d
00000300: d7e8 823e 324e 8a3e c368 603e 19af 7f3e
00000310: b772 8cbd 50ed 18be 9c47 4a3e 23c0 313e
00000320: e7b6 643d 610d f4bc 975f 133d d09b 83be
00000330: 99a4 353b 0678 21bd d8a6 a03d 1de7 7cbe
00000340: e243 27be a3b6 8c3d 3b1d 9b3e f782 83bc
00000350: 16b1 edbd 793c 0c3e ba1c 153e 0f6f 953e
00000360: 0138 22be a900 633d 352d 133e 5b50 6d3d
00000370: 8f88 21bc 425b a13c e961 863e 57b3 303d
00000380: 79c3 9ebe 2680 81bd 6ea1 423e 2096 843e
00000390: 6e46 d13d a043 543d 0888 06be 9058 4b3e
000003a0: dad4 2e3e 6aed 8ebb 02dd 7d3d a018 3f3e
000003b0: 862f 223d 3f6d 43be 8997 03be 3105 5d3d
000003c0: 4e69 3f3c 5cc1 e53d 9924 b3bc 7586 d13c
000003d0: 4012 d53d 5ac9 11be aeee e7be 25a4 bdbd
000003e0: 89a8 adbe 964b c73d 2846 ed3d d7e7 32be
000003f0: ee2e e13e a7d5 03be df92 12be 9f78 a03c

critic.network_body.linear_encoder.seq_layers.0.bias f4 [128]
-0.006351446 0.020774484 0.027211938 0.027809467 0.009342527 0.0063939 -0.014201034 0.013818267
-0.007888694 0.062464833 -0.0029408536 0.00996369 0.052030094 -0.0054498003 0.020876434 -0.0059540975
-0.004917089 -0.010230375 -0.010623254 0.012824201 0.0003756802 -0.008797026 -0.0018045239 0.035146166
0.049218014 0.015240003 -0.010075138 0.022344707 -0.0106123015 0.013139553 -0.005717024 -0.010099553
-0.0054724384 0.012866955 -0.001424573 -0.0038748279 -0.00019012099 0.019401545 -0.00016574767 0.018584799
-0.012374876 -0.009980217 0.0027341451 -0.0057184077 0.016012035 0.0045145033 -0.014049764 -0.0069892253
0.009571527 0.019609539 0.008123119 -0.0065586497 -0.008120484 0.024103513 -0.0018218927 9.1690425e-05
-0.0051550656 0.012383993 -0.0007354386 0.012646877 0.007247939 0.003059309 0.009627572 -0.0109858755
0.018552344 -0.0022913318 0.013411894 0.0136749 0.08633203 0.010879478 0.038559873 -0.015189659
-0.008657961 0.02276662 -0.011699196 0.014562461 -0.009015919 -0.0054505505 0.009399952 -0.0022941346
-0.004016095 0.017526565 0.01190957 -0.023329036 -0.00021892825 0.0024549973 -0.0025491405 0.0026444946
0.022254061 0.011201628 0.02624528 0.05059478 0.00347617 0.0003969831 0.005053471 -0.008155914
-0.00454288 0.0009417929 0.00090083753 0.013645284 -0.0063792923 -0.016092453 0.021753838 -0.005658859
0.012237787 -0.009808142 -0.0046051154 0.0200483 0.012819747 -0.0072921677 0.036031082 -0.0017712117
0.012821826 -0.014010886 0.008163774 -0.005924976 0.010624779 0.010328461 -0.0008566335 0.012315517
0.0077577326 -0.0015067693 0.014640452 0.015035169 0.009900048 0.01039319 0.02711978 0.018071644
00000000: ca1f d0bb 402f aa3c 92eb de3c aed0 e33c
00000010: 6611 193c ec83 d13b 74ab 68bc 0366 623c
00000020: 953f 01bc 20db 7f3d 56bb 40bb bf3e 233c
00000030: 821d 553d 3d94 b2bb 0e05 ab3c 971a c3bb
00000040: 881f a1bb 4e9d 27bc 280d 2ebc 991c 523c
00000050: f1f6 c439 6721 10bc c685 ecba 6df5 0f3d
00000060: d498 493d 35b1 793c 3112 25bc 3f0c b73c
00000070: 38df 2dbc 4847 573c e055 bbbb 9878 25bc
00000080: 2452 b3bb eccf 523c bdb8 baba d3f0 7dbb
00000090: 375b 47b9 fdef 9e3c 8dcc 2db9 263f 983c
000000a0: febf 4abc 1084 23bc 582f 333b 7b61 bbbb
000000b0: ac2b 833c 66ee 933b fb30 66bc df05 e5bb
000000c0: e5d1 1c3c 2fa4 a03c d516 053c f1e9 d6bb
000000d0: c70b 05bc bb74 c53c 93cc eeba ec49 c038
000000e0: d3eb a8bb 3be6 4a3c 73ca 40ba d934 4f3c
000000f0: 1e80 ed3b b07e 483b f7bc 1d3c 1afe 33bc
00000100: 16fb 973c 2b2a 16bb 90bd 5b3c b00c 603c
00000110: d9ce b03d d73f 323c f5f0 1d3d 0cde 78bc
00000120: 1fda 0dbc 1081 ba3c fcad 3fbc 6397 6e3c
00000130: 81b7 13bc 889a b2bb 4202 1a3c 3159 16bb
00000140: 7299 83bb df93 8f3c 5b20 433c 891c bfbc
00000150: 1b90 65b9 05e4 203b 7b0f 27bb 424f 2d3b
00000160: 264e b63c 0887 373c 5700 d73c 793c 4f3d
00000170: 74d0 633b 2b22 d039 9697 a53b 62a0 05bc
00000180: 71dc 94bb a7e2 763a 2f26 6c3a 7890 5f3c
00000190: 6209 d1bb 52d4 83bc 1b35 b23c f36d b9bb
000001a0: 0081 483c 54b2 20bc 82e6 96bb 553c a43c
000001b0: eb09 523c 23f3 eebb 5495 133d 0128 e8ba
000001c0: a312 523c ea8d 65bc 5ac1 053c 4d26 c2bb
000001d0: 8e13 2e3c b538 293c b38f 60ba 06c7 493c
000001e0: 9434 fe3b ca7e c5ba 82de 6f3c 1256 763c
000001f0: d033 223c 3348 2a3c 4d2a de3c fc0a 943c

critic.network_body.linear_encoder.seq_layers.2.weight f4 [128, 128]
-0.006368046 -0.12667227 -0.0952315 0.0028066582 0.025914934 0.049579337 -0.029886268 0.07555266
0.07282804 0.10661824 0.00035851682 0.12255261 0.11916058 0.0747623 0.00014581559 0.09153077
-0.015424167 -0.055177305 -0.030094873 0.11055049 -0.09937606 0.049665723 0.015981972 -0.089840926
0.066060774 0.014553897 -0.029525599 0.14240712 0.06498949 -0.036169693 0.07941953 0.13979638
-0.0052589467 0.03703102 -0.051545408 0.07613754 -0.1102742 0.011734915 0.092926495 0.11616598
0.030300086 -0.07240211 -0.15478992 -0.13199049 -0.038874906 -0.08234409 0.05257873 0.089939855
0.021117127 -0.12075412 0.103354566 0.16191429 0.02999936 -0.058918677 -0.078515016 0.053
-0.057406314 0.03044021 -0.12348273 -0.042532235 -0.012733116 0.014168218 0.061549254 0.061219122
-0.06863705 0.042211447 0.10610893 -0.035176728 0.12221467 0.1376516 -0.03805297 0.10850802
0.038251065 -0.01685308 0.04338844 0.06450883 0.045691524 -0.17615598 -0.09244231 -0.10987017
0.0024561898 -0.1974869 0.064126 -0.0043087355 -0.07505931 0.12602839 0.030429704 0.0701628
-0.07024502 -0.13324665 0.031192293 -0.06481011 -0.00049433275 -0.19159247 0.05032538 -0.112950794
-0.09676053 0.031471394 -0.09187098 0.0048892545 0.011644418 -0.10435989 0.0030219813 0.093227245
-0.0033022282 0.10218665 -0.026070217 0.025282111 -0.06736445 0.04108332 -0.026549194 0.01578571
-0.092267655 -0.04205618 0.04291105 -0.090758406 -0.04382982 0.023071848 0.021586385 -0.053505875
0.13049579 0.12464761 -0.07959982 -0.050606336 0.02598469 0.12681116 0.009662694 -0.002105718
-0.08112418 -0.045771405 -0.04911915 -0.002153473 0.06752303 -0.030703278 -0.06069229 0.033474036
-0.039770745 -0.026315643 -0.06138879 -0.07586533 0.085635304 -0.029450057 0.031290095 -0.13779275
0.050172307 0.15706147 0.023152938 0.0031512352 -0.034926537 -0.07983156 0.14103647 0.08848751
-0.18761787 -0.01284036 -0.025419077 -0.008817114 0.13963892 0.040503282 -0.058490515 -0.096085556
0.104694 0.023963653 -0.038281683 -0.043484222 -0.019383568 -0.10864463 0.08674298 -0.26148057
-0.13989978 0.17052205 -0.21274924 -0.09295498 0.12063512 -0.16130222 -0.08086126 0.13377336
-0.05956536 0.049192593 -0.021396257 0.030215764 -0.12495871 0.09283141 -0.09869099 0.014517696
0.121424586 -0.026277479 -0.13907306 -0.08381631 0.028039822 0.02298497 0.06955075 -0.057470977
0.20337324 0.115843646 -0.21530384 -0.017217888 0.07856412 -0.12163497 0.03472957 0.01132237
0.03624122 0.10733452 -0.12618627 -0.23394388 -0.008137172 -0.14504844 0.15914382 -0.028950786
0.015898509 -0.016606035 -0.006366336 0.06135356 0.14390855 -0.033812623 0.0063272733 0.017114585
0.10479698 -0.086571395 0.00092159136 0.07098936 -0.16175807 0.08764041 -0.001683149 -0.12822707
-0.025683157 0.15271817 -0.18313463 -0.16028087 0.041661542 -0.03127421 0.11952932 -0.14177726
-0.12644821 0.09048866 0.057020288 -0.2303021 -0.24076208 0.2281519 0.056087833 -0.13852462
-0.16358706 -0.16225602 0.046272743 -0.16809669 0.021658795 0.030188665 0.05470798 -0.0041918936
0.12865509 -0.053885605 0.04314576 0.041542478 0.04093255 -0.13683178 0.016468605 0.07433995
00000000: 0bab d0bb 60b6 01be bc08 c3bd e9ef 373b
00000010: 8e4b d43c b413 4b3d 0cd4 f4bc 5abb 9a3d
00000020: de26 953d aa5a da3d 50f7 bb39 ddfc fa3d
00000030: 760a f43d fa1c 993d 13e6 1839 7c74 bb3d
00000040: a5b5 7cbc 9901 62bd 8689 f6bc 4c68 e23d
00000050: ad85 cbbd 496e 4b3d a0ec 823c 85fe b7bd
00000060: df4a 873d 7873 6e3c abdf f1bc 2cd3 113e
00000070: 3619 853d ac26 14bd b5a6 a23d c826 0f3e
00000080: 3e53 acbb d7ad 173d 4721 53bd 00ee 9b3d
00000090: 71d7 e1bd cd43 403c 3f50 be3d 6ee8 ed3d
000000a0: e337 f83c 8f47 94bd 4081 1ebe 8428 07be
000000b0: 4b3b 1fbd 05a4 a8bd cb5c 573d 6332 b83d
000000c0: d3fd ac3c f04d f7bd 8fab d33d dccc 253e
000000d0: 38c1 f53c b654 71bd 7bcc a0bd 8716 593d
000000e0: e222 6bbd bf5d f93c 83e4 fcbd 4836 2ebd
000000f0: 8f9e 50bc d021 683c 121b 7c3d e7c0 7a3d
00000100: 9591 8cbd e9e5 2c3d a44f d93d 7915 10bd
00000110: af4b fa3d 8bf4 0c3e 6edd 1bbd 7439 de3d
00000120: 26ad 1c3d 780f 8abc 14b8 313d 351d 843d
00000130: 0927 3b3d 3c62 34be 6552 bdbd 9d03 e1bd
00000140: 07f8 203b 023a 4abe 7e54 833d 4b30 8dbb
00000150: b2b8 99bd 960d 013e b747 f93c 84b1 8f3d
00000160: 9fdc 8fbd cf71 08be fb86 ff3c 2abb 84bd
00000170: 1c96 01ba d130 44be fc21 4e3d bf52 e7bd
00000180: 622a c6bd 26e8 003d da26 bcbd 0a36 a03b
00000190: 3bc8 3e3c a3ba d5bd 6f0c 463b eded be3d
000001a0: 326a 58bb 3c47 d13d 3591 d5bc 6e1c cf3c
000001b0: 5ff6 89bd fc46 283d b27d d9bc 0951 813c
000001c0: d3f6 bcbd 1a43 2cbd 7fc3 2f3d 8bdf b9bd
000001d0: e686 33bd 2c01 bd3c eed5 b03c fa28 5bbd
000001e0: b0a0 053e 3f47 ff3d 3b05 a3bd 9748 4fbd
000001f0: d8dd d43c c9da 013e 4750 1e3c 1600 0abb
00000200: 6f24 a6bd cc7a 3bbd 2931 49bd 4821 0dbb
00000210: 8449 8a3d 7185 fbbc 7b98 78bd 121c 093d
00000220: a6e6 22bd e793 d7bc d072 7bbd 485f 9bbd
00000230: 9061 af3d 3f41 f1bc 0b2a 003d 8b19 0dbe
00000240: 7a81 4d3d b9d4 203e 3bab bd3c f484 4e3b
00000250: 210f 0fbd bb7e a3bd dd6b 103e f138 b53d
00000260: e61e 40be 6060 52bc ab3b d0bc a875 10bc
00000270: 81fd 0e3e c5e6 253d c093 6fbd 81c8 c4bd
00000280: cf69 d63d 6c4f c43c 41cd 1cbd 831c 32bd
00000290: 4aca 9ebc 1381 debd 4ea6 b13d c8e0 85be
000002a0: e341 0fbe 559d 2e3e f0da 59be 2e5f bebd
000002b0: 8c0f f73d 692c 25be 979a a5bd e2fb 083e
000002c0: cffa 73bd 2c7e 493d 3447 afbc 0d87 f73c
000002d0: 5aea ffbd 651e be3d 801e cabd a1db 6d3c
000002e0: 74ad f83d de43 d7bc 2b69 0ebe e3a7 abbd
000002f0: c5b3 e53c fa4a bc3c a070 8e3d b066 6bbd
00000300: 1341 503e 6f3f ed3d 9c78 5cbe 870c 8dbc
00000310: 3ae6 a03d c11b f9bd 9840 0e3d 7681 393c
00000320: ac71 143d 33d2 db3d f936 01be fc8e 6fbe
00000330: c651 05bc 9487 14be 99f6 223e 332a edbc
00000340: 973d 823c 6109 88bc b29c d0bb df4d 7b3d
00000350: c35c 133e 1b7f 0abd 0455 cf3b e333 8c3c
00000360: cd9f d63d 584c b1bd f396 713a df62 913d
00000370: e8a3 25be d17c b33d 1c9d dcba f54d 03be
00000380: 7c65 d2bc 2762 1c3e a587 3bbe ab20 24be
00000390: 4ba5 2a3d 6319 00bd cacb f43d 0f2e 11be
000003a0: a47b 01be 1e52 b93d 1b8e 693d 50d4 6bbe
000003b0: 568a 76be a7a0 693e 5bbc 653d 66d9 0dbe
000003c0: 5e83 27be 7126 26be 7d88 3d3d 8a21 2cbe
000003d0: c96d b13c 384e f73c 7a15 603d 275c 89bb
000003e0: 29be 033e 27b7 5cbd 9cb9 303d 7228 2a3d
000003f0: e4a8 273d a11d 0cbe 2be9 863c 8b3f 983d
