results/Train7/DriveAroundTrack/checkpoint.pt (torch, 541687 bytes, 39 tensors)

network_body.linear_encoder.seq_layers.0.weight f4 [128, 37]
0	0x3e53bebe	0.20678231
1	0x3d369b2d	0.04458158
2	0xbd82ad1e	-0.06380676
3	0x3c4b160d	0.012395394
4	0x3e8b96ae	0.27263397
5	0xbdd43744	-0.103621036
6	0x3e8aa367	0.2707779
7	0x3ebfd99d	0.37470713
8	0xbac834d7	-0.0015274537
9	0x3e6605b4	0.22463113
10	0x3e893f50	0.26806116
11	0x3e09923e	0.13434693
12	0x3ee977d2	0.45599228
13	0xbeb21f42	-0.34789473
14	0x3d826a4c	0.06367931
15	0xbe24a6c2	-0.16079238
16	0xbe22d20d	-0.1590044
17	0x3ea02915	0.31281343
18	0xbe080549	-0.13283266
19	0xbdff6633	-0.12470665
20	0x3e2e80e7	0.1704136
21	0x3db375ce	0.08762704
22	0x3d831610	0.064006925
23	0xbbdb5561	-0.0066935276
24	0xbdc78296	-0.09741704
25	0x3d063cad	0.03277271
26	0x3ddac217	0.10681551
27	0x3dd045b9	0.101695485
28	0x3d7a4a46	0.06110599
29	0x3e85f45a	0.26162988
30	0xbe13616c	-0.14392632
31	0xbc49b840	-0.012311995
32	0x3dacb35a	0.08432646
33	0x3dd26981	0.102740295
34	0x3e8157d0	0.25262308
35	0x3ec7abc1	0.38998225
36	0xbe81a1d5	-0.2531878
37	0x3ecabae0	0.395957
38	0xbec6a581	-0.38798144
39	0xbd8e4daa	-0.06948407
40	0x3d01dd05	0.03170492
41	0x3e880b47	0.26571104
42	0x3e4580a9	0.19287361
43	0x3b8c9401	0.0042901044
44	0xbe62e9f9	-0.22159566
45	0xbe1e97dc	-0.15487617
46	0x3df8a8a2	0.12141539
47	0x3e15360b	0.14571397
48	0x3eb515dd	0.35368243
49	0x3dd982dc	0.106206626
50	0xbd360f6c	-0.0444483
51	0x3d8930c1	0.06698752
52	0xbba13b68	-0.004920412
53	0x3bcda24c	0.006275451
54	0x3e0dbebc	0.1384229
55	0x3eaad535	0.3336579
56	0xbbec5993	-0.0072128265
57	0x3d5ab1ba	0.05339215
58	0x3e0f9a67	0.14023744
59	0x3d88e8a7	0.06685
60	0xbe04d513	-0.12971906
61	0x3e65e99b	0.22452395
62	0x3eb99f5f	0.36254403
63	0x3e943089	0.2894328
64	0xbe259a2c	-0.16172093
65	0x3c2eaa3d	0.010660705
66	0x3d97ec11	0.07418073
67	0xbde5e6d6	-0.11225669
68	0x3b5443bf	0.0032389013
69	0x3db3d3f2	0.0878066
70	0xbe0311cc	-0.12799758
71	0x3df7a2eb	0.12091621
72	0xbd109a9b	-0.035303693
73	0xbda7100a	-0.08157356
74	0xbd813921	-0.063097246
75	0xbe137671	-0.1440065
76	0x3cff6418	0.031175658
77	0x3e8193d4	0.25308096
78	0xbb99e1e1	-0.0046961163
79	0x3e19da8b	0.15024774
80	0xbd68dcda	-0.056851245
81	0x3cc87c79	0.024473416
82	0x3e55baf3	0.20872097
83	0xbde5937f	-0.11209773
84	0xbe642ada	-0.22281972
85	0xbdde1c55	-0.10845248
86	0x3e1aac22	0.15104726
87	0x3c8192b7	0.01581703
88	0x3d73b5f1	0.059499685
89	0xbe549f78	-0.20763958
90	0x3e6045a6	0.21901569
91	0xbe37c5dd	-0.17946573
92	0x3e20c9b1	0.15701939
93	0x3c9ca240	0.019120336
94	0x3d16c27d	0.036806572
95	0x3db50a0a	0.088398054
96	0x3b09e4fc	0.0021041026
97	0xbda77f28	-0.0817855
98	0xbe050c59	-0.12992992
99	0xbea786b2	-0.32719952
100	0xbea1facf	-0.31636664
101	0xbe1f50f6	-0.15558228
102	0x3e12352e	0.14278099
103	0x3df60827	0.12013274
104	0xbe1ce7bb	-0.15322773
105	0x3ebd8e12	0.37022454
106	0xbd761327	-0.06007686
107	0xbd89bb5a	-0.067251876
108	0xbe658511	-0.22414042
109	0xbe31941e	-0.17341658
110	0xbdb328ea	-0.08748038
111	0x3eef58b4	0.46747363
112	0x3e164197	0.14673458
113	0xbe4d19b6	-0.20029339
114	0xbe18aa29	-0.14908661
115	0xbe3df6d9	-0.18551196
116	0x3e98331b	0.2972649
117	0x3bfd9370	0.007738523
118	0xbdc0ae81	-0.09408284
119	0xbcc6cbe4	-0.024267145
120	0xbdf86cb8	-0.121301115
121	0x3d8ffcab	0.070306145
122	0x3c2747e0	0.010210007
123	0xbd93951e	-0.07206176
124	0xb9d72cc1	-0.0004104134
125	0x3be2a1be	0.006916254
126	0x3e6a2b29	0.22868027
127	0xbd95ca87	-0.0731402
128	0x3e919791	0.28435948
129	0xbe7b620c	-0.2454912
130	0x3e5ab39f	0.21357583
131	0x3e9f47e8	0.31109548
132	0x3e33329c	0.17499775
133	0xbc3572df	-0.011074751
134	0x3ee41083	0.44543847
135	0x3e226a91	0.15860964
136	0x3d804acc	0.06264266
137	0x3ddcfb0f	0.10790073
138	0x3de73f6d	0.112913944
139	0x3da6b242	0.08139469
140	0x3dbf6336	0.09345095
141	0xbdb2b790	-0.08726418
142	0xbe3d2ef0	-0.18474936
143	0xbe192226	-0.14954433
144	0x3e0ba593	0.1363738
145	0xbe11fbd8	-0.14256227
146	0x3e015241	0.12629034
147	0x3dd0ed45	0.102015056
148	0x3dc75ff5	0.09735099
149	0xbc56bfbe	-0.013107238
150	0x3e1a1c49	0.15049852
151	0x3e7baf42	0.24578574
152	0xbd9d6b1a	-0.076864436
153	0x3eb825b0	0.35966253
154	0xbaf81263	-0.0018926378
155	0x3eb84c4f	0.3599572
156	0x3dadb2e2	0.08481385
157	0x3e4235fe	0.18965909
158	0x3e3c75b0	0.18404269
159	0x3e1adc5d	0.15123124
160	0x3eb76616	0.35820073
161	0x3e1fc6a5	0.1560312
162	0xbe05f6ef	-0.13082479
163	0x3e95e77d	0.29278174
164	0x3e491123	0.19635443
165	0xbdd5f1e3	-0.10446527
166	0x3da2d9e9	0.07951719
167	0xbdbc5f82	-0.09197904
168	0x3e0c1695	0.1368049
169	0xbe185791	-0.14877154
170	0x3e1da773	0.15395908
171	0x3d889ae1	0.06670166
172	0x3b978e81	0.004625142
173	0x3dc09c14	0.094047695
174	0x3e9a9bf0	0.30197096
175	0xbdc7f980	-0.09764385
176	0xbd70918d	-0.058732558
177	0x3d39f176	0.04539629
178	0xbe595c37	-0.21226583
179	0x3d90b37c	0.07065484
180	0xbe093289	-0.13398184
181	0x3e86545d	0.2623624
182	0xbb964f83	-0.0045871153
183	0xbc99c33e	-0.018769857
184	0x3e9e60ca	0.3093322
185	0x3e8dcaef	0.2769389
186	0x3ecbde29	0.39817932
187	0xbe2150b1	-0.15753438
188	0xbdc21663	-0.09476926
189	0x3ea076a1	0.31340507
190	0xbd138e7a	-0.036024548
191	0x3db43761	0.08799625
192	0x3da2e92b	0.079546295
193	0xbe0d5b0f	-0.13804267
194	0x3e012802	0.12612918
195	0xbe72a821	-0.23696949
196	0xbca507d0	-0.020145327
197	0x3e38931f	0.18024872
198	0xbda22e0a	-0.079189375
199	0x3dd85d4e	0.105646715
200	0x3e24d902	0.16098407
201	0xbe314205	-0.1731034
202	0xbd65b96f	-0.056085046
203	0xbe285666	-0.16439208
204	0xbd7fb2ad	-0.062426258
205	0x3adf2cac	0.0017026863
206	0x3d23b4bb	0.03996728
207	0x3da0c803	0.07850649
208	0xbd5c59bc	-0.053796515
209	0xbe851685	-0.25993744
210	0xbd1e8426	-0.038700245
211	0xbd6488e6	-0.05579462
212	0x3cbfe72d	0.023425663
213	0x3dd66858	0.10469121
214	0xbd1ff196	-0.039048754
215	0x3dbf2124	0.09332493
216	0x3dd66803	0.104690574
217	0xbebd97c2	-0.37029845
218	0x3ee2e587	0.4431574
219	0x3e6e9a2e	0.23301002
220	0x3d0aae35	0.033857543
221	0x3db92e77	0.090420656
222	0xbd921469	-0.07132799
223	0x3e1aeb19	0.15128745
224	0x3d744abf	0.059641596
225	0x3e41ebf8	0.18937671
226	0x3e43ae36	0.19109425
227	0xbdb27f79	-0.0871572
228	0xbe883d08	-0.26609063
229	0xbdef0703	-0.11671259
230	0xbea0ddde	-0.3141927
231	0x3dd7d219	0.1053812
232	0xbb9d6b92	-0.004804083
233	0x3c4684b4	0.0121166
234	0x3d8275f0	0.06370151
235	0xbde79ead	-0.11309562
236	0xbe7d7151	-0.24750258
237	0x3ed194a0	0.40933704
238	0x3cc84bd1	0.024450215
239	0x3d913833	0.07090797
240	0x3e148baa	0.14506403
241	0x3e155865	0.14584501
242	0x3dc631c6	0.09677462
243	0xbeade219	-0.3396156
244	0x3d96ff40	0.07372904
245	0x3e8e80b4	0.27832568
246	0xbd518590	-0.051152766
247	0xbda0621a	-0.078312114
248	0x3dd38ed4	0.10329977
249	0x3e135392	0.14387348
250	0x3d6a83da	0.05725465
251	0x3d04b44a	0.0323985
252	0xbd4f983e	-0.0506823
253	0xbe878fd3	-0.26476917
254	0x3d9243a4	0.07141808
255	0xbd0c0dc6	-0.034192823

network_body.linear_encoder.seq_layers.0.bias f4 [128]
0	0x3ce3b627	0.027796818
1	0x3b34c9de	0.0027586143
2	0x3d17eef3	0.037093114
3	0x3cff47e9	0.03116222
4	0x3cea6c48	0.028616086
5	0x3c17bd22	0.009261401
6	0x3cb4e594	0.022082128
7	0x3cfdd59a	0.030985642
8	0x3c4b5ec6	0.0124127325
9	0x3ccd4136	0.025055509
10	0xbd0ac4ea	-0.033879198
11	0xbcb6a327	-0.022294594
12	0xbc764d22	-0.015033038
13	0x3c1523f1	0.009102807
14	0x3c396a68	0.011316873
15	0x3cc92f91	0.024558814
16	0x3b89ca57	0.004205029
17	0x3ca914cb	0.020639798
18	0x3c91e910	0.017811328
19	0x3c890974	0.01672814
20	0xbd16fedc	-0.036864147
21	0xbc25b3dc	-0.010113683
22	0x3cb3295b	0.021870306
23	0x3c8004df	0.015627323
24	0x3d46fda0	0.04858172
25	0x3d1d4615	0.038396914
26	0x3d3688b3	0.04456396
27	0xbc9bc531	-0.019014927
28	0x3b3183a6	0.0027086525
29	0x3d11b282	0.03557063
30	0x3bb5fd11	0.0055538495
31	0xbcfe5706	-0.031047355
32	0xbbb2498c	-0.0054408964
33	0xbcbdce37	-0.02316962
34	0xbccfc0d7	-0.025360508
35	0x3ce7a691	0.028277667
36	0x3be5f2be	0.0070174625
37	0x384aa932	4.831813e-05
38	0x3c7cdb21	0.015433104
39	0x3cf81722	0.030284468
40	0x3cc47164	0.02397985
41	0xbc78267f	-0.015145897
42	0x3c076c16	0.008265516
43	0x3c75489e	0.014970927
44	0x3d29632c	0.041354343
45	0x3c1a2535	0.009408285
46	0x3cd0550d	0.02543118
47	0x3c5042d2	0.012711244
48	0x3cd7575c	0.026286773
49	0xbd5fd167	-0.05464306
50	0x3c3bf848	0.011472769
51	0x3b8f9960	0.0043822974
52	0xbc9f1141	-0.019417407
53	0x3d0945d5	0.033513863
54	0xbae77559	-0.0017658874
55	0x3d956975	0.07295505
56	0xbcf0aeb0	-0.029380172
57	0x3d1a7844	0.03771235
58	0x3c0a5dd4	0.008445222
59	0x3ba3c3fa	0.0049977275
60	0x3d01387f	0.03154802
61	0x3cd306e0	0.025760114
62	0x3d03f97d	0.032220352
63	0x3cedc65f	0.029025255
64	0xbc975212	-0.018471751
65	0x3be92100	0.0071145296
66	0xbd105e3b	-0.035246115
67	0x3d31c4a9	0.04340044
68	0xbaa109f3	-0.001228629
69	0x3c996196	0.01872329
70	0x3d261b04	0.040553108
71	0xbc28b473	-0.010296929
72	0xbb118a87	-0.0022207813
73	0xbbc4ea52	-0.0060093785
74	0x3bf1411d	0.0073624984
75	0x3d0ca844	0.034340158
76	0x3d222dc9	0.039594445
77	0x3ce37f28	0.027770594
78	0x3d29c9af	0.041452106
79	0x3d319149	0.043351445
80	0x3ccba116	0.024857085
81	0x39c61122	0.00037778268
82	0x3cedf87f	0.029049156
83	0x3cc3d1b1	0.0239037
84	0xbc0314d2	-0.008000569
85	0x3ceb4a1b	0.02872186
86	0xbcc0ce01	-0.02353573
87	0x3d14d3f6	0.036334954
88	0x3d96d3de	0.07364629
89	0x3c652c5f	0.01398763
90	0x3c01563a	0.007894093
91	0x3c5f0533	0.013612079
92	0x3ca003ed	0.019533122
93	0x3c1de426	0.009636914
94	0x3c1f8fa0	0.009738833
95	0xbb2c8372	-0.0026323465
96	0xba83acd2	-0.0010046011
97	0xbce1901b	-0.027534535
98	0xba9bcdd4	-0.0011886903
99	0xbbe3750d	-0.006941444
100	0xbd5f25f9	-0.054479573
101	0x3b4d45a1	0.003132202
102	0xbd5b0acb	-0.05347709
103	0x3d20369a	0.039114572
104	0x3bb4c145	0.0055162036
105	0x3d075020	0.033035398
106	0x3be6c33c	0.0070423167
107	0x3c2643c2	0.010147991
108	0x3cd5fb08	0.026120678
109	0x3c48e6fb	0.012262101
110	0x3cf8028b	0.03027465
111	0x3d4e0374	0.050296262
112	0x3d0a4874	0.033760503
113	0x3d09b475	0.033619363
114	0x3c05fb5c	0.0081776045
115	0x3d13d2ca	0.036089696
116	0x3d12086a	0.035652556
117	0x3c995cfa	0.018721092
118	0x3d02f320	0.031970143
119	0x3c21e687	0.009881622
120	0x3c9db635	0.019251922
121	0xbc78d8c7	-0.0151884025
122	0x3c806e8a	0.01567771
123	0x3cf9db6e	0.03050014
124	0xbcb0c252	-0.021577034
125	0xbbc3814c	-0.005966341
126	0x3cccb60b	0.024989149
127	0x3d4dd5de	0.050252788

network_body.linear_encoder.seq_layers.2.weight f4 [128, 128]
0	0x3c87c139	0.016571628
1	0x3e607750	0.21920514
2	0xbd52b119	-0.051438425
3	0x3d9d02aa	0.07666524
4	0x3d3dc449	0.04632977
5	0xbd131759	-0.035910938
6	0x3dc91efd	0.09820364
7	0x3d6d040c	0.057865188
8	0x3ddcf964	0.10789755
9	0x3d378a73	0.04480977
10	0x3e4357e4	0.19076496
11	0xbce091de	-0.027413305
12	0x3d9a0eb2	0.07522334
13	0xbd45c36a	-0.048282064
14	0x3c8321cb	0.016007325
15	0x3e286319	0.16444053
16	0xbb0e2f9d	-0.002169586
17	0x3d584051	0.052795712
18	0xbdb3d61c	-0.087810725
19	0xbc86edd7	-0.016470833
20	0x3d811714	0.0630323
21	0xbe1a4818	-0.15066564
22	0xbdc6531c	-0.096838206
23	0xbd9dbed7	-0.077024154
24	0x3bb22c35	0.005437399
25	0x3d2ccf54	0.04218991
26	0x3cadf764	0.02123613
27	0x3b32a6cc	0.0027260063
28	0x3e25f2ae	0.16205856
29	0xbe28fe95	-0.16503365
30	0x3babd01e	0.0052433154
31	0xbdb05529	-0.08609993
32	0xbd2f8fd4	-0.042861775
33	0xbe61c578	-0.22047985
34	0xbc2b67f1	-0.010461793
35	0xbd8d958c	-0.069132894
36	0x3dd1d330	0.10245359
37	0x3d10b8f3	0.03533263
38	0x3cc498b9	0.023998605
39	0x3e5c9870	0.21542525
40	0xbba2434c	-0.00495187
41	0x3e19841b	0.149918
42	0xbdb68be2	-0.08913399
43	0xbd9edf86	-0.077574775
44	0xbe165ad1	-0.14683081
45	0xbe6ed209	-0.2332231
46	0x3e0fb732	0.14034727
47	0xbd97051e	-0.07374023
48	0x3da1e397	0.079047374
49	0x3d2e0acd	0.04249077
50	0xbddd3ab9	-0.10802216
51	0x3caff0eb	0.021477183
52	0xbde02728	-0.109449685
53	0xbc5b4368	-0.01338277
54	0xbe4cdc58	-0.2000593
55	0x3e282f1c	0.16424221
56	0xbda8f9f6	-0.08250801
57	0x3de4dd9b	0.111750804
58	0x3db2d77e	0.08732508
59	0x3d8d88eb	0.06910881
60	0xbd4395c2	-0.047750242
61	0x3cfa3728	0.030543879
62	0xbc1640e9	-0.009170749
63	0xbd418ec4	-0.047255293
64	0x3c82e60a	0.015978832
65	0xbe4104ae	-0.18849441
66	0xbdebc139	-0.11511464
67	0x3c308209	0.01077319
68	0x3b1cfd4e	0.0023954692
69	0xbd693121	-0.05693162
70	0xbce6fb0f	-0.028195886
71	0x3e3673cc	0.1781761
72	0xbe0982b7	-0.1342877
73	0xbdbcdae4	-0.092214376
74	0x3e0c2ff9	0.13690175
75	0xbdd55d1a	-0.10418148
76	0x3d8bcc9e	0.06826137
77	0x3dac27c6	0.08406024
78	0x3df5d194	0.120028645
79	0x3d366da4	0.044538155
80	0x3d3d8cba	0.046276785
81	0x3c38a643	0.011270109
82	0x3dba24e7	0.0908907
83	0xbdc63b4e	-0.0967928
84	0xbe05f6cb	-0.13082425
85	0x3d959019	0.07302875
86	0xbc7b85ec	-0.015351754
87	0x3b32f931	0.0027309174
88	0xbd4ebba3	-0.050471913
89	0xbd2a116b	-0.041520517
90	0x3c96c345	0.018403659
91	0xbd3d885e	-0.046272628
92	0xbc291cbc	-0.010321792
93	0x3daf42f3	0.085576914
94	0x3d56af51	0.05241329
95	0xbdb278b4	-0.087144285
96	0x3ded6986	0.115923926
97	0xbda36a70	-0.07979286
98	0x3e20764d	0.15670128
99	0x3d1b4857	0.037910786
100	0x3ba0f23c	0.004911689
101	0xbd594747	-0.05304649
102	0xbe1a8112	-0.15088299
103	0xbde3cba2	-0.11122824
104	0xba2320a7	-0.0006222822
105	0xbe45f086	-0.19330034
106	0xbd1caab3	-0.03824873
107	0x3dd73c6f	0.10509574
108	0xbd9a087c	-0.075211495
109	0x3d8e5d4c	0.06951389
110	0x3cd4f774	0.025996901
111	0x3da36e64	0.0798004
112	0xbdae83c8	-0.08521229
113	0xbcd3c56a	-0.02585097
114	0xbd636e9e	-0.055525415
115	0x3bd368d1	0.006451704
116	0xbd0b8756	-0.034064613
117	0x3d1de6fa	0.038550355
118	0x3d73684d	0.05942564
119	0x3d97fc20	0.07421136
120	0x3dc60e4d	0.096706964
121	0x3bf4448f	0.007454462
122	0x3dad6a2e	0.08467518
123	0x3e2ab23f	0.16669558
124	0xbe0f158f	-0.13973068
125	0x3e00dd6b	0.12584464
126	0xbcc2b03e	-0.02376568
127	0xbd16d3f3	-0.036823224
128	0x3d8ee2b7	0.06976836
129	0x3e806945	0.25080314
130	0xbcc055e2	-0.023478452
131	0xbb0e8861	-0.0021748769
132	0xbe24992f	-0.1607406
133	0x3e328ab3	0.17435722
134	0x3e5a093b	0.21292584
135	0xbcdc1a63	-0.02686805
136	0x3da9303d	0.08261154
137	0xbd8f500e	-0.06997691
138	0x3e09ed27	0.13469373
139	0x3d1be2a1	0.038057927
140	0xbe36a24e	-0.17835352
141	0xbe0c7338	-0.13715827
142	0xbe18f39b	-0.14936678
143	0xbc0173f9	-0.007901185
144	0x3da8ebfc	0.082481354
145	0x3e7e495a	0.24832669
146	0x3cbcb920	0.023037493
147	0x3c45a6c3	0.012063685
148	0x3e15f43e	0.14643952
149	0xbe041601	-0.12899019
150	0xbe4f4c56	-0.20243964
151	0xbdbacc7a	-0.09121032
152	0xbe26a20f	-0.16272758
153	0xbe4f34b9	-0.20234956
154	0xbd8a8964	-0.067644864
155	0xbd147b77	-0.036250558
156	0x3dc8a779	0.09797568
157	0x3ceb52b2	0.028725956
158	0x3e4949c2	0.19657043
159	0x3d08f30b	0.03343491
160	0x3e196596	0.14980158
161	0x3ce24dad	0.02762493
162	0x3e3f276c	0.18667382
163	0xbda5f561	-0.08103443
164	0x3cb28896	0.021793645
165	0x3d759031	0.059951965
166	0x3de47566	0.111552045
167	0x3e1a8e5b	0.15093367
168	0x3dfd05a3	0.12354591
169	0x3d3c9bb0	0.046046913
170	0x3c1ba399	0.009499454
171	0xbd6774d1	-0.05650789
172	0xbe5c21ac	-0.2149722
173	0x3c5236ac	0.012830418
174	0x3e4343fd	0.19068904
175	0x3d7ac3b7	0.061221804
176	0xbdb4a8f2	-0.08821286
177	0x3cba2adb	0.022725513
178	0x3ca8e1d7	0.020615501
179	0xbb1c7685	-0.0023874354
180	0xbcb95331	-0.022622677
181	0x3bf2acb3	0.0074058413
182	0x3cba79d6	0.022763174
183	0x3ca61b8f	0.020276813
184	0x3d1010db	0.035172325
185	0xbe068b18	-0.13138998
186	0x3e1e1807	0.15438853
187	0xbd2afbce	-0.041744046
188	0x3e84876c	0.2588457
189	0xbd872129	-0.06598122
190	0x3dc67de5	0.09691981
191	0x3c8a5ea9	0.01689084
192	0xbdebfdbc	-0.11523005
193	0xbd085c14	-0.033290938
194	0xbca36515	-0.01994566
195	0xbd918047	-0.07104545
196	0x3d062f46	0.032759927
197	0x3dbd0e37	0.09231227
198	0xbd4fbf66	-0.05071964
199	0xbd88b02d	-0.06674228
200	0x3dea5825	0.114425935
201	0xbcd0ad6f	-0.025473325
202	0xbd8deaf7	-0.069295816
203	0x3dc25cc7	0.09490352
204	0x3e56d5eb	0.2098004
205	0xbda85822	-0.08219935
206	0xbdea38fc	-0.1143665
207	0x3d7c6988	0.06162408
208	0x3e06f073	0.13177662
209	0x3ba2cccb	0.004968261
210	0xbcacd21a	-0.021096278
211	0x3c17f77f	0.009275316
212	0xbcdc6dbb	-0.026907792
213	0xbd20053e	-0.0390675
214	0xbbea7207	-0.0071547064
215	0x3cfc7588	0.030817762
216	0x3d1d9688	0.038473636
217	0xbebdc76c	-0.3706621
218	0x3d45e459	0.048313472
219	0x3d8484cc	0.064706415
220	0xbd647de7	-0.055784132
221	0x3b9962eb	0.0046809814
222	0x3e72d86f	0.23715375
223	0xbdd2dd7d	-0.10296152
224	0x3dee7ed6	0.11645286
225	0x3b9a735e	0.00471346
226	0x3cc5d578	0.024149641
227	0x3dc22fef	0.09481799
228	0xbdddd67b	-0.108319245
229	0xbdf9eb5a	-0.12203093
230	0xbd61b493	-0.05510385
231	0x3e6a26ce	0.22866365
232	0xbe4f9424	-0.20271355
233	0x3dbd7d8a	0.0925246
234	0xbdd61bfb	-0.104545556
235	0x3d7a23e0	0.06106937
236	0x3c22606c	0.009910684
237	0x3e13a9a8	0.14420187
238	0x3d0890dd	0.033341277
239	0xbc936aed	-0.017995322
240	0xbd7aadbc	-0.061200842
241	0x3c123d42	0.008925738
242	0x3d2f1ccc	0.042752072
243	0x3d034af6	0.03205391
244	0xbe9ea79e	-0.30987257
245	0x3dd07fe4	0.10180643
246	0xbe6f9e16	-0.23400149
247	0xbe16d00c	-0.14727801
248	0x3df3de4d	0.11907635
249	0xbe2e0280	-0.16993141
250	0x3e079c76	0.13243279
251	0x3d24d088	0.040237933
252	0xbdb54ab4	-0.08852139
253	0xbcc041f5	-0.02346895
254	0x3bda2534	0.006657267
255	0xbdae30ec	-0.08505425

network_body.linear_encoder.seq_layers.2.bias f4 [128]
0	0x3c620ffe	0.013797758
1	0x3c41e1ca	0.011833617
2	0x3cd53733	0.026027298
3	0x3cb7f6f9	0.022456633
4	0xbbad96d8	-0.005297523
5	0x3ca5cfb8	0.02024065
6	0x3ce0a59c	0.027422719
7	0xbc4db01f	-0.012554198
8	0xb9252a7c	-0.00015751453
9	0x3c6b3faa	0.01435844
10	0x3cc7f664	0.02440948
11	0x3b64a29b	0.003488696
12	0x3cd4cc39	0.025976287
13	0x3cbf0f51	0.023322733
14	0x3be62089	0.0070229215
15	0x3cbba9d2	0.022908125
16	0x3c758668	0.014985658
17	0xbd483c25	-0.048885483
18	0x3c7fbe81	0.0156093845
19	0x3cb665d5	0.022265354
20	0x3cdf7870	0.027279109
21	0x3ce93be8	0.028470948
22	0x3cfd6ecf	0.030936627
23	0x3c88523e	0.016640779
24	0x3cadba3c	0.021206968
25	0xbb944250	-0.0045245066
26	0x3bae8a08	0.005326513
27	0x3c866cdc	0.01640933
28	0x3ce46520	0.027880251
29	0x3c8a1b8b	0.016858837
30	0x3cc87267	0.024468614
31	0x39806b18	0.00024493854
32	0x3cd4afef	0.025962798
33	0xbcd42c1c	-0.02589994
34	0x3cba54cc	0.022745512
35	0x3c901b39	0.017591106
36	0x3d009651	0.031393353
37	0x3cdf3d76	0.027250987
38	0x3cb2c310	0.021821529
39	0xbc61c07c	-0.013778802
40	0x3b9872df	0.0046523656
41	0x3c423043	0.011852327
42	0xbb706ba6	-0.0036685257
43	0x3bf0d245	0.007349285
44	0x3cec3c24	0.028837271
45	0x3c4e34b3	0.012585807
46	0x3ca4b03b	0.020103564
47	0x3d0a2053	0.033722233
48	0x3cecca36	0.028905015
49	0x3cee1089	0.029060619
50	0x3cd7c1e6	0.026337575
51	0x3c8b31e0	0.016991556
52	0x3ce42d9b	0.027853778
53	0x3cc24054	0.023712315
54	0x3ca9b863	0.020717805
55	0x3caa4599	0.02078514
56	0x3cc227ba	0.023700584
57	0x3ce7771f	0.028255044
58	0xbc98acae	-0.018637028
59	0x3cac1c50	0.021009594
60	0xbc13b588	-0.009015448
61	0x3c8dc7cf	0.01730719
62	0x3d0768d7	0.033058967
63	0xbcb2ee9a	-0.02184229
64	0x3ca9db2c	0.020734392
65	0x3c97c909	0.018528478
66	0x3cea896f	0.028629987
67	0x3c9dcd21	0.019262852
68	0x3aa60ad2	0.001266802
69	0x3b91a18e	0.0044443076
70	0x3bf75e68	0.007549096
71	0x3cc905bc	0.024538867
72	0x3b066cee	0.0020511704
73	0x3bb33fa6	0.005470234
74	0x3cc6928f	0.024239806
75	0x3cebde72	0.028792594
76	0x3a8e21dc	0.0010843831
77	0x3d0b9a75	0.03408285
78	0x3d061cbe	0.032742254
79	0x3cbf8747	0.023379935
80	0x3b5e3808	0.003390791
81	0xbcdd832f	-0.027040092
82	0x3cbfafea	0.023399312
83	0x3c870359	0.016481088
84	0x3cf65870	0.030071467
85	0x3cdfa47a	0.027300108
86	0x3ca7c2d3	0.020478642
87	0x3c89f5ce	0.016840842
88	0xbc559720	-0.013036519
89	0x3cc22b4b	0.023702284
90	0x3ca1e425	0.019762108
91	0x3d01709f	0.031601544
92	0x3b468484	0.0030291388
93	0xbcaf441d	-0.021394784
94	0x3cf8bfef	0.030364959
95	0x3c1857b5	0.009298255
96	0x3cfee522	0.031115118
97	0x3c41d300	0.0118300915
98	0x3c1598ce	0.00913067
99	0x3bedf1b5	0.0072614797
100	0x3c343236	0.010998299
101	0x3cfe2905	0.031025419
102	0xbd1cbc11	-0.03826529
103	0x3c8a9618	0.016917273
104	0x3cd85157	0.026405973
105	0x3c883eb5	0.016631464
106	0x3c223abe	0.009901701
107	0x3c400abd	0.01172131
108	0x3ce4d811	0.02793506
109	0x3ca3a067	0.019973947
110	0x3cb13eca	0.021636385
111	0x3c735ccc	0.0148536675
112	0x3cc129af	0.023579447
113	0x3cb8a990	0.022541791
114	0x3cc96863	0.024585908
115	0x3c853e2b	0.016264996
116	0x3c9846f3	0.018588519
117	0x3d191cfa	0.03738115
118	0x3c8f1df2	0.017470334
119	0xbc5c49af	-0.013445302
120	0xbcdfe9d9	-0.027333187
121	0xbb6bdb72	-0.0035988954
122	0x3c6c49eb	0.01442192
123	0x3cf01b00	0.02930975
124	0x3cee7aca	0.029111285
125	0x3cad8e8b	0.021186134
126	0x3cfecfe9	0.031104999
127	0x3cb24a89	0.021764057

action_model._discrete_distribution.branches.0.weight f4 [3, 128]
0	0xbc63511f	-0.013874321
1	0x3b25a4e6	0.002527529
2	0xbc766ecd	-0.015041065
3	0x3ca426cd	0.020038033
4	0xba847ed7	-0.0010108602
5	0xbd111872	-0.035423703
6	0xbcca10af	-0.024666158
7	0x3c897065	0.016777227
8	0xbce51976	-0.027966242
9	0xbc3ed7cc	-0.01164813
10	0x3a910248	0.0011063302
11	0xbcc7f830	-0.024410337
12	0x3cb7b76e	0.022426333
13	0xbc484d5f	-0.012225478
14	0xbb4fc9c1	-0.0031705948
15	0xbb17cd65	-0.0023163196
16	0xbc887aaf	-0.016660063
17	0x3be6f45f	0.0070481743
18	0xbcd0abbc	-0.025472514
19	0xbc7eec51	-0.015559272
20	0xbd0ccc51	-0.03437454
21	0xbd23aee2	-0.039961703
22	0xbbc7d116	-0.006097923
23	0x3c4cdfcb	0.012504528
24	0xbcc3b33c	-0.023889177
25	0x3bf7be53	0.00756053
26	0xbb9b2d13	-0.004735598
27	0xbd19213a	-0.037385203
28	0x3b22d1a8	0.0024844203
29	0xbcd2db07	-0.025739206
30	0x3d2fded3	0.04293711
31	0xbc50c727	-0.012742794
32	0xbcd35967	-0.025799466
33	0x3c4bdcae	0.012442751
34	0x3c345097	0.011005542
35	0xbbe61fee	-0.0070228493
36	0xbd01434b	-0.031558316
37	0xbd2700f7	-0.040772405
38	0x3d4036a3	0.046927106
39	0x3b3f48fa	0.0029187785
40	0xbcf861da	-0.030320097
41	0x3c8afd84	0.016966589
42	0x3c0488c5	0.008089249
43	0xbcec6c2f	-0.02886018
44	0xbd2f42aa	-0.042788185
45	0xbcdda06c	-0.027054034
46	0xbb87de2e	-0.004146359
47	0xbc84a16c	-0.016190253
48	0x3c1e81ba	0.009674484
49	0xbcc521fe	-0.02406406
50	0xbcb0b789	-0.021571891
51	0xbc9ec7ce	-0.019382384
52	0xbc17802d	-0.009246868
53	0x3bdb5e04	0.006694557
54	0xbbdf9608	-0.006823305
55	0xbccc36db	-0.0249285
56	0xbd02f1c0	-0.031968832
57	0xbbfe9049	-0.007768665
58	0x3c0f4449	0.008744308
59	0xbbd85da0	-0.006602958
60	0xbb108667	-0.0022052766
61	0xbcb7d8a3	-0.022442168
62	0xbc6645c1	-0.014054717
63	0x3c20124a	0.009769985
64	0xbce964b9	-0.028490411
65	0xba6c4d27	-0.0009014182
66	0x3cdcc032	0.026947115
67	0x3bd8e943	0.006619604
68	0x3c2486b3	0.01004188
69	0xbc23c052	-0.009994583
70	0xbbbb04bd	-0.005707352
71	0xbb16c0a6	-0.002300301
72	0xbbfbb6ad	-0.0076816888
73	0xbc8dec09	-0.017324464
74	0x3c5e261c	0.013558891
75	0xbc7296c0	-0.014806449
76	0xbb8b9b12	-0.004260429
77	0xbbc9666e	-0.006146244
78	0xbd21bd49	-0.039487157
79	0xbcd56f3a	-0.026054014
80	0x3c326f0d	0.010890734
81	0xba34c9cf	-0.0006896527
82	0x3a234151	0.00062276894
83	0xbc5b3300	-0.013378859
84	0xbcf35a4c	-0.029706143
85	0xbc897dfc	-0.016783707
86	0xbd1b2527	-0.037877228
87	0xb91e7d83	-0.00015114811
88	0x3c865aa3	0.01640064
89	0xbc90e573	-0.017687535
90	0x3ca21bfd	0.019788736
91	0x3ca560ff	0.020187853
92	0x3d4b088f	0.04956871
93	0x3c2ac74e	0.0104234945
94	0xbcfeb011	-0.031089814
95	0xbd43888b	-0.04773764
96	0x3bbfde4b	0.005855357
97	0xbbb5e5d1	-0.005551078
98	0xbd2f650d	-0.04282098
99	0xbba23343	-0.0049499585
100	0xbcc114b0	-0.023569435
101	0x3c1acad1	0.009447769
102	0x3c971a15	0.018445054
103	0x3bfc2875	0.0076952525
104	0xbc02b984	-0.007978801
105	0xbd028a7e	-0.031870358
106	0x3c87ed2f	0.01659259
107	0xbcd1e2fc	-0.02562093
108	0x3c2001f0	0.009766087
109	0xbc7088d1	-0.014681057
110	0xba3b1037	-0.00071359
111	0x3c7d2b9d	0.015452293
112	0xbcd207f7	-0.025638564
113	0xbd12f5c1	-0.0358789
114	0x3d1cebf1	0.03831095
115	0xbc80823f	-0.015687106
116	0xbb844683	-0.004036726
117	0xbc96fc6e	-0.018430915
118	0xbca5b1a6	-0.020226311
119	0x3cb92e46	0.022605073
120	0x3cb62bdc	0.02223771
121	0xbd213c4a	-0.039364137
122	0x3bfa062d	0.0076301307
123	0xbbf20051	-0.0073852916
124	0xbc94f1e7	-0.018181754
125	0xbb86b12d	-0.0041104765
126	0x3ca8ef01	0.020621778
127	0xbbee01fd	-0.0072634206
128	0x3cc1a69c	0.023639016
129	0x3cf46b01	0.02983618
130	0x3d8a2acc	0.06746444
131	0x3bba4a50	0.0056851283
132	0xbc4929f6	-0.012278071
133	0x3ce379fd	0.02776813
134	0x3c883de1	0.016631069
135	0xbd0ab575	-0.033864457
136	0x3cee32de	0.02907699
137	0x3bbd8116	0.0057832105
138	0x3b590255	0.0033112962
139	0xbcb9af68	-0.022666648
140	0xbba0710c	-0.0048962887
141	0x3d17222f	0.036897834
142	0xbc3ce68a	-0.011529574
143	0x3bb30a67	0.0054638865
144	0x3cb2fb09	0.021848219
145	0xbcc4fd8e	-0.024046686
146	0x3d284f51	0.041091267
147	0x3d037b91	0.032100264
148	0x3d328c43	0.043590795
149	0x3d2ec279	0.042665932
150	0x3d3894a6	0.045063637
151	0xbd0dc79c	-0.03461419
152	0x3cef612e	0.029221144
153	0xbbe3ca9e	-0.006951644
154	0x3ccc51d6	0.024941366
155	0xbc563801	-0.013074876
156	0xbc8ee7c6	-0.017444503
157	0xbaf4703a	-0.0018649169
158	0xbd0a3aeb	-0.033747595
159	0x3c4c4d22	0.012469562
160	0x3d21d625	0.039510865
161	0xbd024769	-0.031806383
162	0x3c9fba90	0.01949814
163	0x3ce5ee69	0.028067784
164	0x3cb2f101	0.021843435
165	0x3d3ba4e8	0.045811564
166	0xbd2158a0	-0.03939116
167	0xbd0a08fc	-0.033699974
168	0x3bcd95da	0.006273967
169	0xbd0dfd70	-0.034665525
170	0xbd231039	-0.039810393
171	0x3cb0bf0b	0.021575471
172	0x3cf5bd6a	0.029997546
173	0x3cf7432d	0.0301834
174	0x3cd59caa	0.02607568
175	0x3d13b6a3	0.036062848
176	0xbcd0a970	-0.02547142
177	0x3d38b6a0	0.04509604
178	0x3d279475	0.040913064
179	0x3cad2142	0.021134023
180	0x3cc441e3	0.023957198
181	0x3a96a29b	0.0011492552
182	0x3cd1820d	0.025574708
183	0xbb013716	-0.0019716672
184	0x3d043864	0.03228034
185	0x3cd27aa8	0.025693253
186	0xbd14b7b1	-0.036307994
187	0xba8d85a7	-0.0010797278
188	0xbd028125	-0.031861443
189	0x3cf757f4	0.030193307
190	0x3d1e673f	0.038672682
191	0xbcd861c6	-0.02641381
192	0x3d0b12c2	0.033953436
193	0x3c5a2a6c	0.013315778
194	0x3cbd1834	0.02308283
195	0xbc499ed6	-0.012305936
196	0xbcda4c33	-0.026647663
197	0x3c8f530a	0.01749565
198	0x3d11a59e	0.035558335
199	0x3c947316	0.018121284
200	0x3c19778d	0.009366882
201	0x3c902129	0.017593937
202	0x3c41d7ca	0.011831233
203	0xbaedc46d	-0.0018140204
204	0x3cbde2ee	0.023179498
205	0x3c2c373c	0.010511216
206	0x3d1577fc	0.03649138
207	0x3ca9f28e	0.020745542
208	0xbce0ab5c	-0.02742546
209	0xbd1e8dfd	-0.03870963
210	0x3c8bff3a	0.017089475
211	0x3cf2fb0e	0.029660728
212	0x3c7b489e	0.0153371375
213	0x3cc80db7	0.024420602
214	0x3d0c0007	0.034179714
215	0x3c647182	0.013943078
216	0xbd3cbba1	-0.046077374
217	0x3ce65751	0.028117808
218	0xbd394d8f	-0.04523998
219	0xbd01a645	-0.031652708
220	0xbcc68e97	-0.024237914
221	0xbd3ef26f	-0.04661792
222	0x3b81f06c	0.003965428
223	0x3b9ab81e	0.0047216555
224	0xbbf475c5	-0.0074603283
225	0x3ceffd84	0.02929569
226	0x3d30bf63	0.04315127
227	0x3b1d95d8	0.0024045613
228	0xbb2d5489	-0.0026448092
229	0x3c4767b9	0.0121707255
230	0xbcf5d58e	-0.030009057
231	0x3bb955ba	0.0056559714
232	0x3cddef8e	0.027091768
233	0x3d15b7d9	0.036552284
234	0xbc31f809	-0.010862359
235	0x3ccca419	0.024980592
236	0x3c9d64bc	0.019213073
237	0x3bcfb7f9	0.00633907
238	0x3d497daf	0.049192127
239	0x3c6bab3b	0.014384086
240	0x3d33d043	0.043899786
241	0x3c7480e5	0.014923309
242	0xbcd2f439	-0.02575122
243	0x3c212d09	0.009837397
244	0x3d0e05fd	0.03467368
245	0x3cbb5f79	0.022872673
246	0x3cc79db0	0.024367183
247	0xbd28596e	-0.04110091
248	0xbd3d888a	-0.046272792
249	0x3c72e11f	0.014824181
250	0x3cb3fed3	0.021972096
251	0x3c575cf2	0.0131447185
252	0x3cf6f0fb	0.030144205
253	0xbc1997be	-0.009374557
254	0x3ce9aa80	0.028523684
255	0x3d0aecb4	0.033917144

action_model._discrete_distribution.branches.0.bias f4 [3]
0	0xbc5d7970	-0.0135177225
1	0x3cfc17b8	0.030773029
2	0xbc87d8e7	-0.01658292

action_model._discrete_distribution.branches.1.weight f4 [3, 128]
0	0x3c9246ab	0.017855963
1	0x3a915760	0.0011088662
2	0xbc14a321	-0.009072096
3	0xbcb49f6f	-0.02204868
4	0xbd97321a	-0.07382603
5	0x3ca78f4f	0.020454077
6	0xbbb11c9e	-0.0054050228
7	0xbcbbb218	-0.02291207
8	0x3bfd099f	0.007722094
9	0xbd1e7233	-0.038683128
10	0xbd43d50f	-0.04781061
11	0xbcccc899	-0.024997996
12	0xbb99055a	-0.0046698274
13	0x3d289535	0.04115792
14	0x3d4a6cf6	0.04942032
15	0xbd5b4886	-0.05353596
16	0xbd4d895e	-0.05017983
17	0xbbf295f3	-0.0074031292
18	0xbcbfbd0f	-0.02340558
19	0x3c061137	0.008182815
20	0x3bca322d	0.006170532
21	0x3cce6221	0.025193276
22	0x3d271805	0.04079439
23	0xbd005dcf	-0.031339463
24	0xbc989e96	-0.018630307
25	0xbcc6f82b	-0.024288258
26	0xbcac41a8	-0.021027401
27	0xbd253e97	-0.040342893
28	0xbd308b58	-0.04310164
29	0xbcac97af	-0.021068422
30	0xbd16358a	-0.036672153
31	0x3c1fc118	0.009750627
32	0x3cb3df76	0.02195714
33	0x3a250cf8	0.0006296183
34	0xbc6bba73	-0.014387715
35	0x3d18d844	0.037315622
36	0x3b84e713	0.0040558665
37	0x3d586e72	0.052839704
38	0xbd06fd0f	-0.03295618
39	0xbbf0db79	-0.007350382
40	0xbaf32ebb	-0.0018553355
41	0xbc9ae5ba	-0.01890837
42	0xbca44614	-0.020052947
43	0x3c256075	0.010093798
44	0x3c081f78	0.008308284
45	0x3c9ec5a7	0.019381357
46	0x3cfc2a24	0.030781813
47	0x3d81077b	0.06300255
48	0xbd11eea0	-0.03562796
49	0x3ced3293	0.02895478
50	0x3d1b3560	0.0378927
51	0xbc777964	-0.015104625
52	0x3b848c78	0.0040450655
53	0xbd24702c	-0.040146038
54	0xbd083da8	-0.033261925
55	0xbd22703f	-0.039657827
56	0x3c8cf50e	0.017206695
57	0x3b7d28ec	0.0038629128
58	0xbbd40e34	-0.0064714197
59	0xbd165f83	-0.03671218
60	0xbc2ecfaf	-0.010669633
61	0x3d7db521	0.061940316
62	0xbd44c98c	-0.048043773
63	0xbcecc813	-0.028903997
64	0x3d0c2d28	0.03422275
65	0xbcfae193	-0.03062514
66	0xbd0b6d39	-0.03403971
67	0xbd9c0155	-0.076174416
68	0xbb6c6f84	-0.003607721
69	0xbd019e06	-0.031644844
70	0x3b91fd58	0.0044552498
71	0xbcb2d868	-0.021831706
72	0x3c55fada	0.013060296
73	0xbd56c07c	-0.05242966
74	0x3a363c78	0.00069517596
75	0xbd3ed7e1	-0.046592597
76	0xbc7189aa	-0.014742294
77	0xbd1eca8d	-0.038767386
78	0x3cb86f8c	0.022514127
79	0xbcbca24e	-0.023026612
80	0xbca5ee6f	-0.020255296
81	0xbc3a9057	-0.011386952
82	0x3c9ff398	0.019525334
83	0x3d00f1b0	0.03148049
84	0x3c7f4598	0.015580557
85	0x3c5c2a0d	0.01343776
86	0x3c1e6f2f	0.009670063
87	0xbd06057e	-0.03272008
88	0xbc3deee5	-0.011592601
89	0x3b90c9e1	0.004418597
90	0xbb0f0f9d	-0.0021829375
91	0xbce4afd0	-0.027915865
92	0xbce39c1a	-0.027784396
93	0xbb94ef38	-0.0045451187
94	0x3cad127b	0.021126976
95	0xbade5b88	-0.0016964534
96	0xbcfb6ad3	-0.030690586
97	0xbc51bb78	-0.012801044
98	0xbcb910db	-0.022591045
99	0xbd3b4a76	-0.04572531
100	0x3d9327f6	0.07185356
101	0xbd184a4b	-0.037180226
102	0xbc4fc602	-0.012681486
103	0xbd75efe8	-0.060043246
104	0xbd9926a6	-0.07478075
105	0x3d218907	0.03943732
106	0x3d03bbcc	0.03216152
107	0x3cefa9ed	0.029255832
108	0xbc48e8e8	-0.01226256
109	0x3c9541f7	0.018219931
110	0xbcc13504	-0.02358485
111	0xbcd47b5e	-0.025937732
112	0x3d534e14	0.051588133
113	0xbd22b8dd	-0.03972708
114	0xbc074dbb	-0.0082582785
115	0xbd7ee51e	-0.062230222
116	0xbca9b609	-0.020716684
117	0xbc1327e8	-0.008981682
118	0x3ca34ff7	0.019935591
119	0xbce9b255	-0.028527418
120	0xbc4ed8ac	-0.012624901
121	0xbd2a08c4	-0.041512266
122	0xbd402067	-0.0469059
123	0xbd06cfa6	-0.032912873
124	0x3b88b8ab	0.0041724048
125	0xbd524c92	-0.051342554
126	0xbd817000	-0.063201904
127	0xbd242933	-0.040078353
128	0xbccaab01	-0.024739744
129	0xbdac1f69	-0.084044285
130	0x3d1694e4	0.036763087
131	0x3da147bf	0.078750126
132	0x3ce3ffee	0.027831998
133	0xbd90a594	-0.070628315
134	0xbdb18666	-0.086682126
135	0xbbc51973	-0.0060149967
136	0x3bbc0165	0.005737471
137	0xbd856d46	-0.06514983
138	0x3e044a64	0.12919003
139	0x3d9ade32	0.07561912
140	0x3d8d4a03	0.06898882
141	0x3d0b1eb1	0.033964816
142	0xbb365bba	-0.002782567
143	0xbda5e43d	-0.081001736
144	0xbda033e8	-0.078224
145	0xbbe91224	-0.0071127582
146	0x3c8bd8a5	0.017071078
147	0x3d398aea	0.045298494
148	0xbd465dd4	-0.048429325
149	0xbd4af5b0	-0.049550712
150	0x3cfa3eab	0.03054746
151	0x3d5c8b4d	0.053843785
152	0x3ddfe4ec	0.10932335
153	0x3a975f01	0.0011548699
154	0xbd3abfac	-0.04559295
155	0xbd04ea91	-0.032450262
156	0x3d9c3642	0.07627536
157	0xbd93e19a	-0.072207645
158	0x3dd19e44	0.10235265
159	0x3c77ab10	0.015116468
160	0xbc84297b	-0.01613306
161	0x3cc2c291	0.023774417
162	0xbdad84b0	-0.08472574
163	0xbc56ac0c	-0.013102543
164	0xbdc95a78	-0.09831709
165	0xbd7e7370	-0.06212181
166	0x3dd1d107	0.10244947
167	0xbb1b7603	-0.0023721464
168	0xbdc9fd9f	-0.098628275
169	0x3cd7a252	0.026322518
170	0x3d0862ba	0.033297278
171	0xbd6952d4	-0.056963757
172	0xbde4bb2e	-0.11168514
173	0x38daaa58	0.00010426779
174	0xbd862af9	-0.06551165
175	0x3ca968ce	0.020679858
176	0x3dc33ff6	0.09533684
177	0x3cf69203	0.03009892
178	0xbcec4e9a	-0.028846074
179	0x3da89c3e	0.08232926
180	0xbddb2697	-0.1070072
181	0xbdc67826	-0.09690885
182	0x3dcb109c	0.09915277
183	0xbd8cbbb4	-0.06871739
184	0xbda458f0	-0.08024776
185	0x3daf2863	0.08552625
186	0xbbc9a101	-0.0061532264
187	0xbd929d77	-0.0715894
188	0xbba79df0	-0.005115263
189	0xbd268580	-0.04065466
190	0x3dbc4e3e	0.09194611
191	0x3b796570	0.0038054846
192	0xbcc6a953	-0.024250662
193	0x3deff3d7	0.11716431
194	0x3de59ce2	0.11211564
195	0x3de62c80	0.112389565
196	0x3bcededc	0.006313188
197	0xbd9503f4	-0.072761446
198	0xbb6c154a	-0.0036023431
199	0xbdd66ef1	-0.10470379
200	0xbd15b353	-0.03654797
201	0xbce64e4a	-0.028113503
202	0x3dc38241	0.09546328
203	0x3dfdbbe6	0.123893544
204	0x3c89e4ba	0.016832698
205	0x3dd75740	0.105146885
206	0xbdd2d15c	-0.102938384
207	0xbde0f652	-0.10984482
208	0x3ba33ac9	0.004981373
209	0xbc7f6da3	-0.015590104
210	0x3da5edfe	0.08102034
211	0xbd38ab69	-0.045085344
212	0xbdc7ab73	-0.09749498
213	0x3cb268bf	0.021778462
214	0xbc214c5c	-0.009844866
215	0xbdd5be7a	-0.10436721
216	0x3c7719f6	0.015081873
217	0xbdc8ba59	-0.09801168
218	0x3c82255b	0.015886953
219	0x3dd7538e	0.10513984
220	0x3d41ad66	0.047284506
221	0x39a87a1b	0.00032134433
222	0xbe0f51a6	-0.1399599
223	0xbd99d814	-0.07511917
224	0x3e09808a	0.1342794
225	0xbd316c53	-0.043316197
226	0xbca93a75	-0.020657757
227	0xbd4d9932	-0.050194927
228	0xbc6ad013	-0.014331835
229	0xbdb9eb86	-0.09078126
230	0x3bfb1568	0.007662464
231	0xbdda58a8	-0.10661441
232	0x3e03fd1c	0.12889522
233	0x3a9e65db	0.0012084799
234	0x3c15101d	0.00909808
235	0x3c953c2f	0.018217174
236	0x3dd4e12d	0.10394511
237	0xbdf5dfdb	-0.12005588
238	0x3dd0a034	0.10186806
239	0x3d834efc	0.064115494
240	0xbccd0cdb	-0.025030544
241	0xbda6575e	-0.08122133
242	0x3ddddca4	0.108330995
243	0xbdaf6634	-0.085644156
244	0x3dba181e	0.09086631
245	0xbddc4d8b	-0.10756978
246	0xbd2ad8e5	-0.041710753
247	0x3b97561c	0.0046184193
248	0x3b87d609	0.004145388
249	0xbd49a005	-0.049224872
250	0xbd5e4ede	-0.054274432
251	0x3dd21858	0.102585495
252	0x3d9567b7	0.07295173
253	0x3dca664e	0.09882794
254	0x3dd79dca	0.10528143
255	0x3d8b2a71	0.067952044

action_model._discrete_distribution.branches.1.bias f4 [3]
0	0x3b190522	0.0023349007
1	0xbc1437b1	-0.009046481
2	0x3bea6307	0.0071529183

critic.network_body.linear_encoder.seq_layers.0.weight f4 [128, 37]
0	0x3e038df6	0.12847123
1	0x3e4d7a4f	0.20066188
2	0xbe3f2e97	-0.18670116
3	0xbc59434a	-0.013260672
4	0xbdfbc3b8	-0.1229319
5	0xbe01ec24	-0.12687737
6	0xbd95e716	-0.07319467
7	0x3dac7187	0.08420091
8	0x3d514243	0.051088583
9	0x3e8f0843	0.2793599
10	0x3dc1ab00	0.09456444
11	0xbe07defa	-0.13268653
12	0x3eab35fb	0.3343962
13	0x3c83c0b4	0.016083099
14	0x3d473785	0.048636932
15	0x3db118ad	0.08647285
16	0xbe75d279	-0.2400607
17	0x3df4fb98	0.1196205
18	0xbe6b308b	-0.22967736
19	0x3e0c6cbd	0.13713355
20	0xbe1fcc53	-0.15605287
21	0xbe3a90e0	-0.18219328
22	0xbdeb69f8	-0.11494821
23	0xbe935f5e	-0.28783697
24	0xbe92b341	-0.28652385
25	0xbdf95408	-0.12174231
26	0x3eafcd9e	0.3433656
27	0x3c724aa4	0.0147883035
28	0xbda7d027	-0.08193999
29	0xbdb76ae1	-0.089559324
30	0xbe1f9e51	-0.15587737
31	0xbe588785	-0.21145447
32	0x3e5233d7	0.20527588
33	0xbe363a0a	-0.17795578
34	0x3ddf2a1b	0.10896703
35	0xbd95ffc4	-0.07324174
36	0x3e8c881b	0.2744759
37	0xbe68f2d7	-0.22748886
38	0xbd9cb29e	-0.07651256
39	0xbe849733	-0.25896606
40	0x3c7c8a18	0.0154137835
41	0xbe274780	-0.16335869
42	0x3e97e1a4	0.29664338
43	0xbe981f3c	-0.2971133
44	0xbcc6245e	-0.024187263
45	0xbe984aa6	-0.29744452
46	0xba69ebcf	-0.0008923383
47	0xbd15687c	-0.036476597
48	0xbe0cce46	-0.13750562
49	0x3df4e01f	0.1195681
50	0x3e818584	0.25297177
51	0x3e2e3add	0.17014642
52	0xbd243f2e	-0.040099315
53	0xbe794cfa	-0.2434577
54	0x3c3f8d40	0.0116913915
55	0xbe266d97	-0.16252743
56	0x3dcbcf43	0.099516414
57	0xbe39166c	-0.1807496
58	0x3eb3d220	0.3512125
59	0x3e21247d	0.15736575
60	0x3ed030e0	0.4066229
61	0xbea91f28	-0.33031583
62	0x3ebdead6	0.37093228
63	0x3c982c08	0.018575683
64	0x3f0ee013	0.5581066
65	0xbe4b84b4	-0.19874841
66	0xbd8bf905	-0.06834606
67	0x3ca56005	0.020187387
68	0x3dcf548c	0.10123548
69	0xbd41f107	-0.047349002
70	0x3df62fcf	0.120208375
71	0x3e7aad18	0.24480093
72	0x3e94ac77	0.2903783
73	0xbeea6256	-0.4577815
74	0x3d9e0386	0.07715516
75	0x3e6a6b2c	0.22892445
76	0xbeb13da4	-0.3461734
77	0xbe69028a	-0.22754875
78	0xbda47a12	-0.080310956
79	0x3e856d49	0.2605994
80	0x3da6c08d	0.08142195
81	0xbdeb167b	-0.11478897
82	0x3ea10d95	0.31455675
83	0x3d814c1a	0.06313343
84	0x3c75d602	0.015004637
85	0x3da321cd	0.07965431
86	0x3da62782	0.08113004
87	0x3d8699e9	0.06572325
88	0xbc4ebb93	-0.012617963
89	0xbe9aa502	-0.30204016
90	0x3c79ef71	0.015254841
91	0xbe1a61ab	-0.1507632
92	0x3ce2c24c	0.027680539
93	0xbda8f731	-0.08250273
94	0x3dc12378	0.09430593
95	0x3e39aeaf	0.18133043
96	0xbdddb9fe	-0.10826491
97	0x3d88af08	0.066740096
98	0xbdb802c0	-0.089848995
99	0x3e1e8c1a	0.15483132
100	0x3ca0389a	0.01955824
101	0x3e4d7c77	0.20067011
102	0xbe56a7e8	-0.20962489
103	0x3d0d6fa6	0.034530304
104	0xbdc647ae	-0.096816406
105	0xbde9a7db	-0.11408969
106	0x38a9858e	8.0834245e-05
107	0x3de54ee2	0.11196686
108	0xbd373c9a	-0.04473553
109	0x3e18d0bb	0.14923374
110	0x3e312575	0.17299445
111	0x3e15cd31	0.14629056
112	0x3cf9b10b	0.030479928
113	0xbdd67fa5	-0.10473565
114	0x3db11892	0.086472645
115	0x3be8744f	0.007093943
116	0xbd37db03	-0.0448866
117	0xbe29c75a	-0.16579953
118	0x3ebd70b1	0.3700004
119	0x3e9e268d	0.30888787
120	0x3e3d46d8	0.18484056
121	0x3d707225	0.058702607
122	0x3e0762f3	0.1322134
123	0xbd02ff4e	-0.03198176
124	0x3e0dc121	0.13843204
125	0xbd415a2c	-0.047205135
126	0x3ca2abac	0.01985725
127	0xbeb74004	-0.35791028
128	0x3cb03285	0.021508465
129	0xbcff6f0e	-0.031180885
130	0x3e1333f4	0.14375287
131	0x3e0cb08c	0.13739222
132	0x3ef47a19	0.47749403
133	0xbe8af451	-0.27139524
134	0x3e819163	0.25306234
135	0xbe1afdce	-0.15135881
136	0x3e1558c5	0.14584644
137	0x3e27e2c8	0.16395104
138	0x3e940d7e	0.28916544
139	0x3e0f3c9c	0.13987964
140	0xbda09ee7	-0.07842808
141	0x3d0bdf13	0.034148287
142	0xbd5a0fc7	-0.053237703
143	0xbe548239	-0.20752801
144	0x3da7a491	0.081856854
145	0x3d8745d4	0.066051155
146	0xbd5fc816	-0.054634176
147	0x3dd20eea	0.10256751
148	0xbe3093dd	-0.17243905
149	0xbeb1e595	-0.3474547
150	0xbe193e77	-0.14965235
151	0x3eb10a57	0.345782
152	0xbdbcebe5	-0.09224681
153	0x3dde22f8	0.108465135
154	0x3e0b085e	0.1357741
155	0x3ec35e4c	0.3815788
156	0xbdc12f91	-0.09432901
157	0xbea8a891	-0.32941106
158	0xbd4d840d	-0.05017476
159	0x3dcc71fb	0.099826775
160	0x3c99d50a	0.018778343
161	0xbc969222	-0.018380228
162	0x3e4ab19f	0.1979432
163	0xbea34532	-0.3188873
164	0xbd9390a0	-0.072053194
165	0x3de55327	0.11197501
166	0x3d764c07	0.0601311
167	0x3d50afdd	0.050948966
168	0xbd97fb72	-0.07421006
169	0x3d4ed21c	0.050493345
170	0xbdc2fbfb	-0.09520718
171	0xbe473115	-0.19452317
172	0xbc50b435	-0.012738277
173	0x3db684b7	0.08912032
174	0x3e324dc9	0.17412485
175	0xbe1ecb22	-0.15507177
176	0xbd742a94	-0.05961092
177	0xbe68e151	-0.22742201
178	0x3dce9e5c	0.100887984
179	0x3d8f5167	0.06997948
180	0x3e74113d	0.23834701
181	0x3d56d22c	0.05244653
182	0xbe46e403	-0.19422917
183	0x3c4e72dc	0.012600627
184	0x3e37081a	0.17874184
185	0x3e7f0145	0.24902828
186	0xbd177311	-0.03697497
187	0xbdae618d	-0.085147
188	0x3e32e911	0.1747172
189	0xbb9834ee	-0.0046449816
190	0x3e09a3f4	0.1344145
191	0x3dcb59c4	0.09929231
192	0x3e8966b8	0.2683618
193	0x3e90dbc5	0.2829267
194	0x3e688f90	0.22711015
195	0x3e7befe6	0.24603233
196	0xbd838c3c	-0.06423232
197	0xbe148468	-0.14503634
198	0x3e5919be	0.21201226
199	0x3e31c023	0.1735845
200	0x3d6cd68e	0.057821803
201	0xbc9c512d	-0.019081676
202	0x3d3318ba	0.043724753
203	0xbe839bd0	-0.25704813
204	0x3a288d19	0.00064297166
205	0xbd0374fa	-0.03209398
206	0x3dc725a7	0.097239785
207	0xbe7ce71d	-0.24697538
208	0xbe27d5e9	-0.16390194
209	0x3d991d20	0.07476258
210	0x3ea7d00d	0.32775918
211	0xbc8382f7	-0.01605366
212	0xbdd7b64b	-0.105328165
213	0x3e15bc77	0.14622675
214	0x3e1c3265	0.15253599
215	0x3e956f0f	0.29186293
216	0xbe1e611b	-0.1546673
217	0x3d895eb5	0.06707517
218	0x3e132b3f	0.14371966
219	0x3d6d505b	0.05793796
220	0x3c38d262	0.011280628
221	0x3ca77ae1	0.020444335
222	0x3e84ea05	0.25959793
223	0x3d0ec004	0.03485109
224	0xbe9ec379	-0.3100851
225	0xbdac3460	-0.08408427
226	0x3e2f747f	0.17134283
227	0x3e84e08a	0.2595256
228	0x3dc6dc8f	0.09710037
229	0x3ca6ca07	0.020360006
230	0xbe174f65	-0.1477638
231	0x3e43fdb4	0.19139749
232	0x3e327ca4	0.17430359
233	0x3b42e0ed	0.0029736117
234	0x3d3f6e56	0.046736084
235	0x3e4066dc	0.18789238
236	0x3d222f86	0.039596103
237	0xbe4d8146	-0.20068845
238	0xbe1309ad	-0.1435916
239	0x3d590af8	0.052988976
240	0x3c3f694e	0.011682821
241	0x3e03029c	0.12793964
242	0xbce275c2	-0.027644042
243	0xb99e2024	-0.00030160055
244	0x3dd51240	0.104038715
245	0xbe13e909	-0.14444365
246	0xbeea2be8	-0.45736623
247	0xbdde61eb	-0.1085852
248	0xbeada889	-0.33917645
249	0x3dba0802	0.090835586
250	0x3dde5e19	0.108577915
251	0xbe4c3b06	-0.1994439
252	0x3ee12eee	0.43981117
253	0xbe105980	-0.14096642
254	0xbe1a01e2	-0.1503978
255	0x3bb05352	0.0053810263

critic.network_body.linear_encoder.seq_layers.0.bias f4 [128]
0	0xbc7d79d5	-0.015470942
1	0x3cf9c422	0.030489031
2	0x3d1a6416	0.037693106
3	0x3d20e8df	0.039284583
4	0xbab83e28	-0.001405661
5	0x3c861a8c	0.01637008
6	0xbcbc0f83	-0.022956615
7	0x3c2be08e	0.01049055
8	0xbca39b8c	-0.019971631
9	0x3d9051cc	0.070468515
10	0xbc829d3a	-0.015944112
11	0x3c6480a8	0.01394669
12	0x3d67880a	0.05652622
13	0xbc8b2e3e	-0.016989823
14	0x3cec2561	0.028826417
15	0xbc905aeb	-0.017621478
16	0xbc59b53f	-0.013287841
17	0xbcafb277	-0.021447403
18	0xbcc0a25d	-0.02351492
19	0x3b2179d0	0.0024639256
20	0xbbe903ff	-0.007111072
21	0xbca05fd8	-0.019576952
22	0xbc58f010	-0.013240829
23	0x3ccabb1a	0.02474742
24	0x3d8b1011	0.06790174
25	0x3cafc801	0.021457674
26	0xbcaffaed	-0.021481955
27	0x3d12cecb	0.035841744
28	0xbcc17d88	-0.023619428
29	0x3c9c5c51	0.019086989
30	0x3be3363d	0.006933956
31	0xbcd4a545	-0.025957713
32	0xbc5f2f99	-0.013622188
33	0x3caf75a0	0.021418393
34	0x3bd2a20f	0.0064280103
35	0xbc4897c7	-0.012243218
36	0xbc0209fa	-0.007936949
37	0x3cd893ac	0.026437603
38	0xbc2a2552	-0.010384874
39	0x3cd7ab6c	0.026326858
40	0xbbdd20fa	-0.006748316
41	0xbca4fdbb	-0.02014052
42	0x3c131821	0.008977921
43	0xbc8c3af0	-0.017117947
44	0x3c876879	0.016529309
45	0xbba4c924	-0.0050288606
46	0xbcb126d2	-0.021624956
47	0xbc82450a	-0.015902061
48	0x3c4dc42c	0.012558978
49	0x3c8027d8	0.015643999
50	0xbb10d20e	-0.0022097859
51	0xbc9aa911	-0.018879445
52	0xbc88e6a6	-0.016711544
53	0x3cff4060	0.031158626
54	0xbc259045	-0.010105197
55	0xbc319c30	-0.010840461
56	0xbb0e1160	-0.0021677837
57	0x3ca4bc85	0.020109424
58	0xbbd13c05	-0.0063853287
59	0x3ca434af	0.020044653
60	0x3c80bd2d	0.015715206
61	0xbb6f3651	-0.003650088
62	0xba6d24e5	-0.000904633
63	0xbc16af18	-0.009197019
64	0x3c26663f	0.010156213
65	0xbc524887	-0.012834675
66	0x3d5c0b7d	0.053721894
67	0x3ca9ba8a	0.020718832
68	0x3dce455e	0.100718245
69	0x3c91f025	0.017814705
70	0x3d586fef	0.052841123
71	0xbcdc26c0	-0.026873946
72	0xbc8f35ba	-0.017481674
73	0x3d068029	0.032837067
74	0xbcbb9d03	-0.022902017
75	0x3cc16414	0.023607291
76	0xbcad3b48	-0.021146432
77	0x3b65f2a3	0.003508725
78	0x3c808251	0.01568714
79	0x3af69767	0.0018813432
80	0xbc3e1823	-0.011602434
81	0x3cd016ad	0.025401438
82	0x3ca357cb	0.019939324
83	0xbc48d48a	-0.0122577045
84	0xbc1ae6f5	-0.0094544785
85	0xbb43c383	-0.0029871173
86	0xbc80b98a	-0.015713472
87	0x3bd16e0e	0.0063912934
88	0x3d342c0a	0.04398731
89	0x3ccb913a	0.024849523
90	0x3c70b2ee	0.014691098
91	0x3d8879ab	0.06663831
92	0x3c54698f	0.01296462
93	0xbc5c1870	-0.013433561
94	0x3c433b83	0.011916044
95	0xbc81ea3e	-0.015858766
96	0xbc7a7d1c	-0.015288617
97	0xbc22de1d	-0.009940651
98	0x3c1f117e	0.00970876
99	0x3cca8bfe	0.024724957
100	0xbbb1bda5	-0.0054242187
101	0xbce3c29a	-0.027802754
102	0x3cc8a0dd	0.024490768
103	0xbc81f838	-0.01586543
104	0x3b97ae9e	0.0046289703
105	0xbc97faf2	-0.018552277
106	0xbc6bd7ca	-0.01439471
107	0x3d0cabb7	0.034343448
108	0x3c5e0fd9	0.013553583
109	0xbc5dd267	-0.013538933
110	0x3d9002ff	0.070318215
111	0x3c7be22a	0.015373746
112	0x3cc05e3c	0.023482434
113	0xbc894390	-0.01675585
114	0xbc213e13	-0.00984146
115	0x3b8ea46c	0.0043530967
116	0x3c8fce12	0.017554317
117	0x3c379863	0.011205765
118	0x3ac4e3e9	0.0015021536
119	0x3cacc1bf	0.02108848
120	0x3c76c962	0.015062662
121	0xbc42d12b	-0.01189069
122	0x3cbe5271	0.02323267
123	0x3ccb5dc5	0.024824986
124	0x3c9f75a7	0.01946528
125	0x3c9ffacb	0.019528767
126	0x3d0ea5bb	0.03482602
127	0x3ce92644	0.02846063
