results/conTrain1/DriveAroundTrack/checkpoint.pt (torch, 534431 bytes, 36 tensors)

network_body.linear_encoder.seq_layers.0.weight f4 [128, 37]
00000000: cb76 3bbe 7242 c2be 1b75 1a3d 4b7b 553e
00000010: 068c a53c 2bf1 d2bd d9e1 14be a58c 5fbd
00000020: 34d0 a0bd 55ab 21be 4be4 f5bc 08a8 1c3e
00000030: 9d60 623e 8444 9bbd 10fe bcbd e812 df3d
00000040: 9d13 df3d 0a94 81bd 98fe 39be b27b 153c
00000050: 3528 bfbd 8a1e 223e 97ad 11bd b606 493c
00000060: 58f5 173e 3018 8b3e fba9 c93e e208 dcbc
00000070: 679f 4e3d 88da 283d b6d7 f7bd 1325 a2bd
00000080: 0b05 87bd 5415 9d3e 68f1 93bc a0c6 183d
00000090: 6e32 99bd 7448 23be c8bd 03bd bdc9 4f3e
000000a0: 040c bb3d 605b 013e f348 ff3c 924a 8bbe
000000b0: 41ce 02be f62f dabc 4410 3dbe 5c0d 153d
000000c0: 62b5 01be f631 923e c082 b6bd 0607 b43d
000000d0: 561a 8ebb bbd9 dbbd a610 e93d ba0f f2bd
000000e0: 63a7 c43c cee2 913e 004b d33c 43c8 2fbe
000000f0: 6876 2cbe cfc6 67be e333 ad3d eed7 8b3e
00000100: 65c2 483e 17f2 19bd 3497 4b3e 7903 4ebe
00000110: 9cc4 c63d 56cd 43be 9ada a23d 976f 65be
00000120: 1c92 22be 4d85 b0bc 0d7c 4c3d e671 603e
00000130: 0a69 89bd 34b8 81be 8b87 6fbd 3a3e 5e3d
00000140: 5e67 0e3b c223 39bd cdb8 4e3e 4422 95bd
00000150: 477f 873d c4b8 743d 738c 51bc 3f01 593e
00000160: 1b27 62be ff46 533e 7d25 07be 421f f6bc
00000170: c8cd 79bc ed25 4c3b eb62 b13d 7034 82bd
00000180: 524b 97bc afb9 35bd 6130 163d 8e43 3ebe
00000190: 84c5 8a3d 2cce 30bd 69dc 1cbe 49c2 7ebc
000001a0: 22f0 39bd 2d91 213c 3d53 843d 6429 253e
000001b0: 0955 8f3e 8b41 efbd cdb7 1c3e 7c25 70be
000001c0: b821 01bd 8c6f b6bd 7c6a 2f3e bb4b 19bb
000001d0: 414d fa3d 66b9 273e f1f2 ba3d 73f2 67bd
000001e0: 86a7 3b3d 119f 20bd 8382 3c3d a5d1 b83d
000001f0: 0366 943d 9999 43bd 9de1 a1be d608 34be
00000200: f5eb 69bd 67ef 70be 5b04 8b3d 39ff 33be
00000210: 8c6d 263e dfc4 613d f7c5 a73d 06f7 bcbe
00000220: aedf 9fbe afc6 1d3e 01da 113d 1736 3a3d
00000230: 4e45 cdbd 07bf a43d 755c 75be 33fe 143d
00000240: 42d4 11bd 767c 28bd 270f 783e 2e55 57be
00000250: 0669 27be 59b5 d93b 543a 15be 7eb0 88be
00000260: f85f 4c3e 25c5 6fbc 45ae 16be d096 183e
00000270: 88f0 08be f5fb 8cbd 0f4c 05be e420 b6be
00000280: 0cd4 593e 2f38 913d 020d 133d 7d04 d4bd
00000290: 6133 18be 4acd fd3b 786e 8f3d 5598 4fbd
000002a0: e088 8e3d 2074 2e3e 57de a53c 90d1 90bd
000002b0: 1deb eb3d e45c 23be e29c 0ebd fb0c 38be
000002c0: a53e 963d 0b90 acbd 3b9c 73be 8ec6 e83c
000002d0: 9f12 c1bc e4dd 5bbe fd84 50bd eb90 03be
000002e0: e912 adbd 7498 853a 8290 1dbd b24a 20be
000002f0: c977 be3c b357 863d 7fcb 183e 27dd 9abe
00000300: 89e0 38bd f7cc 05bd 15d3 e73c f164 a8bd
00000310: 9a04 683e e012 30be e5a6 32be 4c4e 8aba
00000320: 65ec 0b3e dc5f 433e 3be6 243d e31c 76bd
00000330: a624 a53d fd0e 85bd 9f17 083e d43f 013e
00000340: a843 d53d 2010 fa3d 7f83 54be f64b 78be
00000350: 224a f2bd 29e0 1cbd 8803 203e 60cd 24be
00000360: 73b3 9abe b7f1 4e3d 3d5b 463d f14e 533d
00000370: 8040 36bd 6476 983e 4422 3f3e 082c 1f3e
00000380: c2e9 49bd 3928 aabd 5978 8dbe bcbf 103e
00000390: 9cdb ab3e c806 8abc 4d9c 6abe 2207 86be
000003a0: 5950 c4bd 79dd 19be 2ed0 363e 7d54 983e
000003b0: 55c9 10be 7d17 3b3e 0366 aebe 12e8 84be
000003c0: 3a5d b6bd 04f0 133e c694 4c3e 1e22 1c3e
000003d0: c792 a1be 3961 b93d c552 4f3e dcd9 55be
000003e0: 685a dbbd e09e 25bd 3efa 54be ec63 ecbd
000003f0: ba85 af3d a026 663c bcb9 42bd b972 b53c
-0.18307035 -0.3794132 0.037709337 0.20847814 0.02020837 -0.102999054 -0.14539279 -0.05457749
-0.078522116 -0.15788014 -0.030016085 0.15298474 0.22107168 -0.07581428 -0.09228146 0.10892278
0.10892413 -0.06327064 -0.18163526 0.00912373 -0.09333841 0.15831962 -0.03556594 0.012269666
0.14839685 0.2716689 0.39387497 -0.026859704 0.050444987 0.041224033 -0.121016905 -0.079172276
-0.06592759 0.30680335 -0.018059447 0.0372988 -0.07480322 -0.15945607 -0.03216341 0.20291801
0.09133151 0.12632513 0.031162715 -0.2720533 -0.12773992 -0.026634198 -0.18463236 0.036389694
-0.12666848 0.28553742 -0.08911657 0.08790402 -0.0043366356 -0.10734888 0.113801286 -0.11819406
0.024005597 0.2849335 0.025792599 -0.17166238 -0.16842043 -0.22634433 0.08457162 0.2731318
0.19605406 -0.03758439 0.19881898 -0.20118512 0.09705469 -0.19121298 0.07951851 -0.2240585
-0.15876049 -0.021547938 0.04992299 0.21918449 -0.06709488 -0.25335848 -0.058478873 0.054258563
0.0021729092 -0.045200117 0.20187683 -0.07281926 0.06616073 0.05974652 -0.012789833 0.21191882
-0.2208523 0.20632552 -0.13197894 -0.030044202 -0.015246816 0.0031150535 0.08661445 -0.06357658
-0.018468533 -0.044366535 0.03666723 -0.18580458 0.06775954 -0.04316537 -0.15318455 -0.015549251
-0.045395024 0.009861273 0.06461189 0.1612907 0.27994564 -0.11682423 0.1530449 -0.23451799
-0.031526297 -0.08907995 0.17130464 -0.0023391086 0.12221766 0.16379318 0.09128369 -0.056627702
0.04581406 -0.039214198 0.046022903 0.090243615 0.0724602 -0.047753904 -0.31617442 -0.17581496
-0.05710979 -0.23528825 0.0678794 -0.17577828 0.16252726 0.05511939 0.08192056 -0.36907214
-0.31225342 0.15407823 0.035608295 0.04546174 -0.100229844 0.08044248 -0.23961051 0.036375236
-0.035602815 -0.04113432 0.2422453 -0.21028587 -0.16348657 0.006643933 -0.14573032 -0.26697153
0.19958484 -0.014634405 -0.14714916 0.1490128 -0.13373005 -0.068839945 -0.13017295 -0.3557197
0.21272296 0.07090794 0.035901077 -0.103524186 -0.1486335 0.0077454196 0.07003492 -0.050682385
0.069597006 0.17036486 0.020247621 -0.07071221 0.11519454 -0.15953404 -0.034817584 -0.17973702
0.07336167 -0.084259115 -0.23790066 0.02841499 -0.02356845 -0.21471363 -0.050908078 -0.1284825
-0.084508725 0.0010192529 -0.03846789 -0.15653494 0.023250477 0.06559696 0.14921378 -0.3024685
-0.04513601 -0.032666173 0.028298894 -0.08222378 0.22658005 -0.171947 -0.17446478 -0.0010551899
0.13664396 0.19079536 0.040258627 -0.060086142 0.08063631 -0.064969994 0.1329026 0.12622005
0.10413295 0.12210107 -0.20753287 -0.24247727 -0.11830546 -0.038299713 0.15626347 -0.1609397
-0.30215034 0.050523486 0.048426855 0.051588956 -0.044495106 0.29777825 0.18665415 0.1554414
-0.049295194 -0.08308453 -0.2763088 0.14135641 0.33565986 -0.016848937 -0.22911187 -0.26177317
-0.095856376 -0.15025891 0.17852852 0.2975196 -0.14139302 0.18270679 -0.34062204 -0.25958306
-0.089045 0.14447027 0.19978628 0.1524739 -0.31557295 0.09051747 0.20246418 -0.20883888
-0.10710603 -0.040434718 -0.20798585 -0.11542496 0.08570428 0.014047295 -0.04754041 0.02214943

network_body.linear_encoder.seq_layers.0.bias f4 [128]
00000000: a3e4 2d3b 2854 2abc c34e 54bc 5cc7 cb3c
00000010: 52a3 873b 0705 8e3b 473e 13ba b8c5 f6bc
00000020: 9aee 0dbc dd09 5a3a 4d97 d73b 89ee 723c
00000030: 5fbc 4e3c 37a2 0ebd 6dbc 343c 92bc 84bd
00000040: 6e92 da3b f3df ef3c 6444 01bd 60d0 90bc
00000050: ce8a 59bc 38ab 8b3c e643 d6bc 49b1 13bc
00000060: 69ad d7ba e5f0 503c 542e 50bb ff48 30bc
00000070: f385 ed3c 2af3 9439 76e8 2d3a 8e4f b3bc
00000080: fdf5 af3c e814 f93b db6a a0bc e06b d8bc
00000090: af2e 513c ce46 f03c c1fb 9a3c d6a2 70bb
000000a0: aeba 0a3a 8826 bf3c 5b6f eebb 3e05 303c
000000b0: 068e 7dbd 4ead 5d3c 3102 c9bc 55d8 ad3c
000000c0: 1674 9abc 5928 4f3c b186 ef3b 13f5 53b9
000000d0: d9d1 213b 7d07 7ebb 7d71 0b3d cc85 02bc
000000e0: 353c 413c 2eb5 0a3a 7485 a5bb 27ee fe3b
000000f0: b318 17bd d251 bb3b 9efe 0fbc 4345 033d
00000100: 4cf4 b6bb 03d7 ebbc 8cdf e03b 336b 173d
00000110: ac25 42bc 1ebb 94bb 87d9 e0bb 90a0 263c
00000120: 50d2 a23b 83af 2e3c 4baf 453b cad6 373c
00000130: eb6a 343a df5f 6bbc 1f0a 953b 9025 b3bc
00000140: 3a8e a3bb 4c96 cfbb 5416 943c fc19 52bc
00000150: f759 2c3d de2d 5a3c 46b3 afba 9d04 8ebc
00000160: c838 323c 2eac 42bb 1cf9 48bc 0de0 e5ba
00000170: c7ae c9b9 928c 38bc 9d52 d23c 68a7 433c
00000180: 95eb 6bbc 630d 333c 2f50 5c3c 10f8 d83c
00000190: 044e b7bc 5e75 13bd d2fe 42bc 4e08 21bc
000001a0: f5cf 8bbc 6793 e5bb ccbd 9fbc 6928 ddbb
000001b0: a3d6 8f3b 91ce a7bc b900 76bc 7e40 9abc
000001c0: 6dd6 c6bb e226 27bb 367d 8bbc 45ec d8bc
000001d0: ae74 00bb c6aa 023c a459 59b9 78db 7d3b
000001e0: 3450 37bc 390a 07bd 3cee 86bc 7d41 1e3c
000001f0: 8bdd 7ebc d448 8d3c 2321 9aba 8f28 35bd
0.0026533983 -0.010396041 -0.012958231 0.024875335 0.0041393423 0.0043340954 -0.0005616885 -0.030123577
-0.008662844 0.000831751 0.0065793158 0.014827379 0.012618153 -0.03482267 0.011031252 -0.064812794
0.006670288 0.029281592 -0.031559363 -0.017677486 -0.0132777225 0.017049417 -0.026155423 -0.009014436
-0.0016454878 0.012752746 -0.0031765895 -0.010759591 0.028994536 0.0002840993 0.00066340656 -0.02188852
0.021479601 0.007601369 -0.019582203 -0.026418626 0.012767478 0.029330637 0.018918874 -0.0036718152
0.00052920997 0.023333803 -0.007276458 0.010743437 -0.061903022 0.013530089 -0.024537178 0.02122132
-0.018854182 0.012643897 0.0073097576 -0.00020213825 0.002469173 -0.0038761788 0.034043778 -0.00796647
0.01179414 0.000529128 -0.0050513092 0.007779855 -0.03688879 0.005716541 -0.008788733 0.032048475
-0.0055833217 -0.028789049 0.0068625864 0.036967468 -0.011849802 -0.0045389077 -0.006861869 0.010170117
0.004968919 0.010661962 0.0030164297 0.011220643 0.0006882387 -0.014366119 0.0045483257 -0.021868497
-0.00499132 -0.0063350555 0.018077053 -0.012823578 0.042077985 0.0133166 -0.0013404868 -0.017336184
0.0108777955 -0.0029704678 -0.012266424 -0.0017538086 -0.00038467927 -0.011263983 0.025674159 0.011941768
-0.014399429 0.010928485 0.013446852 0.026485473 -0.022376068 -0.036000602 -0.011901574 -0.00982864
-0.017066935 -0.007006097 -0.019499682 -0.006749202 0.0043896004 -0.02048424 -0.015014821 -0.01882958
-0.006068042 -0.0025505354 -0.017027479 -0.02647985 -0.0019600797 0.007975286 -0.00020728126 0.003873555
-0.0111885555 -0.032968733 -0.01647102 0.009659168 -0.01555575 0.017246641 -0.0011759143 -0.044228133

network_body.linear_encoder.seq_layers.2.weight f4 [128, 128]
00000000: 2764 823c a1ca 373d 5f38 023e 83e6 b6bd
00000010: ac48 043e 3661 403c 688d aaba 953d 733d
00000020: d758 0d3e 2bfc e0b9 078a 563d be3b 0e3e
00000030: ec2d 833d a22e 063e a1bc 753c 4197 e83a
00000040: 489b 973d 3ed9 073e 7fff 9ebd fa1c 98bc
00000050: 3c84 753d 1a4e c6bd b0bf b2bc ccd6 4d3d
00000060: fd55 563d f566 763d ab90 91bd 39ac 2cbd
00000070: a55f 7e3d 27e7 91bc 6f3f f83c 3915 993d
00000080: 0e10 2abb d662 c7bd ddb8 81bd 05bd 6f3d
00000090: de57 a5bd c379 6cbd 987d f6bd bd57 7c3d
000000a0: 7180 f53d 895f 9c3a e084 ecbc 4395 57bd
000000b0: ceb6 33be a139 3c3d dea3 a13d 3e15 eb3d
000000c0: fa2f a33d 7ee8 f33d 771f 76bd 77cd 4e3d
000000d0: ec99 17be 7379 b1bd 681b 0db8 fd32 50bd
000000e0: fb61 c7bd 35ca 93bd 25cc 69be 73cf e9bd
000000f0: a2a9 14bd 9722 e8bc 90d3 00be 6701 07ba
00000100: 7bfe 3dbd dd1d 02be f007 84bd 1144 d93b
00000110: 25a4 7dbb 81b4 273e 88ae ae3d 826a 6bbd
00000120: fc1a e83d d8df 6a3b dfd4 03be 2523 c53a
00000130: e266 43bb e01c 243e cf72 93bd c220 1dbe
00000140: cd3a 0ebe 7601 b2bb 854f 2abb 2607 0b3d
00000150: 30dd 34be eba4 c53d 77cc 4c3e 63eb 4f3d
00000160: b4ed a6bd 6caa 8fbd b077 c3ba 64d4 d43b
00000170: a170 20bc 9529 3a3e 6f2a ac3c ed84 92bd
00000180: 5747 b23d 162d 473c 5ace 743d c55a 28bd
00000190: 7f4f 15bd 94d5 e2bc 8c9c 703e 8621 c8bc
000001a0: b471 ca3d dcd0 87bd fe53 e73c 0c57 843d
000001b0: 76f7 dc3d f087 733a 6f28 25bd 5e94 1b3e
000001c0: 39e5 303c 8d59 df3d 0758 b63c 163d 9c3d
000001d0: 5dc5 d9bc 2a8a 693d a7b9 0f3d 26b8 823d
000001e0: 61c6 dd3d 4e75 d9bc 5720 7dbd 30c1 1abe
000001f0: 1f2a 4bbd abc9 043e 60e1 3f3d 45fc 6d3d
00000200: 5bcb c1bd ee26 523d aeb8 523d e3de 253e
00000210: c6c8 033e 2f7b a6bc 0c0a 503e 7196 5c3c
00000220: 2181 6abe fa23 cb3d dd10 02bc 335f d6bd
00000230: 5f6e dabd 1d6a ad3d 4f28 5dbd f6cf 443d
00000240: bad6 ba3d eb92 473d 3619 1ebd bb38 6a3d
00000250: aa13 d4bc a374 eb39 589b 8c3d 73d3 18bc
00000260: efb1 2d3d 7597 4f3c 9952 17be 325c 913c
00000270: db2e ff39 a1e3 4cbc 8527 a8bd 1f97 22bd
00000280: 4682 af3c c2d9 e53c 836e 8e3d 13ae da3d
00000290: 2363 f73d 3540 0f3e 1be6 0bbd e7e8 993d
000002a0: 33e4 0fbd 1289 d23c 5a71 733d 619f 80bd
000002b0: 87b8 31be 6196 49bd 33e6 18bd 1d95 d53c
000002c0: 5db2 d0bd b71e 52bd ba46 4ebc 35a9 953d
000002d0: 815c 85bd ccb1 debd 339a e2bc 1265 a9bc
000002e0: 9365 c73d 424d 8ebd aa8b fabd 7ce9 dabd
000002f0: aec2 363e 978f eb3d 856a bb3c 1f31 e73b
00000300: c58f b2b6 c9dd 1c3d 42a5 a7bd 2680 a2bd
00000310: a94e 03be c323 12bd ed97 63bd e6f3 a8bd
00000320: dd0b 7dbd 0c16 493c 3180 53bd d72f a1bd
00000330: 0aba 21bd 4dab 6fbd 18bc 853d 910e 0fbd
00000340: 8bbf a5bd dcde ac3d 975b 26bd d133 91bd
00000350: b7b1 0d3e 7c32 dcba 18fe 623d bd2b 2c3e
00000360: 0e7e 39bd 7232 8fbd 5c98 9dbb edf7 653d
00000370: a7c8 313b 8bf4 873c 1160 89bd 29f9 243d
00000380: eda4 5fbc e228 0bbe d909 aabc 3330 213d
00000390: 6e36 bc3d 0e79 203d e514 15be 95a4 73bd
000003a0: e48f 39bd 7269 49be 343d a83d 3b31 3cbb
000003b0: 046a d0bc 754a e1bd 3813 e93d 4237 b5bc
000003c0: 3f69 cdbd 381b 6b3d 1ae3 943d c842 123d
000003d0: 121f bebc 0351 b73d bfa2 7c3a 2b5f ee3c
000003e0: 300a 20be a985 123d 508d 523e 5ae3 a9bd
000003f0: 61f6 1fbd 3606 4b3c ece5 f8bd 5c93 8cbd
0.015916897 0.044870976 0.12716816 -0.08930685 0.12918347 0.011741927 -0.0013012113 0.0593849
0.13803421 -0.0004291249 0.052377727 0.13889977 0.06405243 0.13103727 0.014998586 0.0017745272
0.074026644 0.13266465 -0.07763576 -0.018568505 0.05994056 -0.096828654 -0.02181992 0.050253674
0.0523281 0.06015678 -0.07107671 -0.04215643 0.062102932 -0.017810417 0.030303685 0.07474751
-0.002594951 -0.09735648 -0.06334088 0.058529872 -0.080734 -0.05773331 -0.12035674 0.06160711
0.11987389 0.0011930327 -0.028871953 -0.05263258 -0.17550203 0.045953397 0.07892583 0.11478661
0.07968135 0.11909579 -0.0600886 0.050488915 -0.1480481 -0.08665743 -3.3642544e-05 -0.050829876
-0.09735485 -0.07216302 -0.22831781 -0.11416521 -0.036294587 -0.028336806 -0.12580705 -0.000515005
-0.04638527 -0.12706704 -0.064468265 0.0066304286 -0.0038702574 0.1637745 0.08529383 -0.05747462
0.11333272 0.0035838988 -0.12874173 0.0015040381 -0.0029815962 0.1602664 -0.071996324 -0.15344527
-0.13889618 -0.005432303 -0.0025987339 0.033942364 -0.17662501 0.09650596 0.19999872 0.05076159
-0.08150807 -0.07014927 -0.0014912989 0.0064950455 -0.009792478 0.18179925 0.021016328 -0.0715426
0.08705013 0.012156745 0.059767105 -0.04110219 -0.036452767 -0.027689733 0.23497218 -0.024430048
0.098849684 -0.06631634 0.028238293 0.064619154 0.10789387 0.00092899706 -0.040321764 0.15193316
0.010796838 0.10905752 0.022258772 0.07628839 -0.026583368 0.05701653 0.03508916 0.0638278
0.108288534 -0.026545193 -0.06179842 -0.15112758 -0.049600717 0.12967555 0.046845794 0.05810191
-0.09462615 0.051306657 0.051445656 0.16198306 0.12869558 -0.02032241 0.20316333 0.013463602
-0.22900821 0.09918971 -0.007938591 -0.104673766 -0.10665583 0.08467505 -0.05399352 0.04804989
0.09122987 0.048724096 -0.03859826 0.05718301 -0.025888283 0.00044909594 0.06865567 -0.009327757
0.04240602 0.0126703875 -0.14777602 0.017744157 0.000486723 -0.012505443 -0.08210663 -0.0396949
0.021424424 0.028057937 0.06954672 0.10677733 0.12079456 0.13989337 -0.034154993 0.07515126
-0.035129737 0.025700126 0.059434272 -0.06280399 -0.17355548 -0.049215678 -0.03732891 0.02607208
-0.1019027 -0.051298823 -0.012590105 0.07307664 -0.06511784 -0.10873756 -0.027661419 -0.020678077
0.097361706 -0.069483295 -0.1223367 -0.10689065 0.17847702 0.11501997 0.02287794 0.0070554162
-5.3215504e-06 0.03829745 -0.08185817 -0.079345986 -0.12822975 -0.035678636 -0.05556481 -0.08249645
-0.06177889 0.012273323 -0.051635925 -0.07870453 -0.03948406 -0.058512975 0.06530017 -0.034926
-0.080931745 0.084409446 -0.04061469 -0.07089961 0.13837324 -0.0016799713 0.055418104 0.1681356
-0.04528623 -0.069920436 -0.0048094224 0.056144644 0.0027127655 0.0165961 -0.06707776 0.04027668
-0.013650161 -0.13589814 -0.020756649 0.039352607 0.09190069 0.039177947 -0.14558752 -0.05948313
-0.04530324 -0.1966913 0.082147986 -0.0028715867 -0.025441177 -0.1100053 0.11380619 -0.022121076
-0.1002984 0.057399005 0.07269879 0.03570822 -0.023208175 0.08950999 0.0009637288 0.029098114
-0.15628886 0.035772 0.20561719 -0.08295317 -0.039053325 0.0123916175 -0.12153229 -0.06864044

network_body.linear_encoder.seq_layers.2.bias f4 [128]
00000000: 21d6 03bc 00f2 043a 4dfa 12bc cbd5 6ebc
00000010: 401e 443c 18a5 18bc 24a7 743c 5b48 2dbc
00000020: 630f 8cbc 58b2 4dbc 7a04 cebb 1d62 98bc
00000030: c110 fdbb 5722 82b9 e947 60bc 2e53 133c
00000040: 7241 893c 7b71 fcbb 5499 84bc 992a 53bc
00000050: 29c2 86b9 2038 8abc 378f c43b e2aa 213c
00000060: 3ab6 4c3c f450 33bc 5968 163b ed48 92ba
00000070: 415d 9a39 9fef 54bb 29eb 923b 4441 9c3b
00000080: fdfc cabb 88be bcbb 1de9 61bc 6a75 7bbb
00000090: 86fb c23b 5895 3b3c 369f 233b bc82 37bc
000000a0: 9894 14ba 43af 8dbc 3bd7 62ba a933 4b3c
000000b0: 733b 4cbc 0b37 16bc 3009 a1bb 9bea e1ba
000000c0: 235c 8f3b cf66 5fbc 8707 203b a4a4 6b3b
000000d0: e9bf 43bc 50d0 2e3c d879 77bb f7eb 4f3c
000000e0: 7d46 9cbc bb7d b6bc c566 8dbc 31b7 9abc
000000f0: d3d3 1d3c 68d3 a4bc 7224 56bc 8bb7 853c
00000100: cc55 043a a56d a7bc 1ea9 d5bb 19ac 8abc
00000110: 1547 16bb 3a6d 113c 6e5d d0bb ba32 57bc
00000120: 8531 7dbb 442f 213c f54d ffb9 45fb 9f3b
00000130: 9a14 133b 98ab 023b d5af 98bb a59e 49bb
00000140: 3625 c93b 9d79 7ebb e22a 66bc b64d bd3b
00000150: d789 54bb 9f9c cdbb e48f 643c 874c e73a
00000160: d466 97bc 7fdb cb3b 07fc 73bc b292 11bc
00000170: 6438 7dbb d3f8 a53b ff43 1a3b dbc8 36bb
00000180: 0ad6 953b c59e f7bb 2c70 493c ba0e bebb
00000190: 9408 dfbb 8d0f cebb 9992 d4bb 4b0a 8f3b
000001a0: e3ff 21bc b0e6 e3bb c655 943b 2c04 e2bc
000001b0: 6b8b 843c 16bf 483b e4cb 57ba b6f5 6cbc
000001c0: 821f f43a 7155 cdbb adfa 67bc f633 f7bb
000001d0: 3362 d53b 5bdf a1bb 7159 c23b 4730 7c3c
000001e0: 65d6 c53b 206c 0c3a c22c 013c 320e 2abc
000001f0: 9da5 5fbc 03be 88bb c413 80bc 64a1 31bb
-0.008046658 0.0005071461 -0.008970809 -0.014577339 0.011970103 -0.009316705 0.014932428 -0.010576333
-0.01709718 -0.0125547275 -0.0062871547 -0.018601472 -0.0077229445 -0.00024821117 -0.01368902 0.008992
0.01675484 -0.0077039576 -0.016186394 -0.012888574 -0.00025703132 -0.016872466 0.005998518 0.009867402
0.012494618 -0.010944594 0.002295038 -0.001116065 0.00029442649 -0.0032491458 0.0044835997 0.0047685225
-0.0061947093 -0.005760018 -0.013788489 -0.0038369545 0.005950394 0.011449181 0.0024966723 -0.011200603
-0.0005667894 -0.017295485 -0.00086532877 0.012402453 -0.012465346 -0.009168397 -0.0049144253 -0.0017236056
0.004374997 -0.013635351 0.002441855 0.0035956288 -0.01194761 0.010669783 -0.0037761834 0.012690536
-0.01907658 -0.02227675 -0.017260918 -0.01888618 0.009633022 -0.020120338 -0.013070213 0.016322872
0.0005048185 -0.020438025 -0.0065204045 -0.016927766 -0.0022930552 0.008876139 -0.006358794 -0.013134653
-0.0038634252 0.009837929 -0.00048695473 0.0048822486 0.00224427 0.0019938704 -0.0046596327 -0.0030764726
0.006138469 -0.0038829811 -0.01404831 0.005777086 -0.0032430792 -0.006274774 0.013950322 0.0017646708
-0.01848165 0.0062212343 -0.014891631 -0.008885073 -0.0038638348 0.0050650625 0.0023539064 -0.0027890715
0.0045726346 -0.0075567686 0.01229481 -0.0058000954 -0.0068064425 -0.006288475 -0.0064872024 0.0043652407
-0.009887668 -0.0069549903 0.0045268266 -0.02758988 0.01617976 0.0030631474 -0.0008231981 -0.014462879
0.0018625113 -0.006266289 -0.014158887 -0.007544036 0.0065119504 -0.004939956 0.0059310724 0.01539237
0.0060375207 0.0005356688 0.007884206 -0.010379361 -0.013650325 -0.004173042 -0.015634425 -0.0027104253

action_model._continuous_distribution.log_sigma f4 [1, 2]
00000000: ee89 113d 9054 bb3b
0.03553193 0.0057168677

action_model._continuous_distribution.mu.weight f4 [2, 128]
00000000: f3d7 453b 0ea3 983c 9cb6 543c 5622 bc3c
00000010: ca6b a0ba a699 d6bb d194 b9bc a033 af3c
00000020: dc2d eb3c 4456 bd39 24ad c43c babf 183d
00000030: 698b ea3c a19e 02bb 49f9 033d cdea efbc
00000040: 2064 de3a 81df a73c 615a 06bc 7822 ab3c
00000050: 923a 8b3a abc7 883c a8e2 c2b8 0ac1 113c
00000060: 2f87 3e3b 6abc e43c ee44 b33a db99 0a3b
00000070: 1353 7b3b d0d8 073b e756 18bc 1416 973a
00000080: 1c12 9b3b 2797 c9bb 32f6 95ba 345d 6abc
00000090: ef99 01bd fcf1 bbba 19bb 80ba 29b5 133c
000000a0: 8cae 90bc 7c1e 1a3d cbd7 ce3a 2c61 2dbc
000000b0: cb33 cf3c 252a 6dbb 90cc a3bc f6d7 9abb
000000c0: 915b 6fba ed85 f23c c54a 1b3c 5b6f a438
000000d0: 46ed a23c 04df dfbc 58f2 73b9 7275 aaba
000000e0: e92b 6abb b470 b53c 631a 313d 5729 f9ba
000000f0: 6d18 963b 441e 133d b020 cd3c f516 3fbb
00000100: 8b2b 613c 6e21 803c b598 733c 9b84 3f3d
00000110: cc6a 8ebb 25cb 62bd 8fc3 bdbb fdef 7dbb
00000120: 18ec d03b 28cb d7bc ef28 133c d8e3 bab9
00000130: 791a 39bc 88f4 3d3c 1475 1dbc 3c27 4dba
00000140: 1a90 ccbc dc4d cb3b 6e3b f93c f4ea bcbc
00000150: 6ad7 443c 7b25 b83a 1668 77b9 062c cbba
00000160: 0ad9 9d3a 1066 b7bc 2801 803d a20e 2b3a
00000170: ac06 48ba e3c5 823b 613e 86bc 5fba 01bc
00000180: 8823 3d3a 83d1 8f3a fa3a 09bd dedb 033b
00000190: 2182 983b 410b a5bc 3276 5abb d281 bfbc
000001a0: 183f 2ebb 158b 58b7 795f 70bb 0c10 2e3d
000001b0: 865d babb 971d 82bc 677d 343b c6e0 ae3c
000001c0: 3dba 0cbc 0190 b13a a470 80b8 4bbb a53c
000001d0: 125d 05bd bf69 9e3b f3d3 f8ba 157c 77bc
000001e0: f052 a0bc b154 30bb d198 dabc d379 953c
000001f0: fe01 6b3b 4d70 02bb e5ac 63b9 93cf 3bbb
00000200: b12e 47bb 2328 9ebc ca0d 18ba bcbf ac3c
00000210: 93a6 a3ba 0b0a 1e3b 9fa2 96bc da20 a93c
00000220: af6d 043b eb3d 823a 2359 99bb 39ff 23bc
00000230: e46e 0dbb ba0b 5abb 6e00 3b3c 76b3 9dbc
00000240: f5ab 84bb 1376 863c 5ffc 08b9 6c6e 003d
00000250: 8403 bcb9 6df6 e13c 4fac b53a 18b8 f0bb
00000260: df6f 11ba d0ff 5c3c 0afb b23a e5e3 c2bb
00000270: 4287 a2bb 0b91 6b3b 0801 8dbb 3221 cc3a
00000280: 7f0c 05bb 0b60 cf3b 8314 91bb 7a14 79bb
00000290: 6cef bbbc 4fa4 533a e21c 0b3b 516e 08bc
000002a0: 5474 303b 431e 963c 09dc 6738 fdb5 aaba
000002b0: d0cb 913c c2d4 543b 32a8 c73b e77f c03b
000002c0: e514 02bb 150a ca3c b003 c23a 7262 273a
000002d0: ef92 0c3d d214 143a fda2 08bb 12ec e739
000002e0: b833 403b 5c47 bcba 5745 a43c 9f8f 153a
000002f0: 17fb eaba c657 fabb 2b66 b63c 0238 123b
00000300: 04f0 543b 7410 a1bb 4240 263b 089f ba3c
00000310: 1dbb 273c b8fd 18bc b595 603b 5f9e 17bb
00000320: 5023 c63c a701 c0bc 8765 20bc fc31 1db9
00000330: d0a4 a0bc a77d e83b f166 baba c4e8 b739
00000340: 2b36 b7bc ad99 3abb 0b53 003c 09ba b3ba
00000350: 78ac a73c 286d 8fbb ab15 85b9 7077 5ebb
00000360: b618 2b3a 7d1c a7bb c515 503c 4e52 9bba
00000370: 418c 25ba bc2e 64bb e4c0 18bb 0747 d23a
00000380: 4ed1 86bb d8c0 253a 4251 7ebb 0c34 88bb
00000390: f3bf a9bb e635 4b3b 72c6 37b9 77e8 64bc
000003a0: b8fd 84b8 3fe7 3bb9 e6ea 233a 203a f03c
000003b0: 8c6e 1eb9 fd01 8bbc 7a4b 93ba 54f5 89bc
000003c0: 8051 623b 5d40 b6ba 7fda dcb9 22e4 d4bb
000003d0: 6e50 0dbd 9bbb d5bb 5e5a c73b 843e 693b
000003e0: 2bc7 ddbb e6fb e23a 705a 373c ed0a 773c
000003f0: 4931 4cbb fb25 f0b9 e20c 8dbb 7c37 9e3b
0.003018853 0.018632438 0.012982991 0.022965591 -0.0012239155 -0.006549078 -0.022653969 0.021386921
0.02870839 0.00036113162 0.024008341 0.03729222 0.028630929 -0.0019930976 0.03222016 -0.029286766
0.0016967095 0.020492317 -0.008200259 0.02089046 0.0010622314 0.016696772 -9.292859e-05 0.008896122
0.0029072275 0.027921874 0.0013677159 0.0021148834 0.0038349077 0.0020728596 -0.009298063 0.0011526966
0.0047323834 -0.006152052 -0.001144117 -0.014304448 -0.031640943 -0.0014339085 -0.0009821384 0.00901536
-0.017661355 0.03762673 0.0015780864 -0.01058225 0.025293251 -0.003618845 -0.019995004 -0.0047254516
-0.0009130771 0.029604876 0.009478276 7.840871e-05 0.019888531 -0.027328022 -0.00023264566 -0.0013004972
-0.003573174 0.022148468 0.043238055 -0.0019009513 0.0045805485 0.035917535 0.02504 -0.002915797
0.013743292 0.01564094 0.014867951 0.04675732 -0.0043462273 -0.055369515 -0.0057911347 -0.003874778
0.006375801 -0.02634199 0.008981927 -0.0003564644 -0.0112978155 0.011593945 -0.009610433 -0.0007825976
-0.024971057 0.00620435 0.030423846 -0.023061253 0.012014249 0.0014049256 -0.0002359453 -0.0015500791
0.0012042832 -0.022387534 0.062502205 0.0006525313 -0.0007630389 0.003990875 -0.016387166 -0.0079179695
0.00072150724 0.0010972474 -0.03350351 0.0020120065 0.0046541844 -0.020146968 -0.003333461 -0.023377333
-0.00265879 -1.2906986e-05 -0.0036678 0.042495772 -0.0056874184 -0.01588325 0.0027540566 0.021347415
-0.008589325 0.0013546945 -6.1244966e-05 0.02023091 -0.032559462 0.0048343833 -0.0018984064 -0.015105267
-0.019570798 -0.0026905949 -0.026684197 0.018246567 0.0035859342 -0.0019903362 -0.00021712815 -0.002865766
-0.003039282 -0.019306248 -0.00058003946 0.02108752 -0.0012485556 0.0024114873 -0.01838809 0.020645548
0.0020206978 0.0009936666 -0.0046798154 -0.01000958 -0.0021580989 -0.003327115 0.011413677 -0.019250613
-0.004048819 0.016413724 -0.00013063986 0.031355307 -0.00035860774 0.027583325 0.0013860556 -0.0073461644
-0.0005547981 0.013488725 0.0013655138 -0.0059475773 -0.0049599716 0.0035944607 -0.0043031015 0.0015573858
-0.0020301638 0.006328588 -0.004427494 -0.003800659 -0.022941314 0.0008073495 0.0021226932 -0.008327083
0.0026924806 0.018324977 5.5279615e-05 -0.0013024207 0.01779738 0.0032475446 0.0060930485 0.005874622
-0.001984888 0.02466301 0.0014802124 0.0006385214 0.034319814 0.00056488544 -0.0020849102 0.0004423564
0.0029327702 -0.0014364528 0.020052595 0.00057053 -0.0017927614 -0.007639858 0.022265514 0.0022311215
0.0032491693 -0.0049152914 0.002536789 0.02278091 0.010237482 -0.009337835 0.003426892 -0.0023135168
0.02418676 -0.023438288 -0.009789831 -0.00014991307 -0.019609839 0.007095057 -0.0014221353 0.00035077904
-0.022364696 -0.0028472946 0.007832299 -0.0013712059 0.020467982 -0.004377026 -0.0002538388 -0.0033945702
0.00065268145 -0.0050998316 0.012700503 -0.001185009 -0.000631515 -0.0034817895 -0.002330833 0.0016042896
-0.0041143065 0.00063229864 -0.0038805758 -0.004156595 -0.005180353 0.0031007468 -0.00017526167 -0.01397144
-6.341509e-05 -0.00017919856 0.0006252959 0.029324591 -0.00015109236 -0.016968722 -0.0011237704 -0.016840614
0.003453344 -0.001390468 -0.00042124462 -0.006496922 -0.03450053 -0.0065226085 0.0060837707 0.003559024
-0.0067681274 0.0017317503 0.011190996 0.0150782885 -0.0031157306 -0.00045804665 -0.0043045143 0.0048283916

action_model._continuous_distribution.mu.bias f4 [2]
00000000: 6b60 87bc 9ae0 29bc
-0.016525468 -0.010368491

critic.network_body.linear_encoder.seq_layers.0.weight f4 [128, 37]
00000000: 438a d83d 3528 d9be ff59 bcbd b670 66bc
00000010: e451 f6bd 27ec 91be 3f62 8fbd 3a27 14be
00000020: 69e4 c83d 9ff5 0ebe a2d8 9bbd da4f 323e
00000030: 3053 9abd c584 b1bd 745f 83bd 898b a03e
00000040: 55c8 02bd febd 363d 5053 213e 03f7 8c3e
00000050: 7bff 2fbe 0783 023e 17f7 fa3d 00f6 113e
00000060: 94f6 6e3d 3a9d 62bd cb08 49be 37fe a0be
00000070: eb40 873e 9953 c43d edab 013d 49e1 c5bd
00000080: 9cd5 19be fa44 bfbd ae00 8e3d 780e 0abe
00000090: 0dc3 e8bd dc3d 4fbe 7c60 e5bd 18b0 cebc
000000a0: 4073 76be e359 953e 9689 283e 5e18 2b3d
000000b0: 2793 563c 3fc6 59be 56ef 283d 1943 003c
000000c0: 097a 8c3e 927f c9bd 905e ba3c 011d 5a3c
000000d0: eb7c f9bd 3e01 d93d 55ca a5be 0fff 063e
000000e0: 758a 0e3e 2589 083e 15c6 2a3c 1aae 993d
000000f0: 2eac 553e ebea 783d d7a1 6e3d c363 cd3e
00000100: a637 7fbe 6243 ef3e b1a6 4fbd 65d0 c93d
00000110: b5d3 083d c5d7 acbd 0ba4 c8bd f33a 783d
00000120: 0b5e 3abe 810e 30be 3501 893e 7ab3 a73e
00000130: dd8f 45be 28b8 073e 33f4 6ebc 1e21 3fbe
00000140: f51e e4be a5a1 be3d eaad 9a3c 513d b8be
00000150: 0dd6 223c 5b66 183e 08fc b13c 5f19 143e
00000160: 5019 55be 5def 273e 4a39 543e 645a 183e
00000170: 23c2 563e e911 5bbe 45a5 0c3e 07cf 1dbd
00000180: 3129 4fbd 9442 2dbe b2bf 433e ca0f 8bbe
00000190: f9f6 75bd e712 793e a750 c63c 4d12 623c
000001a0: 0dc8 ea3d 2dac 1abd 494a 07be 4439 f8bd
000001b0: 7ee2 7d3d 3eba f5bd 21b3 593c e600 18bd
000001c0: 58bd 52be e35e 62bd 9c1b af39 54e4 a5bd
000001d0: e5f6 81be 2c8e 613e 3e0a 1bbd 3d55 b03d
000001e0: c582 3ebe 3a14 afbd 1856 fcbd 7a88 0b3e
000001f0: 71ae 7c3c dd66 883e 9da9 61be 9c21 07bd
00000200: 2e37 8e3d ada0 3f3e e43a ab3e 248f 6ebe
00000210: a9aa 923c 02cb a2bc 80f8 00be c45c 3e3d
00000220: 3efd 8e3c 318f 033e 48f6 2f3e 862c 84bd
00000230: 1c2a dabc 165c 8abd ee65 b23c b514 263e
00000240: eee1 60be 837c 71be 7d54 c6bc d052 0ebe
00000250: 013e 22bd b5d1 643e 5d84 50bd 175f 96bd
00000260: 895e fc3d 2c31 593d ee95 a5bd 53bf 6dbc
00000270: d7fa 503e 111a 79bd cc44 a0be 2b04 043c
00000280: 9f54 62bd 3914 1d3e fff1 b2be b1ff 9ebd
00000290: 6288 f6bd f2c9 cbbd 77cc 52be 19e1 bebe
000002a0: 61f5 cc3d 7fc4 37bc 55fd d8bb 5272 cdbc
000002b0: 3630 01be 4634 453d 59e6 64be 2bc3 173d
000002c0: 6f9b 5bbb 1b9c b73e 8b99 db3d 24d5 553d
000002d0: e9b2 943d 459b 0d3e fee3 3a3e 51f3 213d
000002e0: 8bc1 75bd 62a0 7aba 1436 fa3c e556 75bd
000002f0: 1302 223d c08c b0be 4525 9bbe e0b2 153d
00000300: f648 553e 9fcf b13d 50af d83a 964f 8e3e
00000310: a685 3a3e db3d f93b 2666 58bd 5788 8ebe
00000320: 8742 b0be 88d7 9c3d 0267 3bbd dcd6 973c
00000330: c9ed f5bb e08e 75bd 32e7 80bd db2f 15be
00000340: 4278 9abd c441 343e 0617 1b3e fbeb b03d
00000350: 9c0c 1dbd 5c40 69be a6c6 993d 3b51 333e
00000360: a0fe 7cbe cb91 2cbd aba5 1cbe 577b 8a3e
00000370: c23f c23d fbe0 803d eb39 553c 29b4 743b
00000380: 89f1 da3c 8abd 8bbe 78df 863c 89bc b3bc
00000390: 8924 e13d 3a1c c03d f31e 093d 7954 383e
000003a0: 9438 37be 85e8 a43e d126 0d3d 61da 2e3e
000003b0: c43a 353e b63f 27be c98e 9e3d 6dc0 8c3d
000003c0: 2ade e4be c957 57be 4ee5 91be e5f7 a83d
000003d0: 0e57 943e ec5b 5b3e 816c 2b3e 924c 0f3d
000003e0: 73bf bbbe fcfd 973a 4a70 983e 80ae 173e
000003f0: 27d8 763e e47c 443e 68f5 af3d 01fd 873c
0.10573246 -0.42413488 -0.09196853 -0.014064958 -0.12027338 -0.28500482 -0.07001161 -0.14468089
0.09809191 -0.13960885 -0.07609679 0.17413273 -0.07535398 -0.08667902 -0.064146906 0.31356457
-0.031929333 0.044614784 0.15754437 0.27532205 -0.17187302 0.12745295 0.1225416 0.14253998
0.058340624 -0.055325724 -0.1963226 -0.3144395 0.26416716 0.095862575 0.0316581 -0.0966211
-0.15022892 -0.09339328 0.069337234 -0.13482082 -0.11365328 -0.20238441 -0.112000436 -0.025230452
-0.24067402 0.2917014 0.16458735 0.041771285 0.013096607 -0.21267031 0.041243874 0.007828497
0.27436855 -0.09838785 0.022750169 0.013312579 -0.12182029 0.1059594 -0.3238093 0.13183235
0.13920005 0.13333566 0.010423203 0.0750391 0.20866463 0.06077091 0.05825981 0.40115175
-0.24923572 0.46731097 -0.05069608 0.09854201 0.033405025 -0.08439592 -0.09796914 0.060603093
-0.18199937 -0.17193033 0.26758733 0.32754117 -0.1929316 0.13253844 -0.014584589 -0.18664977
-0.44554868 0.09308175 0.018881757 -0.3598428 0.009938729 0.14882796 0.021726623 0.14462803
-0.20810437 0.16399904 0.20724979 0.14878231 0.20972495 -0.21393551 0.1373492 -0.038527515
-0.050576393 -0.16919929 0.19116095 -0.27160484 -0.060049985 0.24323617 0.02420838 0.013798309
0.11463938 -0.037761856 -0.13211931 -0.121202976 0.061983578 -0.119984135 0.013287337 -0.03711023
-0.20580041 -0.055266272 0.00033399172 -0.08100191 -0.25383678 0.2202689 -0.037851565 0.08610008
-0.18604572 -0.0854878 -0.123211086 0.1362628 0.015422449 0.26640978 -0.22037359 -0.032991037
0.069441184 0.18713637 0.33443367 -0.23296791 0.017903643 -0.019872192 -0.12594795 0.046475187
0.01745474 0.12847592 0.17183793 -0.06453805 -0.026631407 -0.06755845 0.02177712 0.16218837
-0.21961185 -0.23582654 -0.024210209 -0.13898778 -0.039609913 0.22345622 -0.05090748 -0.07342356
0.12322719 0.05302541 -0.080852374 -0.014510947 0.20408188 -0.060815874 -0.31302488 0.008057634
-0.055256482 0.15339746 -0.34950253 -0.07763613 -0.12037732 -0.099506274 -0.2058581 -0.3728111
0.1000774 -0.011216282 -0.0066219964 -0.025078926 -0.12616047 0.048145555 -0.22353496 0.03705136
-0.0033509394 0.35861287 0.10722645 0.05220522 0.07260687 0.13828762 0.18251035 0.039538685
-0.05999903 -0.0009560642 0.030543365 -0.059897322 0.03955276 -0.34482384 -0.30301872 0.03654754
0.20828614 0.08682179 0.0016531739 0.27795094 0.18215045 0.0076062507 -0.05283179 -0.27838394
-0.34425756 0.07658297 -0.045752533 0.01853507 -0.007505153 -0.05995071 -0.06294097 -0.14569037
-0.075424686 0.17603213 0.15145501 0.0863876 -0.038342103 -0.22778457 0.07508592 0.17511456
-0.24706507 -0.042131227 -0.15297572 0.27047226 0.09484817 0.062929116 0.013014297 0.003733883
0.026726501 -0.27293044 0.01646398 -0.021940487 0.10993297 0.09380384 0.03347678 0.18000974
-0.17892677 0.32208648 0.034460846 0.17075492 0.17698199 -0.16332898 0.07742078 0.0687264
-0.44700748 -0.21029581 -0.28495258 0.08250407 0.28972667 0.21421784 0.1674061 0.034985133
-0.36669502 0.0011596079 0.2977317 0.1481266 0.24105893 0.19188267 0.085917294 0.016600134

critic.network_body.linear_encoder.seq_layers.0.bias f4 [128]
00000000: 62d9 e93b a4e2 9fbc 118e 05bc 077a 0c3b
00000010: e302 66bb 667f 5c3c 8854 8fba 0690 5d3b
00000020: 2d5d 9cba fc5f 13bb 205e 60bc 698a 803c
00000030: 497f 27bb 5d8e c739 fde6 ddba fe00 e03a
00000040: 1102 8e39 1724 07bc 8c5a a338 d220 7dbb
00000050: d0a0 9d3a c3f9 50bb 3a28 a5bc 2cf6 253b
00000060: 02e4 01bc 8cde b1ba 6843 f2bb 417e e9b9
00000070: 8f7d d0bb ab78 023b 36db 5f3b aa9d eaba
00000080: a6a4 893b d766 ef3a e82f f9bb 68d0 93b9
00000090: 9566 633b f282 e83b 4226 133c d6d3 5ebc
000000a0: 29bd 1bbc 4070 2f3a b8bc f6ba f0a0 dbbb
000000b0: 683a 03bb 17bd 3c3a 410f 57bb 2274 c1ba
000000c0: b82d 0b3c a5d4 293a 185f 6639 dff5 b53a
000000d0: 7422 6abc bb6b ed3b d80f 9c3a b69b e0bc
000000e0: aa61 b1bb e65d 3b3b 45a9 c439 53dd 32bb
000000f0: b409 a73b 45c8 1abb 86a9 e6ba 2e4f 36bb
00000100: c86d feba 42a2 18bb 9e5b e7bb ac3b 8c3a
00000110: 6225 e13b d909 bbbb f49e 22bc cc98 a6bb
00000120: a8ff b13b c5c9 8cbb 28a5 d839 6f30 c7ba
00000130: 960a b2ba ff40 4dbb 9838 43bc a174 93bb
00000140: 6fad c53b 7fbb 683a 7e61 e2ba fb4e 9d3a
00000150: db69 cf3b e86a f538 614a e0b9 ef7e 163b
00000160: 46eb 793a d364 c7ba 37f5 fbba 0018 b1bb
00000170: 3803 75bc aed0 c73a ff56 83bc f34b d8bb
00000180: d60e 7ebb 8d96 5ebb 46a2 2aba 2e57 ccbb
00000190: 7d7c e138 d1b7 2bbc 2aaa 2cbc 9014 f6ba
000001a0: 87c3 d9bb cd01 78bb 34dd 513b aa26 4abb
000001b0: da03 8abb 3e65 7ebb 2b07 f4b9 fa97 bd39
000001c0: 6a2b 07bb c2bd 03bb c600 40bb 6adc c93b
000001d0: 7238 37bb a40c 36ba 1918 65bb 57ed 93ba
000001e0: fa47 d6bb 5fa6 0b3a c898 f83a a4ec dcbc
000001f0: bfbc daba 6733 ddba aaa4 d7ba fa97 24bc
0.0071365098 -0.01951725 -0.008151547 0.0021435039 -0.0035096935 0.0134581085 -0.0010935226 0.0033807768
-0.0011929624 -0.002248763 -0.013694316 0.015691 -0.0025558046 0.00038062307 -0.0016929802 0.001709014
0.0002708589 -0.008248351 7.789311e-05 -0.0038624299 0.0012026075 -0.003188715 -0.020160783 0.0025323732
-0.007927896 -0.0013570352 -0.0073932894 -0.0004453529 -0.006362624 0.001990835 0.003415776 -0.0017899771
0.004200536 0.0018264902 -0.007604588 -0.000281933 0.0034698595 0.007095688 0.008981289 -0.01360031
-0.0095055485 0.0006692447 -0.0018824553 -0.006702535 -0.0020023827 0.00071998074 -0.0032815489 -0.0014759342
0.008494787 0.0006478525 0.00021969934 0.0013882479 -0.014290441 0.0072455085 0.0011906577 -0.027417999
-0.005413254 0.0028589903 0.0003751015 -0.0027292564 0.0050975922 -0.0023617905 -0.0017598129 -0.002781819
-0.001941138 -0.0023290073 -0.007060482 0.0010698936 0.0068709115 -0.005707961 -0.009925593 -0.005084133
0.005432088 -0.0042965137 0.00041321781 -0.001519693 -0.0013583477 -0.0031319258 -0.0119153485 -0.0044999872
0.006032638 0.0008878037 -0.0017271487 0.0012001687 0.0063297576 0.00011702423 -0.00042780026 0.0022963842
0.00095336547 -0.0015212543 -0.001922286 -0.0054044724 -0.014954381 0.0015244687 -0.016032694 -0.0066008507
-0.0038766167 -0.0033964247 -0.0006509166 -0.0062359786 0.00010752024 -0.010480837 -0.010538617 -0.0018774439
-0.006645623 -0.003784287 0.0032022716 -0.00308458 -0.004211885 -0.003881767 -0.00046544647 0.0003616212
-0.0020625242 -0.0020102118 -0.0029297336 0.0061603086 -0.0027957228 -0.00069446326 -0.003495699 -0.0011285943
-0.006539342 0.00053272204 0.0018966431 -0.026968308 -0.0016688331 -0.0016876281 -0.0016452272 -0.010046

critic.network_body.linear_encoder.seq_layers.2.weight f4 [128, 128]
00000000: 6005 a6bb 4559 26be 7a1b b63c f11a 6a3d
00000010: d655 c43d 1e89 3d3c 468b b73d d1ce 063d
00000020: 1c64 2bbd 737d 37bd 5fa0 753e 5ded c93b
00000030: 4a38 abbd 3884 8bbc b6df 7dbc 987e eebc
00000040: d2ad 183e ded9 9b3d 2472 3c3d f04d b13d
00000050: 21f7 a239 a92f 4b3d c664 58bd 488e 40bd
00000060: df3e 4a3a 6fdc a93d 6185 23be 8bbd b9bd
00000070: c01f 77bd 5eb3 7bbb 0ef7 7bbd 115e 653e
00000080: 3d54 91bd a842 8e3d 8772 b9bd df95 f0bd
00000090: 5a1e 89bb 0457 abbd 3636 d83c 2132 10be
000000a0: cbbd c03d a6f4 cb3c d46a 1abd faa2 0abe
000000b0: 4111 443d 6b99 f7bd 934d 893d e5c9 6cbd
000000c0: 2f61 0a3d a23e c33d 05c5 743d 0168 38bd
000000d0: a974 95bc 31ad 31bd 679d bebc 3610 87bc
000000e0: 0a8b 2d3d 78ed e8bd cd0e 703b aab2 d6bc
000000f0: 0709 003e b168 b3bd c257 03bd 365c 263d
00000100: e0b3 8d3d d86d 0dbe de7a 0dbe faca af3d
00000110: 4273 ca3c 0611 4ebe 40d1 d0bd 5c3f 44bc
00000120: d1d3 1e3d f4f8 d3bd 8390 803d a348 843d
00000130: 3a58 49bd fa48 a63b 1d73 803d 77a8 12be
00000140: 43fe 093e 5c82 3a3e 4dbe 2abe 544c 37bb
00000150: c009 083d 0f7b b33d 3a7b df3d f749 943d
00000160: 5375 173e 787b b93d 5ea4 28be 95fb c6bd
00000170: bb1d 953d 8b14 23be b59f 0fbc 25af 343d
00000180: d3bd c6bd f728 cfbc a49f 5abe 5cb4 3c3d
00000190: 27f3 9ebc f7c4 b4bc 6c60 973d c20e 523d
000001a0: ee66 6b3d 0cfa 8ebe 39c4 5c3d 2fa4 243c
000001b0: 8081 b63c 59aa 07be 5a76 49be 154d fabd
000001c0: 0f65 a53d c0cd 2ebe 50ed a53d d5ef 0d3c
000001d0: 5b19 11bd 6a65 dcbd 1065 1ebe b43b 333e
000001e0: ded3 61bd 3ead dcbd 3b00 afbd b4c8 d5bd
000001f0: 7765 a43b c9bc 7e39 74a1 463d 85d9 1b3d
00000200: 385c b0bd 697b 6abc 7052 cabd 023a 593e
00000210: e302 a7bc 94d5 0abe bab2 40be 7a2a c1bd
00000220: b689 d03d 447d 183e 1765 8a3b 71dd 2abd
00000230: b3f6 b33b 36e4 ce3c 6fe3 ee3c b63f 4e3c
00000240: b0aa 4e3c f09c c7bc 1915 5d3d 4e60 b43d
00000250: ee01 c7bd 4851 b0bb 8681 473d a86d fa3d
00000260: cf3e 03be 5f5f 30bd a379 8e3d ee31 c0bb
00000270: a300 563d 3aed acbc f126 383d a25f 54be
00000280: ab85 6a3d 15a8 0ebd 965f d93c 749f 85bc
00000290: 0a6b cc3c 0672 e3bd 68d8 33bc 9eca be3d
000002a0: ae3d 813d 60a8 dd3d b656 07be 9800 9ebd
000002b0: 8927 09be 2cec 883c afdb 313e 91bf 6abd
000002c0: 0973 f9bd 0c5c 9dbc d6e3 af3c 774c a03d
000002d0: 3826 e6bd c23d 9e3d 7cb7 eb3c 5a0e 40bb
000002e0: bffb c4b9 7bc9 11be 6feb 9e3d 806f 7fbd
000002f0: 68f5 8e3c 4475 003e 96d8 a73d 861c bfbc
00000300: 68b2 73bd a5d7 96bd 6e38 aebc a862 043c
00000310: 0052 f4bb 56b7 f53d e473 dc3c 1f4e 8c3d
00000320: 250a 3d3d ff94 593e b5b3 c0bc ca63 a6bd
00000330: c220 2b3c 17f5 50bd b774 0dbe cd11 fe3d
00000340: 7203 023e 2e64 babd ca32 b4bb e7fb 733d
00000350: e16e 1c3d 1397 f4bd aaef 32be cc7a aabd
00000360: 012a 85bc 6b0b 06be a012 e3bd 0d1d 8dbc
00000370: 142d 03be e223 843b b9b9 153e 6290 e03d
00000380: c4b3 0ebd 66e5 9a3b b3e6 90bd 5ff9 433d
00000390: 644f d13d 62b8 d0bc a685 19bd 1cbd e0bc
000003a0: 35c4 8e3c 7aaa 1ebd 81fe 94bd a963 44bd
000003b0: f834 e7bd b4fb b9bd a404 093c 1107 b73d
000003c0: 8292 bb3c 35ca 183d e124 5abd 4052 923d
000003d0: 19a2 833c af41 c8bd ad96 a03d fa38 ab3c
000003e0: e80c 05be 4988 cd3d 6da0 09bd b55b 6cbd
000003f0: 4da4 7dbd f3e6 e93b a580 763e 031b e83d
-0.0050665587 -0.16244991 0.022229899 0.0571546 0.095866844 0.011568336 0.08962111 0.03291208
-0.04184352 -0.044797372 0.23986958 0.006162329 -0.08360346 -0.01703082 -0.015495231 -0.029113099
0.14910057 0.07609914 0.04600729 0.086574435 0.00031083173 0.049606 -0.05283048 -0.04701069
0.0007715057 0.082939975 -0.15968849 -0.090693556 -0.060333014 -0.0038406472 -0.061514907 0.22399165
-0.07096145 0.069463074 -0.090550475 -0.11747336 -0.0041845264 -0.08366206 0.026393037 -0.14081623
0.094112 0.02489693 -0.037699535 -0.13538733 0.047868017 -0.12089809 0.06704249 -0.05780973
0.033784088 0.09533431 0.059758205 -0.04502106 -0.018244104 -0.04337806 -0.023268415 -0.016487222
0.042368926 -0.113734186 0.0036629916 -0.02620824 0.12503444 -0.08760203 -0.032066114 0.040615283
0.06919074 -0.13811433 -0.13816401 0.085836366 0.024713162 -0.20123681 -0.10196161 -0.011977997
0.038776223 -0.103502184 0.062775634 0.06459167 -0.049156405 0.0050746175 0.06271956 -0.14322077
0.134759 0.1821379 -0.16674156 -0.002796908 0.033212423 0.08763706 0.109121755 0.0724067
0.1479085 0.09056753 -0.16468951 -0.09715954 0.07281061 -0.15925805 -0.0087661045 0.044112343
-0.09704175 -0.025288088 -0.2134996 0.04607044 -0.019403053 -0.022066576 0.07391438 0.051283605
0.05747121 -0.27925146 0.05389807 0.01004891 0.022278547 -0.13248576 -0.19674054 -0.122217335
0.08075916 -0.17070675 0.081019044 0.008663137 -0.03542457 -0.10761531 -0.1546824 0.17503244
-0.055133693 -0.10775231 -0.08544966 -0.10438672 0.0050169784 0.00024293656 0.048493817 0.03804924
-0.08611339 -0.01431165 -0.09879005 0.21213534 -0.020387119 -0.13558036 -0.18818179 -0.0943193
0.10182516 0.14891535 0.0042234766 -0.04171509 0.0054920553 0.025255304 0.029161183 0.012588432
0.012613937 -0.024366826 0.0539752 0.08807431 -0.09717165 -0.005380783 0.048707508 0.122279465
-0.12816928 -0.043059703 0.06956794 -0.005865327 0.0522467 -0.021109212 0.044959012 -0.20739606
0.057256382 -0.034828264 0.026534837 -0.016311385 0.024953384 -0.111057326 -0.010976888 0.0931599
0.063105926 0.108231306 -0.13216671 -0.07714957 -0.13393988 0.016714178 0.17368959 -0.0573116
-0.12180144 -0.01920893 0.021470945 0.078270845 -0.112377584 0.07726623 0.028774016 -0.002930543
-0.000375716 -0.14237015 0.07759749 -0.062362194 0.017451003 0.12544733 0.08195607 -0.02332903
-0.059496313 -0.0736535 -0.021267142 0.008080162 -0.007456064 0.11997859 0.02691073 0.06850838
0.046152253 0.21248244 -0.023523191 -0.08124502 0.010444822 -0.051014986 -0.13814054 0.12405739
0.12696627 -0.09101139 -0.0054992186 0.059566405 0.03819168 -0.119428776 -0.17474237 -0.08324203
-0.01625538 -0.13090293 -0.11087537 -0.017225767 -0.12810165 0.004032598 0.14621629 0.10965039
-0.034839407 0.0047270535 -0.070752524 0.04784524 0.10220221 -0.025478546 -0.037480973 -0.027433924
0.017427543 -0.038736798 -0.07275105 -0.047946606 -0.112894 -0.09081212 0.008362923 0.08936895
0.022897009 0.037302215 -0.053257827 0.07144594 0.016068505 -0.09778153 0.07841239 0.020901192
-0.12993205 0.1003576 -0.03360026 -0.057704646 -0.061924268 0.007138127 0.24072511 0.11333277

critic.network_body.linear_encoder.seq_layers.2.bias f4 [128]
00000000: dfda af39 a15c f3ba d307 18ba 23a7 adba
00000010: 36ef 22ba 0288 8cb9 8bc8 02ba 99dd 84ba
00000020: eb33 c8ba 2e9c 06b9 a059 91ba 6633 0bbb
00000030: 8f39 88ba 88b2 f539 af5f ceba a68e d838
00000040: 3e74 97b8 a4b9 4839 4130 51b9 b55b b0ba
00000050: 47ce cbba ba93 9739 505f adb9 fea1 713a
00000060: 3f51 a6b9 e4db 96ba ef2c c1ba 63b2 6cbb
00000070: 4c6f 103a f3e8 1bbb fd31 c7ba 3637 d8ba
00000080: 221c 41ba 138c 7f39 2d23 9838 e53f d0ba
00000090: 44c9 edb9 db3d 82ba 2bf7 b8ba b873 63ba
000000a0: a6b4 803a c39b 87b9 0c6f e4ba 26ab e4b9
000000b0: 2cfd 1ebb 1c99 0aba d305 673a 33cf c0b9
000000c0: e971 6a3a bd1b a1bb 9ab3 bfb8 be59 4fba
000000d0: 2d8a 9dba 13a8 6fba e4c5 053c eaee 9db9
000000e0: 0b18 10bb cadd a3ba 2fee 49ba d0e4 8dba
000000f0: b2a9 bc39 85c8 343a 97a7 12ba 14a9 caba
00000100: 623d 15ba 5c45 ccba a542 1bba 4c0d db39
00000110: 6955 f3b9 99a3 28ba 194a 9439 13d4 c7b9
00000120: 5e55 efb9 1928 b0ba 5238 28bb 066d 59b9
00000130: 2e4b 69bb 54d7 f6ba 4fc1 ba37 5444 21ba
00000140: fff3 8cba 5883 f7b9 dc6d b5ba 768c 8f3a
00000150: 3776 36ba 4699 32ba eea2 c2ba c305 e5ba
00000160: 6bd4 d6b7 3a1f c6b9 9748 e5ba 2450 8dba
00000170: 515d 97ba fc92 29bb ca9d a0b9 fba3 47ba
00000180: 2476 f839 9f97 0ebb f1e1 8fb8 730d f7ba
00000190: 16ef ceba 88ad d3ba 283e a2ba 39fd 17ba
000001a0: 3899 81b9 f63b f7ba a95e 5a3c 1387 00bb
000001b0: 118e e0b9 0bab 56ba b8b5 0039 7aed 1fbb
000001c0: 009a e5b9 148a cbba ed60 36ba 8655 b9ba
000001d0: ac1f 53ba e9b1 d4ba 0d1a 5c38 cb53 ccb8
000001e0: a451 02ba c801 87b9 6511 47ba 5598 72ba
000001f0: be72 f9b9 a6b1 a8ba f632 05bb a032 07bb
0.00033541673 -0.0018567034 -0.0005799506 -0.0013248663 -0.0006215455 -0.00026804215 -0.00049889897 -0.0010136842
-0.0015274262 -0.00012837417 -0.0011089332 -0.0021240353 -0.001039313 0.00046863058 -0.0015745069 0.00010326253
-7.221893e-05 0.00019142643 -0.00019949769 -0.0013455065 -0.0015549146 0.0002891103 -0.00033068145 0.0009217559
-0.0003172252 -0.0011509624 -0.0014738123 -0.003611707 0.00055097486 -0.0023789972 -0.0015197393 -0.0016495946
-0.0007366558 0.00024370877 7.254477e-05 -0.0015888183 -0.00045354117 -0.0009936647 -0.0014111748 -0.0008676606
0.0009819462 -0.00025865258 -0.0017428114 -0.00043615064 -0.002425979 -0.00052870973 0.00088128186 -0.0003677547
0.00089433655 -0.0049166367 -9.141043e-05 -0.0007909796 -0.0012019329 -0.00091421715 0.008164857 -0.00030123378
-0.0021986987 -0.0012502011 -0.00077030336 -0.0010825638 0.00035984587 0.0006896335 -0.0005594431 -0.0015461766
-0.00056930457 -0.0015584636 -0.00059227116 0.00041780842 -0.00046412207 -0.00064330694 0.00028283967 -0.00038114245
-0.00045649236 -0.0013439684 -0.0025668335 -0.00020735347 -0.003559779 -0.0018832483 2.2262944e-05 -0.0006151844
-0.0010753869 -0.0004720937 -0.0013841945 0.0010951895 -0.00069603644 -0.00068130007 -0.0014849582 -0.0017473031
-2.5609703e-05 -0.00037788769 -0.0017492947 -0.001078133 -0.0011548196 -0.0025874963 -0.0003063514 -0.00076156826
0.00047390268 -0.0021757854 -6.860856e-05 -0.0018848613 -0.0015787806 -0.0016149739 -0.0012378143 -0.0005797926
-0.00024718954 -0.0018862474 0.013328233 -0.001961176 -0.00042830457 -0.00081889395 0.00012274727 -0.0024403022
-0.00043793023 -0.0015528821 -0.0006957192 -0.0014139868 -0.00080537307 -0.0016227338 5.247635e-05 -9.743086e-05
-0.0004971272 -0.00025750534 -0.00075938395 -0.00092542666 -0.0004757847 -0.0012870326 -0.0020324565 -0.002062954

critic.value_heads.value_heads.extrinsic.weight f4 [1, 128]
00000000: f776 553e d8fd c1bd 531c 363e 8bb8 37bd
00000010: 21d4 11be c513 893c c3cd f33d fc67 573e
00000020: b424 21be 5038 ac3d f9a5 d2bd 7720 84bd
00000030: 74b2 2cbe c7c5 c03d 1f42 64bd 5763 a73d
00000040: a051 523e d8cf 953d 7c87 1e3e 6829 c6bd
00000050: 0942 1fbd bcad b63d 2a2c 443d 932f d73c
00000060: c0d8 013e 9212 7bbd 9e83 51be 7f48 aebd
00000070: 18bf 0a3e 62c4 a7bd b6cc adbd a858 67bd
00000080: 326b 91bc 22f2 633d d58e d73c 3dc9 e8bd
00000090: 5c50 aabc f5c7 143d b333 adbd 86c4 c5bd
000000a0: b104 4c3d 921a 533d 13b5 eebd 478f 0b3e
000000b0: 1e23 1bbe 1fbd 453e 7667 bfbb ab89 8d3d
000000c0: 5b3c 343d 4fc3 52ba 8ddd 333e f4c1 403e
000000d0: ca4f 56bd d08d d63d b35a 273b a302 eb3c
000000e0: feb4 8cbd 28f3 073e 2b28 2d3d c944 17be
000000f0: 1063 9a3d 1982 cb3d ed97 1d3e f293 1abe
00000100: fcbd 443e b728 2fbe 995e 293e 62a7 993d
00000110: b491 8c3d fc0d d73d 8417 703d 38c1 473e
00000120: b85c 523e 9691 5abd 9db2 e2bc 8fb4 9e3d
00000130: ad54 3fbe fdd5 e0bc 5697 4d3e 4e42 0d3e
00000140: ba04 b43d c4a6 1d3e d540 35bd 85b0 e93c
00000150: dbb7 e03c a2b5 b23c 615f 34be 74af 5fbd
00000160: ef08 f73d 8ef6 3d3e 86b5 04be 88cd 303e
00000170: 8383 55bd f15f 69bd c395 2f3e 609a cfbd
00000180: a30c e8bc 62ed 44be b24b 6d3d 6df2 34be
00000190: fea3 e0bd c399 aabd 8f45 c9bd 1b42 57bc
000001a0: 8a07 373e 252e bbbd dee4 5238 a9fd 163c
000001b0: f22d 413e 1e92 2d3e 5e32 d73d 3ab8 0abe
000001c0: f2ec 283e c4a8 49be 3d4a 293e 3923 1bbe
000001d0: 7203 b7bc 8fa5 3ebe 9d41 0b3e 2802 873d
000001e0: e452 3a3e f0b8 193e ab5a f1bd 17e5 ecbd
000001f0: 30fe ea3c 7642 89bd 647d b2bd 197f 3abe
0.20846163 -0.09472245 0.17784242 -0.04485373 -0.14241077 0.01673306 0.1190448 0.2103576
-0.15736657 0.08409178 -0.10285563 -0.06451505 -0.1686495 0.09412723 -0.05572712 0.081732444
0.2053895 0.07315034 0.1548137 -0.09675866 -0.038881335 0.08919856 0.04789368 0.026267802
0.1268034 -0.061297007 -0.20460364 -0.08509921 0.13549459 -0.08191754 -0.08486311 -0.056481034
-0.01775131 0.055650838 0.026313225 -0.11366508 -0.020790271 0.036323506 -0.084571265 -0.096566245
0.04980916 0.05153901 -0.11655631 0.13628875 -0.15150115 0.19310425 -0.005841191 0.06911024
0.044002872 -0.00080399675 0.17564984 0.18823987 -0.052322187 0.10476267 0.0025536239 0.02868778
-0.06870459 0.1327635 0.042274635 -0.14772333 0.07538426 0.099369235 0.15389986 -0.15095499
0.19213098 -0.17105375 0.16539992 0.07502629 0.06863728 0.10500714 0.058616176 0.19507301
0.20543182 -0.053361498 -0.02767306 0.077492826 -0.18684645 -0.027445788 0.20077261 0.13794824
0.08789964 0.15395647 -0.04425128 0.028526554 0.02743142 0.021815125 -0.17614509 -0.054610685
0.12062251 0.18551084 -0.1295987 0.17265904 -0.052127372 -0.056976262 0.17146973 -0.101368666
-0.028326338 -0.1923118 0.057933517 -0.17670603 -0.10968779 -0.08330109 -0.098277204 -0.013138319
0.1787397 -0.09139661 5.028105e-05 0.009215751 0.18865183 0.1695027 0.10507654 -0.1354684
0.16496637 -0.19693285 0.16532226 -0.15150155 -0.02234051 -0.18617843 0.13599248 0.06592208
0.18195683 0.15011954 -0.11784872 -0.11567133 0.02868566 -0.067021295 -0.087153226 -0.18212546
