results/conTrain1/DriveAroundTrack/DriveAroundTrack-18432.pt (torch, 534431 bytes, 36 tensors)

network_body.linear_encoder.seq_layers.0.weight f4 [128, 37]
000000 cb 76 3b be 72 42 c2 be 1b 75 1a 3d 4b 7b 55 3e
       -0.18307035 -0.3794132 0.037709337 0.20847814
000010 06 8c a5 3c 2b f1 d2 bd d9 e1 14 be a5 8c 5f bd
       0.02020837 -0.102999054 -0.14539279 -0.05457749
000020 34 d0 a0 bd 55 ab 21 be 4b e4 f5 bc 08 a8 1c 3e
       -0.078522116 -0.15788014 -0.030016085 0.15298474
000030 9d 60 62 3e 84 44 9b bd 10 fe bc bd e8 12 df 3d
       0.22107168 -0.07581428 -0.09228146 0.10892278
000040 9d 13 df 3d 0a 94 81 bd 98 fe 39 be b2 7b 15 3c
       0.10892413 -0.06327064 -0.18163526 0.00912373
000050 35 28 bf bd 8a 1e 22 3e 97 ad 11 bd b6 06 49 3c
       -0.09333841 0.15831962 -0.03556594 0.012269666
000060 58 f5 17 3e 30 18 8b 3e fb a9 c9 3e e2 08 dc bc
       0.14839685 0.2716689 0.39387497 -0.026859704
000070 67 9f 4e 3d 88 da 28 3d b6 d7 f7 bd 13 25 a2 bd
       0.050444987 0.041224033 -0.121016905 -0.079172276
000080 0b 05 87 bd 54 15 9d 3e 68 f1 93 bc a0 c6 18 3d
       -0.06592759 0.30680335 -0.018059447 0.0372988
000090 6e 32 99 bd 74 48 23 be c8 bd 03 bd bd c9 4f 3e
       -0.07480322 -0.15945607 -0.03216341 0.20291801
0000a0 04 0c bb 3d 60 5b 01 3e f3 48 ff 3c 92 4a 8b be
       0.09133151 0.12632513 0.031162715 -0.2720533
0000b0 41 ce 02 be f6 2f da bc 44 10 3d be 5c 0d 15 3d
       -0.12773992 -0.026634198 -0.18463236 0.036389694
0000c0 62 b5 01 be f6 31 92 3e c0 82 b6 bd 06 07 b4 3d
       -0.12666848 0.28553742 -0.08911657 0.08790402
0000d0 56 1a 8e bb bb d9 db bd a6 10 e9 3d ba 0f f2 bd
       -0.0043366356 -0.10734888 0.113801286 -0.11819406
0000e0 63 a7 c4 3c ce e2 91 3e 00 4b d3 3c 43 c8 2f be
       0.024005597 0.2849335 0.025792599 -0.17166238
0000f0 68 76 2c be cf c6 67 be e3 33 ad 3d ee d7 8b 3e
       -0.16842043 -0.22634433 0.08457162 0.2731318
000100 65 c2 48 3e 17 f2 19 bd 34 97 4b 3e 79 03 4e be
       0.19605406 -0.03758439 0.19881898 -0.20118512
000110 9c c4 c6 3d 56 cd 43 be 9a da a2 3d 97 6f 65 be
       0.09705469 -0.19121298 0.07951851 -0.2240585
000120 1c 92 22 be 4d 85 b0 bc 0d 7c 4c 3d e6 71 60 3e
       -0.15876049 -0.021547938 0.04992299 0.21918449
000130 0a 69 89 bd 34 b8 81 be 8b 87 6f bd 3a 3e 5e 3d
       -0.06709488 -0.25335848 -0.058478873 0.054258563
000140 5e 67 0e 3b c2 23 39 bd cd b8 4e 3e 44 22 95 bd
       0.0021729092 -0.045200117 0.20187683 -0.07281926
000150 47 7f 87 3d c4 b8 74 3d 73 8c 51 bc 3f 01 59 3e
       0.06616073 0.05974652 -0.012789833 0.21191882
000160 1b 27 62 be ff 46 53 3e 7d 25 07 be 42 1f f6 bc
       -0.2208523 0.20632552 -0.13197894 -0.030044202
000170 c8 cd 79 bc ed 25 4c 3b eb 62 b1 3d 70 34 82 bd
       -0.015246816 0.0031150535 0.08661445 -0.06357658
000180 52 4b 97 bc af b9 35 bd 61 30 16 3d 8e 43 3e be
       -0.018468533 -0.044366535 0.03666723 -0.18580458
000190 84 c5 8a 3d 2c ce 30 bd 69 dc 1c be 49 c2 7e bc
       0.06775954 -0.04316537 -0.15318455 -0.015549251
0001a0 22 f0 39 bd 2d 91 21 3c 3d 53 84 3d 64 29 25 3e
       -0.045395024 0.009861273 0.06461189 0.1612907
0001b0 09 55 8f 3e 8b 41 ef bd cd b7 1c 3e 7c 25 70 be
       0.27994564 -0.11682423 0.1530449 -0.23451799
0001c0 b8 21 01 bd 8c 6f b6 bd 7c 6a 2f 3e bb 4b 19 bb
       -0.031526297 -0.08907995 0.17130464 -0.0023391086
0001d0 41 4d fa 3d 66 b9 27 3e f1 f2 ba 3d 73 f2 67 bd
       0.12221766 0.16379318 0.09128369 -0.056627702
0001e0 86 a7 3b 3d 11 9f 20 bd 83 82 3c 3d a5 d1 b8 3d
       0.04581406 -0.039214198 0.046022903 0.090243615
0001f0 03 66 94 3d 99 99 43 bd 9d e1 a1 be d6 08 34 be
       0.0724602 -0.047753904 -0.31617442 -0.17581496
000200 f5 eb 69 bd 67 ef 70 be 5b 04 8b 3d 39 ff 33 be
       -0.05710979 -0.23528825 0.0678794 -0.17577828
000210 8c 6d 26 3e df c4 61 3d f7 c5 a7 3d 06 f7 bc be
       0.16252726 0.05511939 0.08192056 -0.36907214
000220 ae df 9f be af c6 1d 3e 01 da 11 3d 17 36 3a 3d
       -0.31225342 0.15407823 0.035608295 0.04546174
000230 4e 45 cd bd 07 bf a4 3d 75 5c 75 be 33 fe 14 3d
       -0.100229844 0.08044248 -0.23961051 0.036375236
000240 42 d4 11 bd 76 7c 28 bd 27 0f 78 3e 2e 55 57 be
       -0.035602815 -0.04113432 0.2422453 -0.21028587
000250 06 69 27 be 59 b5 d9 3b 54 3a 15 be 7e b0 88 be
       -0.16348657 0.006643933 -0.14573032 -0.26697153
000260 f8 5f 4c 3e 25 c5 6f bc 45 ae 16 be d0 96 18 3e
       0.19958484 -0.014634405 -0.14714916 0.1490128
000270 88 f0 08 be f5 fb 8c bd 0f 4c 05 be e4 20 b6 be
       -0.13373005 -0.068839945 -0.13017295 -0.3557197
000280 0c d4 59 3e 2f 38 91 3d 02 0d 13 3d 7d 04 d4 bd
       0.21272296 0.07090794 0.035901077 -0.103524186
000290 61 33 18 be 4a cd fd 3b 78 6e 8f 3d 55 98 4f bd
       -0.1486335 0.0077454196 0.07003492 -0.050682385
0002a0 e0 88 8e 3d 20 74 2e 3e 57 de a5 3c 90 d1 90 bd
       0.069597006 0.17036486 0.020247621 -0.07071221
0002b0 1d eb eb 3d e4 5c 23 be e2 9c 0e bd fb 0c 38 be
       0.11519454 -0.15953404 -0.034817584 -0.17973702
0002c0 a5 3e 96 3d 0b 90 ac bd 3b 9c 73 be 8e c6 e8 3c
       0.07336167 -0.084259115 -0.23790066 0.02841499
0002d0 9f 12 c1 bc e4 dd 5b be fd 84 50 bd eb 90 03 be
       -0.02356845 -0.21471363 -0.050908078 -0.1284825
0002e0 e9 12 ad bd 74 98 85 3a 82 90 1d bd b2 4a 20 be
       -0.084508725 0.0010192529 -0.03846789 -0.15653494
0002f0 c9 77 be 3c b3 57 86 3d 7f cb 18 3e 27 dd 9a be
       0.023250477 0.06559696 0.14921378 -0.3024685
000300 89 e0 38 bd f7 cc 05 bd 15 d3 e7 3c f1 64 a8 bd
       -0.04513601 -0.032666173 0.028298894 -0.08222378
000310 9a 04 68 3e e0 12 30 be e5 a6 32 be 4c 4e 8a ba
       0.22658005 -0.171947 -0.17446478 -0.0010551899
000320 65 ec 0b 3e dc 5f 43 3e 3b e6 24 3d e3 1c 76 bd
       0.13664396 0.19079536 0.040258627 -0.060086142
000330 a6 24 a5 3d fd 0e 85 bd 9f 17 08 3e d4 3f 01 3e
       0.08063631 -0.064969994 0.1329026 0.12622005
000340 a8 43 d5 3d 20 10 fa 3d 7f 83 54 be f6 4b 78 be
       0.10413295 0.12210107 -0.20753287 -0.24247727
000350 22 4a f2 bd 29 e0 1c bd 88 03 20 3e 60 cd 24 be
       -0.11830546 -0.038299713 0.15626347 -0.1609397
000360 73 b3 9a be b7 f1 4e 3d 3d 5b 46 3d f1 4e 53 3d
       -0.30215034 0.050523486 0.048426855 0.051588956
000370 80 40 36 bd 64 76 98 3e 44 22 3f 3e 08 2c 1f 3e
       -0.044495106 0.29777825 0.18665415 0.1554414
000380 c2 e9 49 bd 39 28 aa bd 59 78 8d be bc bf 10 3e
       -0.049295194 -0.08308453 -0.2763088 0.14135641
000390 9c db ab 3e c8 06 8a bc 4d 9c 6a be 22 07 86 be
       0.33565986 -0.016848937 -0.22911187 -0.26177317
0003a0 59 50 c4 bd 79 dd 19 be 2e d0 36 3e 7d 54 98 3e
       -0.095856376 -0.15025891 0.17852852 0.2975196
0003b0 55 c9 10 be 7d 17 3b 3e 03 66 ae be 12 e8 84 be
       -0.14139302 0.18270679 -0.34062204 -0.25958306
0003c0 3a 5d b6 bd 04 f0 13 3e c6 94 4c 3e 1e 22 1c 3e
       -0.089045 0.14447027 0.19978628 0.1524739
0003d0 c7 92 a1 be 39 61 b9 3d c5 52 4f 3e dc d9 55 be
       -0.31557295 0.09051747 0.20246418 -0.20883888
0003e0 68 5a db bd e0 9e 25 bd 3e fa 54 be ec 63 ec bd
       -0.10710603 -0.040434718 -0.20798585 -0.11542496
0003f0 ba 85 af 3d a0 26 66 3c bc b9 42 bd b9 72 b5 3c
       0.08570428 0.014047295 -0.04754041 0.02214943

network_body.linear_encoder.seq_layers.0.bias f4 [128]
000000 a3 e4 2d 3b 28 54 2a bc c3 4e 54 bc 5c c7 cb 3c
       0.0026533983 -0.010396041 -0.012958231 0.024875335
000010 52 a3 87 3b 07 05 8e 3b 47 3e 13 ba b8 c5 f6 bc
       0.0041393423 0.0043340954 -0.0005616885 -0.030123577
000020 9a ee 0d bc dd 09 5a 3a 4d 97 d7 3b 89 ee 72 3c
       -0.008662844 0.000831751 0.0065793158 0.014827379
000030 5f bc 4e 3c 37 a2 0e bd 6d bc 34 3c 92 bc 84 bd
       0.012618153 -0.03482267 0.011031252 -0.064812794
000040 6e 92 da 3b f3 df ef 3c 64 44 01 bd 60 d0 90 bc
       0.006670288 0.029281592 -0.031559363 -0.017677486
000050 ce 8a 59 bc 38 ab 8b 3c e6 43 d6 bc 49 b1 13 bc
       -0.0132777225 0.017049417 -0.026155423 -0.009014436
000060 69 ad d7 ba e5 f0 50 3c 54 2e 50 bb ff 48 30 bc
       -0.0016454878 0.012752746 -0.0031765895 -0.010759591
000070 f3 85 ed 3c 2a f3 94 39 76 e8 2d 3a 8e 4f b3 bc
       0.028994536 0.0002840993 0.00066340656 -0.02188852
000080 fd f5 af 3c e8 14 f9 3b db 6a a0 bc e0 6b d8 bc
       0.021479601 0.007601369 -0.019582203 -0.026418626
000090 af 2e 51 3c ce 46 f0 3c c1 fb 9a 3c d6 a2 70 bb
       0.012767478 0.029330637 0.018918874 -0.0036718152
0000a0 ae ba 0a 3a 88 26 bf 3c 5b 6f ee bb 3e 05 30 3c
       0.00052920997 0.023333803 -0.007276458 0.010743437
0000b0 06 8e 7d bd 4e ad 5d 3c 31 02 c9 bc 55 d8 ad 3c
       -0.061903022 0.013530089 -0.024537178 0.02122132
0000c0 16 74 9a bc 59 28 4f 3c b1 86 ef 3b 13 f5 53 b9
       -0.018854182 0.012643897 0.0073097576 -0.00020213825
0000d0 d9 d1 21 3b 7d 07 7e bb 7d 71 0b 3d cc 85 02 bc
       0.002469173 -0.0038761788 0.034043778 -0.00796647
0000e0 35 3c 41 3c 2e b5 0a 3a 74 85 a5 bb 27 ee fe 3b
       0.01179414 0.000529128 -0.0050513092 0.007779855
0000f0 b3 18 17 bd d2 51 bb 3b 9e fe 0f bc 43 45 03 3d
       -0.03688879 0.005716541 -0.008788733 0.032048475
000100 4c f4 b6 bb 03 d7 eb bc 8c df e0 3b 33 6b 17 3d
       -0.0055833217 -0.028789049 0.0068625864 0.036967468
000110 ac 25 42 bc 1e bb 94 bb 87 d9 e0 bb 90 a0 26 3c
       -0.011849802 -0.0045389077 -0.006861869 0.010170117
000120 50 d2 a2 3b 83 af 2e 3c 4b af 45 3b ca d6 37 3c
       0.004968919 0.010661962 0.0030164297 0.011220643
000130 eb 6a 34 3a df 5f 6b bc 1f 0a 95 3b 90 25 b3 bc
       0.0006882387 -0.014366119 0.0045483257 -0.021868497
000140 3a 8e a3 bb 4c 96 cf bb 54 16 94 3c fc 19 52 bc
       -0.00499132 -0.0063350555 0.018077053 -0.012823578
000150 f7 59 2c 3d de 2d 5a 3c 46 b3 af ba 9d 04 8e bc
       0.042077985 0.0133166 -0.0013404868 -0.017336184
000160 c8 38 32 3c 2e ac 42 bb 1c f9 48 bc 0d e0 e5 ba
       0.0108777955 -0.0029704678 -0.012266424 -0.0017538086
000170 c7 ae c9 b9 92 8c 38 bc 9d 52 d2 3c 68 a7 43 3c
       -0.00038467927 -0.011263983 0.025674159 0.011941768
000180 95 eb 6b bc 63 0d 33 3c 2f 50 5c 3c 10 f8 d8 3c
       -0.014399429 0.010928485 0.013446852 0.026485473
000190 04 4e b7 bc 5e 75 13 bd d2 fe 42 bc 4e 08 21 bc
       -0.022376068 -0.036000602 -0.011901574 -0.00982864
0001a0 f5 cf 8b bc 67 93 e5 bb cc bd 9f bc 69 28 dd bb
       -0.017066935 -0.007006097 -0.019499682 -0.006749202
0001b0 a3 d6 8f 3b 91 ce a7 bc b9 00 76 bc 7e 40 9a bc
       0.0043896004 -0.02048424 -0.015014821 -0.01882958
0001c0 6d d6 c6 bb e2 26 27 bb 36 7d 8b bc 45 ec d8 bc
       -0.006068042 -0.0025505354 -0.017027479 -0.02647985
0001d0 ae 74 00 bb c6 aa 02 3c a4 59 59 b9 78 db 7d 3b
       -0.0019600797 0.007975286 -0.00020728126 0.003873555
0001e0 34 50 37 bc 39 0a 07 bd 3c ee 86 bc 7d 41 1e 3c
       -0.0111885555 -0.032968733 -0.01647102 0.009659168
0001f0 8b dd 7e bc d4 48 8d 3c 23 21 9a ba 8f 28 35 bd
       -0.01555575 0.017246641 -0.0011759143 -0.044228133

network_body.linear_encoder.seq_layers.2.weight f4 [128, 128]
000000 27 64 82 3c a1 ca 37 3d 5f 38 02 3e 83 e6 b6 bd
       0.015916897 0.044870976 0.12716816 -0.08930685
000010 ac 48 04 3e 36 61 40 3c 68 8d aa ba 95 3d 73 3d
       0.12918347 0.011741927 -0.0013012113 0.0593849
000020 d7 58 0d 3e 2b fc e0 b9 07 8a 56 3d be 3b 0e 3e
       0.13803421 -0.0004291249 0.052377727 0.13889977
000030 ec 2d 83 3d a2 2e 06 3e a1 bc 75 3c 41 97 e8 3a
       0.06405243 0.13103727 0.014998586 0.0017745272
000040 48 9b 97 3d 3e d9 07 3e 7f ff 9e bd fa 1c 98 bc
       0.074026644 0.13266465 -0.07763576 -0.018568505
000050 3c 84 75 3d 1a 4e c6 bd b0 bf b2 bc cc d6 4d 3d
       0.05994056 -0.096828654 -0.02181992 0.050253674
000060 fd 55 56 3d f5 66 76 3d ab 90 91 bd 39 ac 2c bd
       0.0523281 0.06015678 -0.07107671 -0.04215643
000070 a5 5f 7e 3d 27 e7 91 bc 6f 3f f8 3c 39 15 99 3d
       0.062102932 -0.017810417 0.030303685 0.07474751
000080 0e 10 2a bb d6 62 c7 bd dd b8 81 bd 05 bd 6f 3d
       -0.002594951 -0.09735648 -0.06334088 0.058529872
000090 de 57 a5 bd c3 79 6c bd 98 7d f6 bd bd 57 7c 3d
       -0.080734 -0.05773331 -0.12035674 0.06160711
0000a0 71 80 f5 3d 89 5f 9c 3a e0 84 ec bc 43 95 57 bd
       0.11987389 0.0011930327 -0.028871953 -0.05263258
0000b0 ce b6 33 be a1 39 3c 3d de a3 a1 3d 3e 15 eb 3d
       -0.17550203 0.045953397 0.07892583 0.11478661
0000c0 fa 2f a3 3d 7e e8 f3 3d 77 1f 76 bd 77 cd 4e 3d
       0.07968135 0.11909579 -0.0600886 0.050488915
0000d0 ec 99 17 be 73 79 b1 bd 68 1b 0d b8 fd 32 50 bd
       -0.1480481 -0.08665743 -3.3642544e-05 -0.050829876
0000e0 fb 61 c7 bd 35 ca 93 bd 25 cc 69 be 73 cf e9 bd
       -0.09735485 -0.07216302 -0.22831781 -0.11416521
0000f0 a2 a9 14 bd 97 22 e8 bc 90 d3 00 be 67 01 07 ba
       -0.036294587 -0.028336806 -0.12580705 -0.000515005
000100 7b fe 3d bd dd 1d 02 be f0 07 84 bd 11 44 d9 3b
       -0.04638527 -0.12706704 -0.064468265 0.0066304286
000110 25 a4 7d bb 81 b4 27 3e 88 ae ae 3d 82 6a 6b bd
       -0.0038702574 0.1637745 0.08529383 -0.05747462
000120 fc 1a e8 3d d8 df 6a 3b df d4 03 be 25 23 c5 3a
       0.11333272 0.0035838988 -0.12874173 0.0015040381
000130 e2 66 43 bb e0 1c 24 3e cf 72 93 bd c2 20 1d be
       -0.0029815962 0.1602664 -0.071996324 -0.15344527
000140 cd 3a 0e be 76 01 b2 bb 85 4f 2a bb 26 07 0b 3d
       -0.13889618 -0.005432303 -0.0025987339 0.033942364
000150 30 dd 34 be eb a4 c5 3d 77 cc 4c 3e 63 eb 4f 3d
       -0.17662501 0.09650596 0.19999872 0.05076159
000160 b4 ed a6 bd 6c aa 8f bd b0 77 c3 ba 64 d4 d4 3b
       -0.08150807 -0.07014927 -0.0014912989 0.0064950455
000170 a1 70 20 bc 95 29 3a 3e 6f 2a ac 3c ed 84 92 bd
       -0.009792478 0.18179925 0.021016328 -0.0715426
000180 57 47 b2 3d 16 2d 47 3c 5a ce 74 3d c5 5a 28 bd
       0.08705013 0.012156745 0.059767105 -0.04110219
000190 7f 4f 15 bd 94 d5 e2 bc 8c 9c 70 3e 86 21 c8 bc
       -0.036452767 -0.027689733 0.23497218 -0.024430048
0001a0 b4 71 ca 3d dc d0 87 bd fe 53 e7 3c 0c 57 84 3d
       0.098849684 -0.06631634 0.028238293 0.064619154
0001b0 76 f7 dc 3d f0 87 73 3a 6f 28 25 bd 5e 94 1b 3e
       0.10789387 0.00092899706 -0.040321764 0.15193316
0001c0 39 e5 30 3c 8d 59 df 3d 07 58 b6 3c 16 3d 9c 3d
       0.010796838 0.10905752 0.022258772 0.07628839
0001d0 5d c5 d9 bc 2a 8a 69 3d a7 b9 0f 3d 26 b8 82 3d
       -0.026583368 0.05701653 0.03508916 0.0638278
0001e0 61 c6 dd 3d 4e 75 d9 bc 57 20 7d bd 30 c1 1a be
       0.108288534 -0.026545193 -0.06179842 -0.15112758
0001f0 1f 2a 4b bd ab c9 04 3e 60 e1 3f 3d 45 fc 6d 3d
       -0.049600717 0.12967555 0.046845794 0.05810191
000200 5b cb c1 bd ee 26 52 3d ae b8 52 3d e3 de 25 3e
       -0.09462615 0.051306657 0.051445656 0.16198306
000210 c6 c8 03 3e 2f 7b a6 bc 0c 0a 50 3e 71 96 5c 3c
       0.12869558 -0.02032241 0.20316333 0.013463602
000220 21 81 6a be fa 23 cb 3d dd 10 02 bc 33 5f d6 bd
       -0.22900821 0.09918971 -0.007938591 -0.104673766
000230 5f 6e da bd 1d 6a ad 3d 4f 28 5d bd f6 cf 44 3d
       -0.10665583 0.08467505 -0.05399352 0.04804989
000240 ba d6 ba 3d eb 92 47 3d 36 19 1e bd bb 38 6a 3d
       0.09122987 0.048724096 -0.03859826 0.05718301
000250 aa 13 d4 bc a3 74 eb 39 58 9b 8c 3d 73 d3 18 bc
       -0.025888283 0.00044909594 0.06865567 -0.009327757
000260 ef b1 2d 3d 75 97 4f 3c 99 52 17 be 32 5c 91 3c
       0.04240602 0.0126703875 -0.14777602 0.017744157
000270 db 2e ff 39 a1 e3 4c bc 85 27 a8 bd 1f 97 22 bd
       0.000486723 -0.012505443 -0.08210663 -0.0396949
000280 46 82 af 3c c2 d9 e5 3c 83 6e 8e 3d 13 ae da 3d
       0.021424424 0.028057937 0.06954672 0.10677733
000290 23 63 f7 3d 35 40 0f 3e 1b e6 0b bd e7 e8 99 3d
       0.12079456 0.13989337 -0.034154993 0.07515126
0002a0 33 e4 0f bd 12 89 d2 3c 5a 71 73 3d 61 9f 80 bd
       -0.035129737 0.025700126 0.059434272 -0.06280399
0002b0 87 b8 31 be 61 96 49 bd 33 e6 18 bd 1d 95 d5 3c
       -0.17355548 -0.049215678 -0.03732891 0.02607208
0002c0 5d b2 d0 bd b7 1e 52 bd ba 46 4e bc 35 a9 95 3d
       -0.1019027 -0.051298823 -0.012590105 0.07307664
0002d0 81 5c 85 bd cc b1 de bd 33 9a e2 bc 12 65 a9 bc
       -0.06511784 -0.10873756 -0.027661419 -0.020678077
0002e0 93 65 c7 3d 42 4d 8e bd aa 8b fa bd 7c e9 da bd
       0.097361706 -0.069483295 -0.1223367 -0.10689065
0002f0 ae c2 36 3e 97 8f eb 3d 85 6a bb 3c 1f 31 e7 3b
       0.17847702 0.11501997 0.02287794 0.0070554162
000300 c5 8f b2 b6 c9 dd 1c 3d 42 a5 a7 bd 26 80 a2 bd
       -5.3215504e-06 0.03829745 -0.08185817 -0.079345986
000310 a9 4e 03 be c3 23 12 bd ed 97 63 bd e6 f3 a8 bd
       -0.12822975 -0.035678636 -0.05556481 -0.08249645
000320 dd 0b 7d bd 0c 16 49 3c 31 80 53 bd d7 2f a1 bd
       -0.06177889 0.012273323 -0.051635925 -0.07870453
000330 0a ba 21 bd 4d ab 6f bd 18 bc 85 3d 91 0e 0f bd
       -0.03948406 -0.058512975 0.06530017 -0.034926
000340 8b bf a5 bd dc de ac 3d 97 5b 26 bd d1 33 91 bd
       -0.080931745 0.084409446 -0.04061469 -0.07089961
000350 b7 b1 0d 3e 7c 32 dc ba 18 fe 62 3d bd 2b 2c 3e
       0.13837324 -0.0016799713 0.055418104 0.1681356
000360 0e 7e 39 bd 72 32 8f bd 5c 98 9d bb ed f7 65 3d
       -0.04528623 -0.069920436 -0.0048094224 0.056144644
000370 a7 c8 31 3b 8b f4 87 3c 11 60 89 bd 29 f9 24 3d
       0.0027127655 0.0165961 -0.06707776 0.04027668
000380 ed a4 5f bc e2 28 0b be d9 09 aa bc 33 30 21 3d
       -0.013650161 -0.13589814 -0.020756649 0.039352607
000390 6e 36 bc 3d 0e 79 20 3d e5 14 15 be 95 a4 73 bd
       0.09190069 0.039177947 -0.14558752 -0.05948313
0003a0 e4 8f 39 bd 72 69 49 be 34 3d a8 3d 3b 31 3c bb
       -0.04530324 -0.1966913 0.082147986 -0.0028715867
0003b0 04 6a d0 bc 75 4a e1 bd 38 13 e9 3d 42 37 b5 bc
       -0.025441177 -0.1100053 0.11380619 -0.022121076
0003c0 3f 69 cd bd 38 1b 6b 3d 1a e3 94 3d c8 42 12 3d
       -0.1002984 0.057399005 0.07269879 0.03570822
0003d0 12 1f be bc 03 51 b7 3d bf a2 7c 3a 2b 5f ee 3c
       -0.023208175 0.08950999 0.0009637288 0.029098114
0003e0 30 0a 20 be a9 85 12 3d 50 8d 52 3e 5a e3 a9 bd
       -0.15628886 0.035772 0.20561719 -0.08295317
0003f0 61 f6 1f bd 36 06 4b 3c ec e5 f8 bd 5c 93 8c bd
       -0.039053325 0.0123916175 -0.12153229 -0.06864044

network_body.linear_encoder.seq_layers.2.bias f4 [128]
000000 21 d6 03 bc 00 f2 04 3a 4d fa 12 bc cb d5 6e bc
       -0.008046658 0.0005071461 -0.008970809 -0.014577339
000010 40 1e 44 3c 18 a5 18 bc 24 a7 74 3c 5b 48 2d bc
       0.011970103 -0.009316705 0.014932428 -0.010576333
000020 63 0f 8c bc 58 b2 4d bc 7a 04 ce bb 1d 62 98 bc
       -0.01709718 -0.0125547275 -0.0062871547 -0.018601472
000030 c1 10 fd bb 57 22 82 b9 e9 47 60 bc 2e 53 13 3c
       -0.0077229445 -0.00024821117 -0.01368902 0.008992
000040 72 41 89 3c 7b 71 fc bb 54 99 84 bc 99 2a 53 bc
       0.01675484 -0.0077039576 -0.016186394 -0.012888574
000050 29 c2 86 b9 20 38 8a bc 37 8f c4 3b e2 aa 21 3c
       -0.00025703132 -0.016872466 0.005998518 0.009867402
000060 3a b6 4c 3c f4 50 33 bc 59 68 16 3b ed 48 92 ba
       0.012494618 -0.010944594 0.002295038 -0.001116065
000070 41 5d 9a 39 9f ef 54 bb 29 eb 92 3b 44 41 9c 3b
       0.00029442649 -0.0032491458 0.0044835997 0.0047685225
000080 fd fc ca bb 88 be bc bb 1d e9 61 bc 6a 75 7b bb
       -0.0061947093 -0.005760018 -0.013788489 -0.0038369545
000090 86 fb c2 3b 58 95 3b 3c 36 9f 23 3b bc 82 37 bc
       0.005950394 0.011449181 0.0024966723 -0.011200603
0000a0 98 94 14 ba 43 af 8d bc 3b d7 62 ba a9 33 4b 3c
       -0.0005667894 -0.017295485 -0.00086532877 0.012402453
0000b0 73 3b 4c bc 0b 37 16 bc 30 09 a1 bb 9b ea e1 ba
       -0.012465346 -0.009168397 -0.0049144253 -0.0017236056
0000c0 23 5c 8f 3b cf 66 5f bc 87 07 20 3b a4 a4 6b 3b
       0.004374997 -0.013635351 0.002441855 0.0035956288
0000d0 e9 bf 43 bc 50 d0 2e 3c d8 79 77 bb f7 eb 4f 3c
       -0.01194761 0.010669783 -0.0037761834 0.012690536
0000e0 7d 46 9c bc bb 7d b6 bc c5 66 8d bc 31 b7 9a bc
       -0.01907658 -0.02227675 -0.017260918 -0.01888618
0000f0 d3 d3 1d 3c 68 d3 a4 bc 72 24 56 bc 8b b7 85 3c
       0.009633022 -0.020120338 -0.013070213 0.016322872
000100 cc 55 04 3a a5 6d a7 bc 1e a9 d5 bb 19 ac 8a bc
       0.0005048185 -0.020438025 -0.0065204045 -0.016927766
000110 15 47 16 bb 3a 6d 11 3c 6e 5d d0 bb ba 32 57 bc
       -0.0022930552 0.008876139 -0.006358794 -0.013134653
000120 85 31 7d bb 44 2f 21 3c f5 4d ff b9 45 fb 9f 3b
       -0.0038634252 0.009837929 -0.00048695473 0.0048822486
000130 9a 14 13 3b 98 ab 02 3b d5 af 98 bb a5 9e 49 bb
       0.00224427 0.0019938704 -0.0046596327 -0.0030764726
000140 36 25 c9 3b 9d 79 7e bb e2 2a 66 bc b6 4d bd 3b
       0.006138469 -0.0038829811 -0.01404831 0.005777086
000150 d7 89 54 bb 9f 9c cd bb e4 8f 64 3c 87 4c e7 3a
       -0.0032430792 -0.006274774 0.013950322 0.0017646708
000160 d4 66 97 bc 7f db cb 3b 07 fc 73 bc b2 92 11 bc
       -0.01848165 0.0062212343 -0.014891631 -0.008885073
000170 64 38 7d bb d3 f8 a5 3b ff 43 1a 3b db c8 36 bb
       -0.0038638348 0.0050650625 0.0023539064 -0.0027890715
000180 0a d6 95 3b c5 9e f7 bb 2c 70 49 3c ba 0e be bb
       0.0045726346 -0.0075567686 0.01229481 -0.0058000954
000190 94 08 df bb 8d 0f ce bb 99 92 d4 bb 4b 0a 8f 3b
       -0.0068064425 -0.006288475 -0.0064872024 0.0043652407
0001a0 e3 ff 21 bc b0 e6 e3 bb c6 55 94 3b 2c 04 e2 bc
       -0.009887668 -0.0069549903 0.0045268266 -0.02758988
0001b0 6b 8b 84 3c 16 bf 48 3b e4 cb 57 ba b6 f5 6c bc
       0.01617976 0.0030631474 -0.0008231981 -0.014462879
0001c0 82 1f f4 3a 71 55 cd bb ad fa 67 bc f6 33 f7 bb
       0.0018625113 -0.006266289 -0.014158887 -0.007544036
0001d0 33 62 d5 3b 5b df a1 bb 71 59 c2 3b 47 30 7c 3c
       0.0065119504 -0.004939956 0.0059310724 0.01539237
0001e0 65 d6 c5 3b 20 6c 0c 3a c2 2c 01 3c 32 0e 2a bc
       0.0060375207 0.0005356688 0.007884206 -0.010379361
0001f0 9d a5 5f bc 03 be 88 bb c4 13 80 bc 64 a1 31 bb
       -0.013650325 -0.004173042 -0.015634425 -0.0027104253

action_model._continuous_distribution.log_sigma f4 [1, 2]
000000 11 71 11 3d 61 11 bd 3b
       0.03550822 0.005769894

action_model._continuous_distribution.mu.weight f4 [2, 128]
000000 67 f3 47 3b 49 8c 99 3c 56 f7 55 3c 0a 99 bc 3c
       0.003051007 0.018743651 0.013059458 0.023022193
000010 a0 38 aa ba 84 42 d9 bb 86 53 ba bc 48 d0 af 3c
       -0.0012986846 -0.0066302437 -0.022744905 0.02146162
000020 74 d1 eb 3c 5d 0c e5 39 55 17 c5 3c b8 39 19 3d
       0.028786398 0.00043687495 0.024058977 0.03740856
000030 92 fc ea 3c 2c 86 06 bb ed 2e 04 3d 46 9e f0 bc
       0.028684888 -0.002052675 0.032271314 -0.029372346
000040 c1 f2 d3 3a 0a 14 a8 3c 92 b1 07 bc 5f 7b ab 3c
       0.0016170369 0.020517368 -0.008282082 0.020932851
000050 56 89 7e 3a e8 e5 88 3c a7 92 1a b9 fc d3 12 3c
       0.00097097957 0.01671119 -0.00014741217 0.008961674
000060 22 35 3f 3b c8 14 e5 3c 46 53 ab 3a 3c 99 07 3b
       0.0029175957 0.02796401 0.0013071082 0.00206907
000070 2b 94 7d 3b e5 b5 04 3b 61 c3 19 bc bc 0a 96 3a
       0.0038693051 0.002025002 -0.009384961 0.0011447291
000080 62 39 9d 3b d7 2c ca bb ad 3b a0 ba d9 bd 6a bc
       0.0047981003 -0.006169896 -0.0012224816 -0.01432749
000090 ad c1 01 bd 5b 96 bf ba bf f3 87 ba 5f fe 14 3c
       -0.031678844 -0.0014616953 -0.0010372325 0.00909385
0000a0 7c 7f 91 bc 9b 41 1a 3d b9 23 cd 3a e8 4d 2f bc
       -0.017760985 0.037660223 0.0015650905 -0.010699727
0000b0 d7 b3 cf 3c 01 df 6d bb ae 60 a4 bc df 6e 9d bb
       0.025354309 -0.003629625 -0.020065632 -0.0048044766
0000c0 cd be 7c ba 5e b9 f2 3c 0b 41 1c 3c 7e ef 30 39
       -0.00096414686 0.029629406 0.009536992 0.00016873886
0000d0 4a 2b a3 3c 60 c9 e0 bc b3 f0 85 b9 70 79 aa ba
       0.019918103 -0.027439773 -0.00025547072 -0.0013006162
0000e0 f9 cf 6b bb ec 1d b6 3c bc 50 31 3d 39 f5 fd ba
       -0.0035982116 0.022231065 0.043289885 -0.001937545
0000f0 91 ea 96 3b b2 90 13 3d 59 53 cd 3c c8 f3 3e bb
       0.004605599 0.036026664 0.025064157 -0.0029137004
000100 bd ae 61 3c 06 ec 80 3c fd d8 74 3c 84 ab 3f 3d
       0.013774571 0.015737545 0.014944312 0.04679443
000110 0e 2a 8d bb 33 25 63 bd c9 aa bf bb ee a6 7c bb
       -0.004307992 -0.055455398 -0.0058492166 -0.0038551646
000120 a4 7c d1 3b f0 70 d8 bc 71 ad 14 3c 33 23 c2 b9
       0.006393032 -0.02642104 0.009074555 -0.0003702879
000130 d3 52 3a bc 50 97 3e 3c bb d5 1d bc 8e e3 60 ba
       -0.011372286 0.011632755 -0.009633477 -0.000857883
000140 b6 d0 cc bc f2 eb cb 3b 5c 92 f9 3c 53 6a bd bc
       -0.025001865 0.006223195 0.030465297 -0.023121988
000150 f1 6f 45 3c 26 be ba 3a c0 78 71 b9 a9 cc c7 ba
       0.012050615 0.0014247342 -0.00023028534 -0.0015243489
000160 7b f9 a0 3a a6 11 b8 bc c0 1b 80 3d 72 3d 21 3a
       0.0012281382 -0.022469353 0.06255293 0.00061508187
000170 69 15 4e ba bb 3e 84 3b 8f ff 86 bc a9 f6 02 bc
       -0.0007861467 0.0040357984 -0.016479282 -0.007993379
000180 a2 4f 26 3a bc d5 8e 3a 17 a5 09 bd 4d ad 04 3b
       0.00063442637 0.0010897438 -0.033604708 0.0020244897
000190 c4 41 9a 3b b5 79 a5 bc 95 65 5e bb 4a 0f c0 bc
       0.004707547 -0.020199636 -0.003393506 -0.02344479
0001a0 f6 5e 32 bb c9 f4 f1 b7 a5 cd 72 bb 0b 24 2e 3d
       -0.0027217246 -2.8843426e-05 -0.0037048843 0.042514842
0001b0 c5 19 bd bb b7 cc 82 bc 27 93 38 3b 9e 74 af 3c
       -0.0057708942 -0.015966756 0.0028163882 0.021417912
0001c0 b0 f9 0d bc 37 dc be 3a 84 bb 82 b8 1d 91 a6 3c
       -0.008665487 0.0014561479 -6.2338106e-05 0.020332867
0001d0 1c 92 05 bd a3 12 a1 3b 97 68 01 bb aa 89 79 bc
       -0.032610044 0.0049155517 -0.0019746178 -0.015230576
0001e0 b0 bf a0 bc a4 96 35 bb 19 d5 db bc 66 1a 96 3c
       -0.019622654 -0.0027708197 -0.026835011 0.018323135
0001f0 1f 7e 6e 3b 04 d7 02 bb 21 1f 38 b9 e1 7a 3f bb
       0.0036391092 -0.0019964585 -0.00017559204 -0.0029217529
000200 b5 03 44 bb fe 91 9d bc 08 f7 0c ba a5 4b ad 3c
       -0.0029909436 -0.019234654 -0.00053773867 0.021154234
000210 77 b2 ae ba 10 cb 19 3b a4 9f 97 bc 65 69 a9 3c
       -0.0013328333 0.0023466982 -0.01850874 0.020680139
000220 a9 d3 09 3b 68 9c 87 3a de dd 97 bb 31 74 22 bc
       0.00210307 0.0010346295 -0.004634603 -0.0099153975
000230 b0 7b 0b bb 5e 2d 5e bb 21 a8 3b 3c cc 67 9e bc
       -0.002128344 -0.0033901553 0.011453659 -0.019336604
000240 8c 19 87 bb 62 91 86 3c 21 7e 45 b9 4c 7a 00 3d
       -0.0041229185 0.016426746 -0.0001883437 0.03136663
000250 b6 e7 d4 b9 dc c5 e1 3c c1 2a ae 3a 00 01 f0 bb
       -0.0004060843 0.027560167 0.0013287888 -0.007324338
000260 ee c6 0d ba aa 28 5d 3c d0 ed ac 3a 0c e3 c3 bb
       -0.0005408366 0.013498465 0.0013193432 -0.005977994
000270 7c 52 a2 bb 48 63 6a 3b e7 5b 90 bb d9 20 ca 3a
       -0.0049536806 0.0035764743 -0.004405487 0.0015421166
000280 25 47 00 bb c6 c2 d0 3b bb c0 92 bb b5 11 7b bb
       -0.0019573655 0.006370875 -0.0044785417 -0.0038310115
000290 fc 56 bc bc f3 bb 4b 3a 91 2e 0b 3b 49 e3 07 bc
       -0.022990696 0.0007771842 0.0021237473 -0.008293935
0002a0 1e 52 2a 3b 5c 22 96 3c bd c1 95 38 93 90 b8 ba
       0.0025988887 0.01832693 7.14096e-05 -0.0014081172
0002b0 6a 3b 92 3c c2 33 52 3b d2 82 c5 3b 32 bf be 3b
       0.017850596 0.0032074307 0.006027558 0.005821132
0002c0 31 fd 05 bb 3e 35 ca 3c b4 80 c8 3a 2c a5 30 3a
       -0.0020445103 0.024683591 0.0015297146 0.000673848
0002d0 92 bc 0c 3d ba 41 f9 39 86 cb 0c bb 75 3e e5 39
       0.034359522 0.0004754195 -0.0021483614 0.00043724818
0002e0 04 2b 40 3b 0c be b4 ba 12 7c a4 3c 7b 71 0a 3a
       0.0029322514 -0.0013789549 0.020078693 0.0005281192
0002f0 d2 d5 e9 ba f2 7c f7 bb cc 87 b6 3c 70 e3 0d 3b
       -0.0017840213 -0.0075527364 0.02228155 0.0021650456
000300 6b 3c 56 3b 1d b9 9e bb 6c 55 29 3b 7f ae ba 3c
       0.003268982 -0.0048438446 0.002583827 0.022788284
000310 70 a9 27 3c 96 02 1a bc a7 13 61 3b e0 54 14 bb
       0.010233268 -0.009400031 0.003434399 -0.0022633597
000320 c9 2c c6 3c 27 c7 c0 bc a3 3d 1f bc 72 6b 36 b9
       0.024191277 -0.023532463 -0.009719285 -0.00017396899
000330 97 7f a1 bc 99 d4 e8 3b 81 c7 c1 ba b5 33 b6 39
       -0.01971416 0.0071054217 -0.0014784188 0.0003475227
000340 c7 b4 b7 bc f6 a5 37 bb 0c 44 00 3c 66 fd b5 ba
       -0.022425069 -0.0028022504 0.007828724 -0.0013884723
000350 31 df a7 3c 2b 14 8f bb e7 36 80 b9 ad c6 5c bb
       0.020492168 -0.004366418 -0.00024454968 -0.0033687756
000360 5a 80 36 3a ef e8 a9 bb 34 81 50 3c 7b 9c 9c ba
       0.0006961875 -0.0051852386 0.012726117 -0.001194849
000370 e2 7b 1c ba 83 43 63 bb 08 9c 1e bb 32 27 c5 3a
       -0.0005969388 -0.0034677691 -0.0024201889 0.0015041588
000380 f3 e1 87 bb 56 f1 24 3a be f5 82 bb c5 a8 88 bb
       -0.0041468083 0.00062920654 -0.00399658 -0.0041705095
000390 5c 2e a8 bb 59 e8 48 3b e1 a2 5d b9 30 1a 66 bc
       -0.0051324796 0.0030656068 -0.0002113688 -0.0140443295
0003a0 e7 78 da b8 76 96 4c b9 e8 39 17 3a 24 08 f0 3c
       -0.0001041757 -0.00019511007 0.00057688216 0.029300757
0003b0 02 bf 89 b9 ef c0 8b bc eb a1 94 ba 3a 5c 89 bc
       -0.00026272988 -0.017059771 -0.0011339759 -0.01676761
0003c0 42 0f 5c 3b 79 bd af ba ab dd dc b9 00 3b d3 bb
       0.003357843 -0.0013407908 -0.00042126825 -0.0064462423
0003d0 4f 92 0d bd 7a 58 d5 bb bc 42 c5 3b 2c 49 63 3b
       -0.03456336 -0.0065107914 0.0060199182 0.0034681065
0003e0 84 1b e1 bb bb e0 d7 3a ec 62 35 3c 0a 0f 78 3c
       -0.006869735 0.0016470173 0.011070948 0.015140304
0003f0 f1 cb 46 bb 3a 78 ec b9 6a 08 8c bb 5c 71 9e 3b
       -0.003033396 -0.00045103004 -0.004273464 0.004835291

action_model._continuous_distribution.mu.bias f4 [2]
000000 cc 7c 87 bc 5c 62 29 bc
       -0.016539 -0.010338392

critic.network_body.linear_encoder.seq_layers.0.weight f4 [128, 37]
000000 43 8a d8 3d 2e 28 d9 be ff 59 bc bd d9 6f 66 bc
       0.10573246 -0.42413467 -0.09196853 -0.0140647525
000010 9c 51 f6 bd 4f ec 91 be 3f 62 8f bd cf 26 14 be
       -0.120272845 -0.28500602 -0.07001161 -0.1446793
000020 ca e3 c8 3d 7b f5 0e be a2 d8 9b bd de 4f 32 3e
       0.09809072 -0.13960831 -0.07609679 0.1741328
000030 14 53 9a bd c5 84 b1 bd 74 5f 83 bd ba 8b a0 3e
       -0.07535377 -0.08667902 -0.064146906 0.31356603
000040 1e c8 02 bd fe bd 36 3d 50 53 21 3e f7 f6 8c 3e
       -0.031929128 0.044614784 0.15754437 0.2753217
000050 6d ff 2f be 07 83 02 3e 17 f7 fa 3d 62 f6 11 3e
       -0.17187281 0.12745295 0.1225416 0.14254144
000060 cb f6 6e 3d 3a 9d 62 bd cb 08 49 be 43 fe a0 be
       0.05834083 -0.055325724 -0.1963226 -0.31443986
000070 e8 40 87 3e cc 54 c4 3d ed ab 01 3d b2 e0 c5 bd
       0.26416707 0.09586486 0.0316581 -0.09661998
000080 8e d5 19 be fa 44 bf bd ae 00 8e 3d 91 0e 0a be
       -0.15022871 -0.09339328 0.069337234 -0.13482119
000090 29 c3 e8 bd dc 3d 4f be 88 60 e5 bd 18 b0 ce bc
       -0.11365349 -0.20238441 -0.112000525 -0.025230452
0000a0 46 73 76 be f5 59 95 3e f7 88 28 3e 5e 18 2b 3d
       -0.24067411 0.29170194 0.16458498 0.041771285
0000b0 65 95 56 3c de c6 59 be e2 ef 28 3d 19 43 00 3c
       0.013097142 -0.21267268 0.041244395 0.007828497
0000c0 1b 7a 8c 3e 9e 7f c9 bd 90 5e ba 3c 01 1d 5a 3c
       0.2743691 -0.09838794 0.022750169 0.013312579
0000d0 49 7d f9 bd 32 01 d9 3d 55 ca a5 be 0f ff 06 3e
       -0.12182099 0.10595931 -0.3238093 0.13183235
0000e0 7e 8a 0e 3e 1f 89 08 3e 15 c6 2a 3c 1a ae 99 3d
       0.13920018 0.13333558 0.010423203 0.0750391
0000f0 ff ab 55 3e d3 ea 78 3d d7 a1 6e 3d c3 63 cd 3e
       0.20866393 0.06077082 0.05825981 0.40115175
000100 9d 37 7f be 88 43 ef 3e a9 ad 4f bd 65 d0 c9 3d
       -0.24923559 0.4673121 -0.050702725 0.09854201
000110 27 d4 08 3d d1 d7 ac bd 0b a4 c8 bd f3 3a 78 3d
       0.03340545 -0.08439601 -0.09796914 0.060603093
000120 02 5e 3a be 7b 0e 30 be 35 01 89 3e 70 b3 a7 3e
       -0.18199924 -0.17193024 0.26758733 0.32754087
000130 dd 8f 45 be 14 b8 07 3e 3b f7 6e bc 1f 21 3f be
       -0.1929316 0.13253814 -0.0145853115 -0.18664978
000140 f5 1e e4 be 4c a1 be 3d e1 ad 9a 3c 69 3d b8 be
       -0.44554868 0.09308109 0.01888174 -0.35984352
000150 0d d6 22 3c 83 66 18 3e 66 fb b1 3c 5f 19 14 3e
       0.009938729 0.14882855 0.021726321 0.14462803
000160 50 19 55 be 19 ef 27 3e 36 39 54 3e 64 5a 18 3e
       -0.20810437 0.16399802 0.20724949 0.14878231
000170 23 c2 56 3e c0 11 5b be 31 a5 0c 3e 07 cf 1d bd
       0.20972495 -0.2139349 0.1373489 -0.038527515
000180 31 29 4f bd d8 42 2d be 9e bf 43 3e ca 0f 8b be
       -0.050576393 -0.1692003 0.19116065 -0.27160484
000190 f9 f6 75 bd 10 13 79 3e f7 54 c6 3c aa 01 62 3c
       -0.060049985 0.24323678 0.024210436 0.013794342
0001a0 0d c8 ea 3d 5d ac 1a bd 5d 4a 07 be 44 39 f8 bd
       0.11463938 -0.037762035 -0.13211961 -0.121202976
0001b0 7e e2 7d 3d eb b9 f5 bd 66 b4 59 3c e6 00 18 bd
       0.061983578 -0.11998352 0.013287639 -0.03711023
0001c0 7c bd 52 be e3 5e 62 bd a6 d2 ae 39 7d e4 a5 bd
       -0.20580095 -0.055266272 0.00033344812 -0.08100221
0001d0 fd f6 81 be 2c 8e 61 3e fe 0b 1b bd dd 54 b0 3d
       -0.2538375 0.2202689 -0.037853234 0.086099364
0001e0 da 82 3e be 3a 14 af bd 07 56 fc bd 56 88 0b 3e
       -0.18604603 -0.0854878 -0.12321096 0.13626227
0001f0 71 ae 7c 3c dd 66 88 3e 22 aa 61 be 2e 22 07 bd
       0.015422449 0.26640978 -0.22037557 -0.03299158
000200 2e 37 8e 3d ad a0 3f 3e f5 3a ab 3e 48 8f 6e be
       0.069441184 0.18713637 0.33443418 -0.23296845
000210 a9 aa 92 3c 02 cb a2 bc 05 f9 00 be 32 5c 3e 3d
       0.017903643 -0.019872192 -0.12594993 0.046474643
000220 3e fd 8e 3c 31 8f 03 3e 6a f6 2f 3e 0c 2c 84 bd
       0.01745474 0.12847592 0.17183843 -0.06453714
000230 db 32 da bc 16 5c 8a bd 6f 63 b2 3c 91 14 26 3e
       -0.026635578 -0.06755845 0.02177593 0.16218783
000240 ee e1 60 be 83 7c 71 be 6f 53 c6 bc ac 52 0e be
       -0.21961185 -0.23582654 -0.024209706 -0.13898724
000250 01 3e 22 bd a5 d1 64 3e 5d 84 50 bd 36 5f 96 bd
       -0.039609913 0.22345598 -0.05090748 -0.07342379
000260 2f 5e fc 3d 6d 31 59 3d ee 95 a5 bd 7d c2 6d bc
       0.123226516 0.05302565 -0.080852374 -0.014511702
000270 e7 fa 50 3e c6 1a 79 bd cc 44 a0 be ac 05 04 3c
       0.20408212 -0.06081655 -0.31302488 0.008057993
000280 de 54 62 bd 39 14 1d 3e ff f1 b2 be 2f 00 9f bd
       -0.055256717 0.15339746 -0.34950253 -0.07763707
000290 81 88 f6 bd f2 c9 cb bd 77 cc 52 be 0a e1 be be
       -0.12037755 -0.099506274 -0.2058581 -0.37281066
0002a0 42 f5 cc 3d 7f c4 37 bc 55 fd d8 bb 4a 74 cd bc
       0.10007717 -0.011216282 -0.0066219964 -0.025079865
0002b0 46 30 01 be 46 34 45 3d 59 e6 64 be a0 c3 17 3d
       -0.12616071 0.048145555 -0.22353496 0.037051797
0002c0 38 88 5b bb b2 9b b7 3e 8b 99 db 3d e0 d4 55 3d
       -0.003349794 0.35860974 0.10722645 0.052204967
0002d0 ca b2 94 3d 45 9b 0d 3e fe e3 3a 3e c6 f3 21 3d
       0.07260664 0.13828762 0.18251035 0.03953912
0002e0 4c c1 75 bd 62 a0 7a ba 84 2b fa 3c e5 56 75 bd
       -0.059998795 -0.0009560642 0.030538328 -0.059897322
0002f0 ce fc 21 3d e0 8c b0 be 1e 26 9b be e0 b2 15 3d
       0.039547734 -0.3448248 -0.3030252 0.03654754
000300 7d 47 55 3e 3c cc b1 3d a9 8f d8 3a 96 4f 8e 3e
       0.20828052 0.08681533 0.0016522306 0.27795094
000310 d4 84 3a 3e 99 13 f9 3b 26 66 58 bd 57 88 8e be
       0.18214732 0.007601213 -0.05283179 -0.27838394
000320 6d 43 b0 be e4 d4 9c 3d 02 67 3b bd dc d6 97 3c
       -0.34426442 0.07657793 -0.045752533 0.01853507
000330 04 03 f6 bb 28 94 75 bd 32 e7 80 bd db 2f 15 be
       -0.0075076837 -0.059955746 -0.06294097 -0.14569037
000340 da 7b 9a bd 72 40 34 3e 06 17 1b 3e fb eb b0 3d
       -0.07543154 0.17602709 0.15145501 0.0863876
000350 43 0f 1d bd da 40 69 be 98 c3 99 3d 3b 51 33 3e
       -0.038344633 -0.22778645 0.0750801 0.17511456
000360 10 00 7d be 13 97 2c bd ab a5 1c be 57 7b 8a 3e
       -0.24707055 -0.042136263 -0.15297572 0.27047226
000370 6f 3e c2 3d 9f e3 80 3d eb 39 55 3c cc b7 74 3b
       0.094845645 0.06293415 0.013014297 0.0037340997
000380 89 f1 da 3c 83 bd 8b be f8 e0 86 3c 7f bd b3 bc
       0.026726501 -0.27293023 0.016464695 -0.021940945
000390 89 24 e1 3d ad 1c c0 3d 78 1e 09 3d a9 54 38 3e
       0.10993297 0.093804695 0.033476323 0.18001045
0003a0 94 38 37 be 7c e8 a4 3e 0b 27 0d 3d 61 da 2e 3e
       -0.17892677 0.32208622 0.034461062 0.17075492
0003b0 c4 3a 35 3e 76 3f 27 be e6 8e 9e 3d 6d c0 8c 3d
       0.17698199 -0.16332802 0.077420995 0.0687264
0003c0 2a de e4 be e2 57 57 be 47 e5 91 be e5 f7 a8 3d
       -0.44700748 -0.21029618 -0.28495237 0.08250407
0003d0 0e 57 94 3e 2c 5c 5b 3e 90 6c 2b 3e 92 4c 0f 3d
       0.28972667 0.2142188 0.16740632 0.034985133
0003e0 73 bf bb be 4f f1 97 3a 29 70 98 3e 7f af 17 3e
       -0.36669502 0.0011592301 0.2977307 0.1481304
0003f0 27 d8 76 3e fa 7c 44 3e 85 f5 af 3d 01 fd 87 3c
       0.24105893 0.191883 0.08591751 0.016600134

critic.network_body.linear_encoder.seq_layers.0.bias f4 [128]
000000 1d db e9 3b d3 e2 9f bc 56 8f 05 bc e8 70 0c 3b
       0.007136716 -0.019517338 -0.00815185 0.0021429602
000010 d2 06 66 bb 45 6a 5c 3c 43 4d 8f ba a8 9a 5d 3b
       -0.003509928 0.013453071 -0.001093306 0.0033814106
000020 33 67 9c ba ef 60 13 bb 86 58 60 bc 6f 82 80 3c
       -0.0011932611 -0.0022488197 -0.013692981 0.015687196
000030 bd 80 27 bb 42 75 c7 39 4b e3 dd ba 04 0f e0 3a
       -0.0025558912 0.00038043602 -0.00169287 0.0017094319
000040 3d 4f 8e 39 38 23 07 bc 25 8b a2 38 7d 27 7d bb
       0.00027143388 -0.008248143 7.75068e-05 -0.0038628273
000050 78 a1 9d 3a 1d fc 50 bb b8 25 a5 bc b9 f0 25 3b
       0.0012026271 -0.0031888552 -0.020159587 0.0025320484
000060 6f e7 01 bc ef bd b1 ba 44 40 f2 bb 78 bc e9 b9
       -0.007928713 -0.0013560633 -0.007392915 -0.00044581643
000070 1f 88 d0 bb aa 76 02 3b 33 db 5f 3b 44 86 ea ba
       -0.006363883 0.0019907155 0.0034157753 -0.0017892797
000080 43 a7 89 3b e1 6a ef 3a a1 2f f9 bb 9f d6 93 b9
       0.0042008474 0.0018266105 -0.0076045548 -0.0002819793
000090 e1 7d 63 3b d1 8f e8 3b f9 29 13 3c 7c d0 5e bc
       0.003471248 0.0070972224 0.008982175 -0.013599511
0000a0 99 c0 1b bc 9b d7 2f 3a fb aa f6 ba f2 95 db bb
       -0.009506368 0.0006707848 -0.0018819267 -0.0067012245
0000b0 15 2f 03 bb 33 d5 3c 3a 81 00 57 bb 9b 7c c1 ba
       -0.0020017077 0.00072034 -0.0032806697 -0.0014761867
0000c0 99 2a 0b 3c 11 d6 29 3a 31 e2 69 39 9b 0b b6 3a
       0.008494043 0.0006478737 0.00022304874 0.0013888957
0000d0 9b 1b 6a bc 18 70 ed 3b f5 14 9c 3a d8 9b e0 bc
       -0.014288808 0.0072460286 0.0011908101 -0.027418062
0000e0 dc 5d b1 bb 91 69 3b 3b c9 9c c4 39 8b e8 32 bb
       -0.0054128002 0.0028596858 0.00037500847 -0.002729925
0000f0 a7 0b a7 3b fd c4 1a bb a0 b4 e6 ba 33 54 36 bb
       0.0050978246 -0.002361595 -0.0017601438 -0.0027821183
000100 f0 61 fe ba f6 a1 18 bb 9b 5b e7 bb 2f 26 8c 3a
       -0.001940785 -0.0023289896 -0.007060481 0.0010692532
000110 b2 2d e1 3b 57 02 bb bb d9 9c 22 bc 90 96 a6 bb
       0.0068719024 -0.005707066 -0.009925091 -0.0050838664
000120 47 fd b1 3b 96 c6 8c bb 13 55 d8 39 f9 fa c6 ba
       0.0054318043 -0.004296134 0.00041262116 -0.0015180997
000130 52 1c b2 ba 64 3a 4d bb 22 34 43 bc 97 78 93 bb
       -0.0013588762 -0.003131532 -0.011914285 -0.0045004594
000140 7f ad c5 3b be b2 68 3a 22 65 e2 ba 65 51 9d 3a
       0.0060326452 0.00088767323 -0.0017272572 0.0012002407
000150 dd 61 cf 3b 73 e8 f3 38 ae 4f e0 b9 10 93 16 3b
       0.006328805 0.0001163044 -0.00042783975 0.002297584
000160 48 e5 79 3a 24 60 c7 ba b5 eb fb ba ca 15 b1 bb
       0.0009532762 -0.0015211147 -0.0019220026 -0.005404209
000170 0c 05 75 bc 6e ba c7 3a b5 54 83 bc 6a 47 d8 bb
       -0.014954817 0.0015238055 -0.016031602 -0.00660031
000180 7f 03 7e bb d5 94 5e bb 9e 9a 2a ba 5b 53 cc bb
       -0.0038759408 -0.0033963223 -0.0006508025 -0.0062355227
000190 f1 be e1 38 f1 b9 2b bc 97 b2 2c bc 51 21 f6 ba
       0.00010764402 -0.010481344 -0.010540626 -0.001877824
0001a0 df c6 d9 bb 33 f8 77 bb 6c e4 51 3b c6 1e 4a bb
       -0.0066460217 -0.0037837147 0.003202702 -0.0030841096
0001b0 19 0a 8a bb 79 59 7e bb 64 2b f4 b9 0c bf bd 39
       -0.0042126295 -0.0038810654 -0.00046571635 0.0003619123
0001c0 78 34 07 bb 97 ba 03 bb 01 ef 3f bb 6a d7 c9 3b
       -0.002063064 -0.002010023 -0.0029286745 0.0061597126
0001d0 73 3f 37 bb a8 31 36 ba 33 10 65 bb dc d6 93 ba
       -0.0027961403 -0.00069501484 -0.0034952282 -0.0011279243
0001e0 cf 42 d6 bb dd c2 0b 3a f6 9b f8 3a 38 ef dc bc
       -0.006538726 0.0005331466 0.0018967378 -0.026969537
0001f0 83 bd da ba 3c 2e dd ba f6 b8 d7 ba 0e 97 24 bc
       -0.0016688559 -0.0016874741 -0.0016458321 -0.01004578

critic.network_body.linear_encoder.seq_layers.2.weight f4 [128, 128]
000000 f2 0a a6 bb 89 59 26 be 43 1c b6 3c f1 19 6a 3d
       -0.0050672228 -0.16245092 0.022230273 0.057153646
000010 20 57 c4 3d 04 8c 3d 3c dc 8a b7 3d 8a ce 06 3d
       0.0958693 0.011569027 0.08962032 0.032911815
000020 b5 64 2b bd 54 83 37 bd 1e a1 75 3e 22 e4 c9 3b
       -0.04184409 -0.04480298 0.23987243 0.0061612288
000030 00 39 ab bd a0 85 8b bc 71 e4 7d bc 6f 7e ee bc
       -0.08360481 -0.01703149 -0.015496359 -0.029113023
000040 b3 ad 18 3e dd d9 9b 3d 47 73 3c 3d 4b 4d b1 3d
       0.14910011 0.076099135 0.046008375 0.086573206
000050 11 b8 a2 39 9a 2e 4b 3d 3b 64 58 bd db 8e 40 bd
       0.00031036188 0.04960499 -0.052829962 -0.047011238
000060 24 2b 4b 3a 2f dc a9 3d 48 85 23 be 68 bd b9 bd
       0.0007750264 0.0829395 -0.15968812 -0.090693295
000070 57 1e 77 bd 50 fe 7b bb a4 f7 7b bd 3f 5e 65 3e
       -0.06033167 -0.0038451143 -0.061515465 0.22399233
000080 cc 53 91 bd a8 42 8e 3d 48 72 b9 bd 73 95 f0 bd
       -0.07096061 0.069463074 -0.090550005 -0.11747255
000090 cb ef 88 bb 61 55 ab bd b4 30 d8 3c 43 32 10 be
       -0.004178976 -0.08365894 0.026390411 -0.14081673
0000a0 5e bd c0 3d 1b f7 cb 3c 55 69 1a bd 6c a2 0a be
       0.09411119 0.024898103 -0.03769811 -0.13538522
0000b0 88 12 44 3d bc 98 f7 bd f9 4e 89 3d 35 cd 6c bd
       0.047869235 -0.12089679 0.06704516 -0.05781289
0000c0 f7 5f 0a 3d 3f 3e c3 3d 7c c5 74 3d 62 68 38 bd
       0.033782925 0.09533357 0.05975865 -0.045021422
0000d0 48 72 95 bc 80 ad 31 bd 1b a1 be bc 6f 10 87 bc
       -0.01824297 -0.043378353 -0.02327018 -0.016487328
0000e0 91 88 2d 3d b2 ed e8 bd 2b f8 6f 3b 5b ad d6 bc
       0.042366568 -0.11373462 0.0036616425 -0.02620571
0000f0 e8 08 00 3e b1 68 b3 bd 76 57 03 bd 6c 5c 26 3d
       0.12503397 -0.08760203 -0.03206583 0.040615484
000100 9d b3 8d 3d 08 6e 0d be 9e 7a 0d be b6 ca af 3d
       0.06919024 -0.13811505 -0.13816306 0.08583586
000110 0a 73 ca 3c af 10 4e be 85 d2 d0 bd 0f 43 44 bc
       0.024713058 -0.20123552 -0.101964034 -0.011978879
000120 05 d3 1e 3d f2 f8 d3 bd 51 90 80 3d 33 4a 84 3d
       0.038775463 -0.10350217 0.06277526 0.06459465
000130 5e 57 49 bd 9d 4a a6 3b 96 72 80 3d ab a7 12 be
       -0.049155585 0.0050748126 0.062718555 -0.14321773
000140 6a fc 09 3e 15 82 3a 3e d9 be 2a be 3b 59 37 bb
       0.13475195 0.18213685 -0.16674365 -0.002797677
000150 a6 0a 08 3d ed 7a b3 3d eb 7a df 3d fc 49 94 3d
       0.03321328 0.087636806 0.109121166 0.07240674
000160 b9 74 17 3e e4 7a b9 3d 96 a4 28 be 45 fd c6 bd
       0.1479062 0.09056643 -0.16469035 -0.09716276
000170 05 1f 95 3d c1 14 23 be db a1 0f bc 28 ae 34 3d
       0.07281307 -0.15925886 -0.008766617 0.0441114
000180 50 bd c6 bd 60 2a cf bc d2 9f 5a be 2e b4 3c 3d
       -0.09704077 -0.02528876 -0.21350029 0.04607027
000190 53 f4 9e bc 99 bd b4 bc 64 5f 97 3d 12 0b 52 3d
       -0.019403612 -0.022063063 0.07391241 0.05128009
0001a0 b8 66 6b 3d f7 f9 8e be c6 c3 5c 3d 4c a9 24 3c
       0.057471007 -0.27925083 0.05389764 0.010050129
0001b0 af 7f b6 3c 6a aa 07 be a1 76 49 be 6a 4d fa bd
       0.022277681 -0.13248602 -0.1967416 -0.12221797
0001c0 95 65 a5 3d 93 ce 2e be fb ed a5 3d 06 ee 0d 3c
       0.08076016 -0.1707099 0.08102032 0.008662706
0001d0 9b 18 11 bd d9 63 dc bd 08 65 1e be 55 3c 33 3e
       -0.035423856 -0.10761232 -0.15468228 0.17503484
0001e0 74 d3 61 bd f5 ac dc bd 31 01 af bd 03 c9 d5 bd
       -0.055133298 -0.107751764 -0.08545149 -0.104387306
0001f0 40 59 a4 3b cb e2 7d 39 40 a3 46 3d fd d9 1b 3d
       0.0050155222 0.00024212447 0.04849553 0.038049687
000200 fd 5b b0 bd f3 79 6a bc 8b 52 ca bd 3b 3a 59 3e
       -0.08611295 -0.0143113015 -0.09879025 0.2121362
000210 28 07 a7 bc aa d5 0a be b6 b2 40 be 5d 2a c1 bd
       -0.020389155 -0.13558069 -0.18818173 -0.09431908
000220 59 89 d0 3d 1f 7e 18 3e 6a 57 8a 3b af dc 2a bd
       0.10182447 0.14891861 0.0042218463 -0.041714367
000230 31 fb b3 3b a0 e5 ce 3c a6 e4 ee 3c 9e 3e 4e 3c
       0.005492591 0.025255978 0.029161762 0.012588171
000240 d4 ab 4e 3c 33 9d c7 bc 74 14 5d 3d 70 60 b4 3d
       0.012614209 -0.02436695 0.053974584 0.088074565
000250 c9 01 c7 bd e6 4a b0 bb 0d 81 47 3d d6 6d fa 3d
       -0.09717137 -0.0053800223 0.048707057 0.12227981
000260 ac 3f 03 be ed 5e 30 bd 4a 79 8e 3d 95 30 c0 bb
       -0.12817258 -0.04305928 0.06956728 -0.0058651664
000270 79 ff 55 3d 64 e4 ac bc 55 27 38 3d c8 5f 54 be
       0.05224559 -0.021104999 0.044959385 -0.20739663
000280 4e 85 6a 3d 2b a8 0e bd dd 5e d9 3c e8 a0 85 bc
       0.057256036 -0.034828346 0.026534492 -0.016312078
000290 a1 65 cc 3c a5 72 e3 bd e2 cd 33 bc 84 ca be 3d
       0.024950804 -0.11105851 -0.010974379 0.093159705
0002a0 03 3e 81 3d 22 a8 dd 3d fa 56 07 be 7c 01 9e bd
       0.06310656 0.108230844 -0.13216773 -0.07715127
0002b0 dd 27 09 be fd eb 88 3c 2b db 31 3e 10 bc 6a bd
       -0.13394113 0.01671409 0.17368762 -0.057308257
0002c0 9f 72 f9 bd fa 5a 9d bc 4c e1 af 3c 89 4c a0 3d
       -0.12180065 -0.01920842 0.021469735 0.07827098
0002d0 85 26 e6 bd c9 3d 9e 3d 3b ba eb 3c b4 13 40 bb
       -0.11237816 0.07726628 0.028775325 -0.002930862
0002e0 c9 57 c4 b9 73 c9 11 be f3 eb 9e 3d b3 70 7f bd
       -0.00037449438 -0.14237003 0.077598475 -0.062363338
0002f0 2d f6 8e 3c 80 75 00 3e af d7 a7 3d 3c 1d bf bc
       0.01745137 0.12544823 0.08195435 -0.02332937
000300 50 b2 73 bd 33 d7 96 bd d0 39 ae bc ad 63 04 3c
       -0.059496224 -0.07365265 -0.021267802 0.008080405
000310 f2 51 f4 bb e6 b6 f5 3d 91 75 dc 3c 57 4e 8c 3d
       -0.0074560577 0.11997776 0.026911529 0.0685088
000320 b4 0a 3d 3d f0 94 59 3e 32 b3 c0 bc 86 64 a6 bd
       0.046152785 0.21248221 -0.023522947 -0.08124642
000330 be 1d 2b 3c 46 f5 50 bd ae 74 0d be ba 10 fe 3d
       0.010444103 -0.05101516 -0.13814041 0.12405534
000340 f0 04 02 3e e2 63 ba bd 8d 2d b4 bb 72 fc 73 3d
       0.12697196 -0.091010824 -0.005498594 0.059566922
000350 80 6d 1c 3d fa 96 f4 bd 84 ef 32 be ca 7a aa bd
       0.038190365 -0.11942859 -0.1747418 -0.083242014
000360 83 25 85 bc 32 0b 06 be 80 12 e3 bd 4f 18 8d bc
       -0.016253239 -0.13090208 -0.11087513 -0.017223505
000370 9d 2d 03 be a3 28 84 3b b7 b9 15 3e f5 90 e0 3d
       -0.12810369 0.0040331646 0.14621626 0.10965148
000380 79 b4 0e bd 18 e4 9a 3b 6a e6 90 bd 34 fa 43 3d
       -0.03484008 0.004726898 -0.07075198 0.047846034
000390 9a 4f d1 3d 5b bd d0 bc f8 83 19 bd cf b6 e0 bc
       0.10220261 -0.025480917 -0.03747937 -0.02743092
0003a0 25 c4 8e 3c 06 ab 1e bd 5d fe 94 bd a5 64 44 bd
       0.017427513 -0.03873732 -0.072750784 -0.047947545
0003b0 59 34 e7 bd 93 fb b9 bd 94 07 09 3c 50 07 b7 3d
       -0.112892814 -0.09081187 0.008363623 0.089369416
0003c0 14 91 bb 3c 68 cb 18 3d eb 25 5a bd 5a 52 92 3d
       0.022896327 0.03730336 -0.053258818 0.071446136
0003d0 ed a0 83 3c f1 42 c8 bd a3 96 a0 3d 37 35 ab 3c
       0.016067946 -0.09778393 0.07841232 0.020899398
0003e0 fb 0c 05 be 99 87 cd 3d ee 9e 09 bd 55 5b 6c bd
       -0.12993233 0.10035629 -0.033598833 -0.05770429
0003f0 15 a3 7d bd ca eb e9 3b 40 80 76 3e e4 1a e8 3d
       -0.061923105 0.007138704 0.24072361 0.11333254
