results/conTrain1/DriveAroundTrack/DriveAroundTrack-18432.onnx (onnx, 88766 bytes, 7 tensors)

action_model._continuous_distribution.log_sigma f4 [1, 2]
0	0x3d10feca	0.035399236
1	0x3bb9d3a3	0.005670981

action_model._continuous_distribution.mu.bias f4 [2]
0	0xbc867e01	-0.016417505
1	0xbc2c1e48	-0.0105052665

action_model._continuous_distribution.mu.weight f4 [2, 128]
0	0x3b3b8240	0.002861157
1	0x3c9553b4	0.01822839
2	0x3c4fe344	0.012688462
3	0x3cba3bdc	0.022733621
4	0xba827800	-0.0009953976
5	0xbbcd740f	-0.006269939
6	0xbcb6ff9f	-0.022338687
7	0x3cace672	0.021105979
8	0x3ce8a873	0.028400635
9	0x39120d09	0.00013928501
10	0x3cc2c9c6	0.023777854
11	0x3d170ca2	0.036877282
12	0x3ce895cd	0.028391743
13	0xbaefd27a	-0.001829698
14	0x3d03041e	0.03198635
15	0xbced4913	-0.028965509
16	0x3af9230a	0.0019007635
17	0x3ca6a519	0.020342397
18	0xbc01b265	-0.007916068
19	0x3ca9875e	0.02069443
20	0x3aaa2d96	0.0012983556
21	0x3c87e3ec	0.016588174
22	0x38b9bdbf	8.8568304e-05
23	0x3c0d6a81	0.00863135
24	0x3b3b0f4a	0.0028543049
25	0x3ce32060	0.027725399
26	0x3acd6bd8	0.0015672399
27	0x3b0dde62	0.0021647443
28	0x3b70b61d	0.0036729642
29	0x3b11b026	0.0022230237
30	0xbc1391bd	-0.009006915
31	0x3a9fb9cb	0.0012186108
32	0x3b9351a0	0.0044958144
33	0xbbc6b3e4	-0.006063925
34	0xba7a2162	-0.00095417176
35	0xbc682ea0	-0.0141712725
36	0xbd00d20d	-0.03145032
37	0xbaac9d34	-0.0013169409
38	0xba5626cd	-0.0008169234
39	0x3c0eb2e2	0.008709641
40	0xbc8dd14c	-0.017311715
41	0x3d196635	0.037450988
42	0x3ad14ea1	0.0015968868
43	0xbc270546	-0.010194128
44	0x3ccd211b	0.0250402
45	0xbb676fcd	-0.0035314441
46	0xbca17d0d	-0.01971295
47	0xbb91274b	-0.004429733
48	0xba4b49e7	-0.0007754848
49	0x3cf1582d	0.02946099
50	0x3c179753	0.009252387
51	0xb92a19ba	-0.00016222047
52	0x3ca19b5f	0.019727407
53	0xbcdc8c7c	-0.026922457
54	0xb9324fa3	-0.0001700507
55	0xbaaa644d	-0.0012999863
56	0xbb636ae7	-0.003470117
57	0x3cb2d7e3	0.021831458
58	0x3d3021a8	0.043000847
59	0xbae7ec0e	-0.0017694251
60	0x3b91d9a6	0.0044509945
61	0x3d1184ce	0.035527043
62	0x3ccbe7e7	0.024890853
63	0xbb3b34b7	-0.0028565356
64	0x3c5e7425	0.013577496
65	0x3c7a7a4c	0.015287947
66	0x3c6ebafb	0.014570947
67	0x3d3ec0b3	0.04657049
68	0xbb8edd14	-0.0043598507
69	0xbd6170de	-0.05503928
70	0xbbb76605	-0.0055968785
71	0xbb7f938c	-0.0038997857
72	0x3bcd0fb5	0.006257976
73	0xbcd55b83	-0.026044613
74	0x3c0d8da4	0.008639727
75	0xb99c1311	-0.00029768844
76	0xbc349b2f	-0.011023327
77	0x3c3b05e7	0.011414981
78	0xbc1b91b8	-0.009495191
79	0xba156812	-0.00056994066
80	0xbccb4722	-0.024814192
81	0x3bc7c158	0.0060960464
82	0x3cf7a0e7	0.030228091
83	0xbcbaf79d	-0.02282315
84	0x3c42093f	0.011843025
85	0x3aa89642	0.0012862163
86	0xb9838afa	-0.00025089813
87	0xbad8e3d4	-0.001654739
88	0x3a9376d6	0.0011250626
89	0xbcb4e394	-0.022081174
90	0x3d7f1266	0.062273405
91	0x3a3ca72a	0.000719654
92	0xba3a89f3	-0.0007115893
93	0x3b799b9c	0.0038087135
94	0xbc8376b9	-0.016047822
95	0xbbfab080	-0.007650435
96	0x3a716c1d	0.00092095305
97	0x3a928200	0.0011177659
98	0xbd07c19d	-0.03314363
99	0x3afb66ad	0.001918038
100	0x3b90e80a	0.0044221925
101	0xbca32353	-0.019914305
102	0xbb4dfbfa	-0.0031430707
103	0xbcbd6b0a	-0.02312233
104	0xbb206d06	-0.0024479046
105	0x3789388c	1.6358004e-05
106	0xbb6651d1	-0.0035143981
107	0x3d2d8c23	0.042369973
108	0xbbb18d25	-0.005418437
109	0xbc7f4e33	-0.015582609
110	0x3b27ba89	0.0025593361
111	0x3cac9c57	0.021070642
112	0xbc08308e	-0.008312358
113	0x3a89dd5d	0.0010518242
114	0xb86ae73c	-5.60053e-05
115	0x3ca2aebd	0.019858712
116	0xbd047b81	-0.032344345
117	0x3b94f50b	0.004545813
118	0xbad6c30a	-0.001638503
119	0xbc707525	-0.014676367
120	0xbc9e8bb5	-0.019353727
121	0xbb1f39e0	-0.002429597
122	0xbcd69c9e	-0.026197728
123	0x3c93120a	0.017952938
124	0x3b5d8fa4	0.003380754
125	0xbaff6599	-0.0019485235
126	0xb9c761a3	-0.00038028983
127	0xbb2f6387	-0.0026762204
128	0xbb4cf696	-0.0031274906
129	0xbc9e90be	-0.019356128
130	0xba19d948	-0.0005868864
131	0x3cabd27a	0.020974386
132	0xba8f0ac9	-0.0010913248
133	0x3b234c7b	0.0024917412
134	0xbc94ac0d	-0.018148446
135	0x3ca942da	0.02066176
136	0x3af7d128	0.0018906938
137	0x3a801920	0.0009773113
138	0xbb9af02b	-0.0047283373
139	0xbc25e515	-0.010125418
140	0xbb0d2839	-0.0021538867
141	0xbb525c42	-0.0032098447
142	0x3c3a8183	0.011383417
143	0xbc9c9d24	-0.0191179
144	0xbb808f64	-0.0039233435
145	0x3c869c64	0.016431995
146	0xb896c458	-7.189129e-05
147	0x3d009e5d	0.031401027
148	0xb9a938be	-0.00032276468
149	0x3ce2e543	0.027697211
150	0x3ac3dc2d	0.0014942937
151	0xbbef78e4	-0.0073081125
152	0xba1a81c5	-0.0005893971
153	0x3c5dd92a	0.0135405455
154	0x3abad157	0.0014253062
155	0xbbc12c45	-0.00589517
156	0xbba11769	-0.004916121
157	0x3b6afb42	0.0035855328
158	0xbb86c5bc	-0.0041129272
159	0x3ad2bb93	0.001607763
160	0xbb0d9889	-0.002160581
161	0x3bc9e7d3	0.006161669
162	0xbb8f3831	-0.004370712
163	0xbb75a6f2	-0.003748354
164	0xbcbb43fa	-0.022859562
165	0x3a60f39c	0.00085812225
166	0x3b05bb19	0.0020405708
167	0xbc081e60	-0.008308023
168	0x3b39aa9c	0.002833045
169	0x3c96a54b	0.018389365
170	0xb72e7425	-1.039825e-05
171	0xba96507b	-0.0011468077
172	0x3c91503b	0.017738452
173	0x3b5b583b	0.0033469338
174	0x3bca8bb2	0.0061812038
175	0x3bc22827	0.0059251967
176	0xbaf4f971	-0.0018690062
177	0x3cc9f83f	0.024654506
178	0x3aba367d	0.0014206913
179	0x3a2b066a	0.0006524088
180	0x3d0c50df	0.034256812
181	0x3a30bf9c	0.0006742419
182	0xbafaf69b	-0.001914698
183	0x39eef557	0.0004557769
184	0x3b3db527	0.0028947087
185	0xbac23af6	-0.0014818597
186	0x3ca4647d	0.020067448
187	0x3a282e93	0.00064156315
188	0xbae9aa4f	-0.0017827245
189	0xbbfdcd71	-0.007745438
190	0x3cb672c8	0.022271529
191	0x3b1fbf6c	0.002437557
192	0x3b54f8a6	0.0032496839
193	0xbba36dcb	-0.0049874536
194	0x3b24fddb	0.0025175724
195	0x3cbb0cd7	0.022833271
196	0x3c289663	0.010289761
197	0xbc1818af	-0.009283229
198	0x3b5928a5	0.0033135798
199	0xbb20c73a	-0.002453281
200	0x3cc665c8	0.024218455
201	0xbcbea40a	-0.02327158
202	0xbc21af88	-0.00986851
203	0xb8bfed79	-9.1518225e-05
204	0xbc9eed94	-0.019400395
205	0x3be9d426	0.007135886
206	0xbaa8dbed	-0.0012882926
207	0x3987cb26	0.00025900564
208	0xbcb62321	-0.022233548
209	0xbb4171b5	-0.0029517238
210	0x3c01d6d0	0.00792475
211	0xbab9d0fe	-0.0014176664
212	0x3ca7a4b2	0.020464275
213	0xbb8efe5b	-0.0043638176
214	0xb98e61eb	-0.00027157305
215	0xbb610653	-0.0034336045
216	0x3a107be1	0.00055116235
217	0xbba2950a	-0.0049616145
218	0x3c504ea5	0.012714063
219	0xba9d8833	-0.001201874
220	0xba4b304f	-0.0007751034
221	0xbb6247ae	-0.0034527588
222	0xbb0fc586	-0.0021937802
223	0x3aec4300	0.0018025339
224	0xbb8729c3	-0.0041248514
225	0x3a24edde	0.00062915485
226	0xbb70cb7a	-0.0036742375
227	0xbb85cfbb	-0.0040836013
228	0xbbabbc01	-0.0052409177
229	0x3b4c48f9	0.0031171425
230	0xb920f58b	-0.00015350261
231	0xbc62fcb7	-0.013854197
232	0xb7c520aa	-2.349944e-05
233	0xb91800d8	-0.00014496164
234	0x3a3e3b9d	0.0007256808
235	0x3cf13ed8	0.029448912
236	0x389cdc28	7.479667e-05
237	0xbc89c0ab	-0.016815504
238	0xba82d22d	-0.000998085
239	0xbc8ae00e	-0.01695254
240	0x3b6e3cfe	0.0036352272
241	0xbab72b41	-0.0013974683
242	0xb9df3e80	-0.0004258044
243	0xbbd4d9c8	-0.006495688
244	0xbd0cde68	-0.03439179
245	0xbbd2bd36	-0.006431247
246	0x3bca52af	0.0061744074
247	0x3b6fd978	0.0036598127
248	0xbbd61ea5	-0.006534415
249	0x3af6710a	0.0018801999
250	0x3c3a0ad1	0.011355118
251	0x3c75e8fc	0.015009161
252	0xbb577524	-0.0032876218
253	0xb9fa6bf3	-0.00047764144
254	0xbb8e4930	-0.0043422207
255	0x3b9ad367	0.004724908

network_body.linear_encoder.seq_layers.0.bias f4 [128]
0	0x3b2e666e	0.0026611346
1	0xbc28e199	-0.010307693
2	0xbc548087	-0.012970096
3	0x3ccca427	0.024980618
4	0x3b89e569	0.004208256
5	0x3b8f6545	0.004376086
6	0xba222735	-0.0006185652
7	0xbcf69f00	-0.030105114
8	0xbc10dbb0	-0.00884144
9	0x3a528fd6	0.00080322975
10	0x3bd75199	0.0065710065
11	0x3c70ec56	0.014704784
12	0x3c4e68fc	0.012598272
13	0xbd0e13de	-0.034686916
14	0x3c337d97	0.010955236
15	0xbd8478f0	-0.064683795
16	0x3bd5aa50	0.006520547
17	0x3ceef7e1	0.029170932
18	0xbd00eea9	-0.031477604
19	0xbc8fad04	-0.017538555
20	0xbc5807ff	-0.0131855
21	0x3c8c2c87	0.017111076
22	0xbcd60c9f	-0.026129065
23	0xbc132a9c	-0.008982327
24	0xbaef986e	-0.001827968
25	0x3c50b69f	0.012738853
26	0xbb55cecb	-0.003262448
27	0xbc2fb83f	-0.01072508
28	0x3ceba31a	0.028764296
29	0x39b64b88	0.0003477002
30	0x3a1f65e0	0.0006080549
31	0xbcb4ca3b	-0.022069087
32	0x3cb1596e	0.021649089
33	0x3bf39b22	0.0074342648
34	0xbc9f70f0	-0.019463032
35	0xbcd85850	-0.026409298
36	0x3c4f874f	0.012666537
37	0x3ceea86d	0.029133046
38	0x3c998e9c	0.01874476
39	0xbb75cb53	-0.0037505224
40	0x39c706c9	0.00037961293
41	0x3cbfacdf	0.023397861
42	0xbbf03182	-0.0073301205
43	0x3c2d867b	0.010591145
44	0xbd7ce03c	-0.061737284
45	0x3c5a25c6	0.01331467
46	0xbcc5b915	-0.024136106
47	0x3cabd512	0.020975623
48	0xbc9ba513	-0.018999612
49	0x3c4e1ca9	0.012580075
50	0x3bf51819	0.0074796793
51	0xb8f6e398	-0.00011772587
52	0x3b10fc69	0.0022123104
53	0xbb8361cf	-0.0040094624
54	0x3d0b5f88	0.034026653
55	0xbbfe059b	-0.007752133
56	0x3c407ca5	0.011748468
57	0x39d6dbab	0.00040980926
58	0xbbab1dba	-0.0052220495
59	0x3bfc2a2c	0.007695457
60	0xbd16a506	-0.036778472
61	0x3bb79dd5	0.005603532
62	0xbc0faa5d	-0.008768645
63	0x3d03b39f	0.032153722
64	0xbbbcee0a	-0.005765681
65	0xbceb30e4	-0.028709836
66	0x3be121b9	0.006870475
67	0x3d17db66	0.03707447
68	0xbc417448	-0.011807509
69	0xbb99275c	-0.0046738815
70	0xbbdfbd95	-0.00682802
71	0x3c232db1	0.009959624
72	0x3b9f0024	0.0048523117
73	0x3c2e77e9	0.010648706
74	0x3b4b2467	0.003099704
75	0x3c359093	0.011081832
76	0x3a4e7d66	0.0007876962
77	0xbc6d856c	-0.014497142
78	0x3b990a32	0.004670405
79	0xbcb1a242	-0.021683816
80	0xbba5aa2f	-0.005055688
81	0xbbd2284c	-0.006413495
82	0x3c94f518	0.018183276
83	0xbc53aa06	-0.012918955
84	0x3d2c59db	0.04207788
85	0x3c574a30	0.013140246
86	0xbab5493c	-0.001383103
87	0xbc8dbca8	-0.017301872
88	0x3c2fedd2	0.010737853
89	0xbb4dee38	-0.0031422507
90	0xbc480c1b	-0.012209917
91	0xbaf421af	-0.0018625761
92	0xb9fe252d	-0.00048474353
93	0xbc374d06	-0.011187797
94	0x3cd24548	0.025667801
95	0x3c419109	0.011814364
96	0xbc6d2cb2	-0.014475988
97	0x3c318194	0.0108341165
98	0x3c60bf1f	0.013717442
99	0x3cd7fda8	0.02636607
100	0xbcb75836	-0.02238093
101	0xbd12c3bb	-0.035831194
102	0xbc42e3b0	-0.011895105
103	0xbc21cd60	-0.009875625
104	0xbc8bd0b7	-0.017067296
105	0xbbe59e18	-0.0070073716
106	0xbc9f4f06	-0.019446861
107	0xbbdac98d	-0.0066768588
108	0x3b88378a	0.0041570114
109	0xbca753dd	-0.020425731
110	0xbc75763d	-0.0149818035
111	0xbc9c4d3a	-0.019079793
112	0xbbc696b1	-0.0060604443
113	0xbb27bb3b	-0.0025593776
114	0xbc8af0f1	-0.016960593
115	0xbcd805bf	-0.026369927
116	0xbb05faa3	-0.002044358
117	0x3c03b155	0.008037885
118	0xb9b14c88	-0.0003381709
119	0x3b6fca81	0.0036589208
120	0xbc399cbe	-0.011328874
121	0xbd06bcce	-0.032894902
122	0xbc86ab81	-0.016439201
123	0x3c1a865d	0.009431449
124	0xbc80587e	-0.015667196
125	0x3c8e8467	0.017397119
126	0xbaac8adb	-0.0013163941
127	0xbd353b6b	-0.04424612

network_body.linear_encoder.seq_layers.0.weight f4 [128, 37]
0	0xbe3b76cb	-0.18307035
1	0xbec2416e	-0.37940544
2	0x3d1a751b	0.037709337
3	0x3e557d51	0.20848586
4	0x3ca48a19	0.020085381
5	0xbdd2b9b4	-0.10289326
6	0xbe14e1d9	-0.14539279
7	0xbd5f52f3	-0.054522466
8	0xbda098bd	-0.078416325
9	0xbe21cb93	-0.15800314
10	0xbcf5e44b	-0.030016085
11	0x3e1cac42	0.15300086
12	0x3e6262a3	0.2210794
13	0xbd9b4484	-0.07581428
14	0xbdbcfe10	-0.09228146
15	0x3ddf3047	0.1089788
16	0x3ddf17ac	0.10893187
17	0xbd81940a	-0.06327064
18	0xbe39fe98	-0.18163526
19	0x3c14bda5	0.009078418
20	0xbdbf2426	-0.09333067
21	0x3e221e8a	0.15831962
22	0xbd11ad97	-0.03556594
23	0x3c49f1aa	0.012325684
24	0x3e17f75e	0.14840457
25	0x3e8b1830	0.2716689
26	0x3ec9a9fb	0.39387497
27	0xbcdc67e9	-0.026905017
28	0x3d4ecacd	0.050486375
29	0x3d2898e1	0.04116142
30	0xbdf7d7b6	-0.121016905
31	0xbda1fe4b	-0.07909831
32	0xbd8700fc	-0.06591985
33	0x3e9d1554	0.30680335
34	0xbc93f168	-0.018059447
35	0x3d18971c	0.037253484
36	0xbd99367d	-0.07481096
37	0xbe234874	-0.15945607
38	0xbd036125	-0.032075066
39	0x3e4fc9bd	0.20291801
40	0x3dbb3a56	0.09141986
41	0x3e019091	0.12652804
42	0x3cfea465	0.031084249
43	0xbe8b4a92	-0.2720533
44	0xbe02c4de	-0.12770411
45	0xbcdad484	-0.026712663
46	0xbe3cdb13	-0.18442945
47	0x3d150d5c	0.036389694
48	0xbe0196f1	-0.12655236
49	0x3e923d8a	0.28562576
50	0xbdb682c0	-0.08911657
51	0x3db40706	0.08790402
52	0xbb8e299d	-0.004338457
53	0xbddbab69	-0.10726053
54	0x3de910a6	0.113801286
55	0xbdf20fba	-0.11819406
56	0x3cc5ea82	0.024159674
57	0x3e91ee62	0.28502184
58	0x3cd34b00	0.025792599
59	0xbe2fc843	-0.17166238
60	0xbe2c76e2	-0.16842225
61	0xbe67afa6	-0.22625598
62	0x3dad33e3	0.08457162
63	0x3e8bd7ee	0.2731318
64	0x3e48eac8	0.19620812
65	0xbd195c55	-0.03744157
66	0x3e4b836b	0.1987435
67	0xbe4e0379	-0.20118512
68	0x3dc6c94a	0.097063616
69	0xbe43b62d	-0.19112463
70	0x3da2da9a	0.07951851
71	0xbe656f97	-0.2240585
72	0xbe2269b9	-0.15860642
73	0xbcb13e95	-0.021636287
74	0x3d4c7c0d	0.04992299
75	0x3e606ec9	0.21917261
76	0xbd89690a	-0.06709488
77	0xbe81b9c1	-0.2533703
78	0xbd6e4a38	-0.05817625
79	0x3d5d91df	0.05409419
80	0x3b0e675e	0.0021729092
81	0xbd39785b	-0.045280796
82	0x3e4e8db6	0.20171246
83	0xbd94839b	-0.07251664
84	0x3d877f47	0.06616073
85	0x3d74914e	0.059708886
86	0xbc51be37	-0.012801698
87	0x3e59013f	0.21191882
88	0xbe62271b	-0.2208523
89	0x3e5332ce	0.20624849
90	0xbe07289a	-0.13199082
91	0xbcf61f42	-0.030044202
92	0xbc79cdc8	-0.015246816
93	0x3b51b3bd	0.0031998002
94	0x3db15cb3	0.08660259
95	0xbd823470	-0.06357658
96	0xbc974b52	-0.018468533
97	0xbd360a75	-0.044443566
98	0x3d1623f1	0.03665537
99	0xbe3e438e	-0.18580458
100	0x3d8ac584	0.06775954
101	0xbd30754e	-0.04308062
102	0xbe1cf9fd	-0.15329738
103	0xbc7c7182	-0.015407922
104	0xbd39f022	-0.045395024
105	0x3c1fb977	0.009748808
106	0x3d844d05	0.06460003
107	0x3e252964	0.1612907
108	0x3e8f5509	0.27994564
109	0xbdef151c	-0.11673948
110	0x3e1cbaea	0.15305677
111	0xbe70257c	-0.23451799
112	0xbd00b353	-0.031421017
113	0xbdb66f8c	-0.08907995
114	0x3e2f8616	0.17140993
115	0xbb118660	-0.0022205338
116	0x3dfa5933	0.12224045
117	0x3e27b966	0.16379318
118	0x3dbb14db	0.09134837
119	0xbd67da8e	-0.056604914
120	0x3d3c23dc	0.045932636
121	0xbd209f11	-0.039214198
122	0x3d3ce6b6	0.04611846
123	0x3db908d7	0.09034889
124	0x3d946603	0.0724602
125	0xbd439999	-0.047753904
126	0xbea1d91d	-0.31610957
127	0xbe33ed3c	-0.17570966
128	0xbd69ebf5	-0.05710979
129	0xbe70ef67	-0.23528825
130	0x3d8b4322	0.06799914
131	0xbe33e39f	-0.175673
132	0x3e266d8c	0.16252726
133	0x3d61c4df	0.05511939
134	0x3da7e7fb	0.08198544
135	0xbebce93a	-0.36896688
136	0xbe9fdfae	-0.31225342
137	0x3e1dc6af	0.15407823
138	0x3d12578e	0.03572803
139	0x3d3a73ca	0.04552058
140	0xbdccf9f8	-0.10008615
141	0x3da4bf07	0.08044248
142	0xbe754e6f	-0.23955701
143	0x3d156c98	0.036480516
144	0xbd11d442	-0.035602815
145	0xbd287c76	-0.04113432
146	0x3e782e8a	0.24236503
147	0xbe5770c8	-0.21039116
148	0xbe276906	-0.16348657
149	0x3bdbf770	0.0067128465
150	0xbe153a54	-0.14573032
151	0xbe88a775	-0.2669026
152	0x3e4c5911	0.19955851
153	0xbc6dd8d8	-0.014517032
154	0xbe16ae45	-0.14714916
155	0x3e18acdf	0.14909695
156	0xbe08d1c3	-0.13361268
157	0xbd8d09c5	-0.06886629
158	0xbe054c0f	-0.13017295
159	0xbeb61600	-0.3556366
160	0x3e59e61d	0.21279188
161	0x3d91382f	0.07090794
162	0x3d130d02	0.035901077
163	0xbdd3da8e	-0.103444204
164	0xbe182150	-0.14856458
165	0x3bfdcd4a	0.0077454196
166	0x3d8f6e78	0.07003492
167	0xbd4f667c	-0.050634846
168	0x3d8ead01	0.069665916
169	0x3e2e7420	0.17036486
170	0x3ca5de57	0.020247621
171	0xbd90a7a0	-0.07063222
172	0x3dec0f3e	0.11526345
173	0xbe235ce4	-0.15953404
174	0xbd0e9ce2	-0.034817584
175	0xbe380085	-0.17968948
176	0x3d967e5a	0.073483184
177	0xbdacd74b	-0.084395014
178	0xbe739c3b	-0.23790066
179	0x3ce9949e	0.028513249
180	0xbcc0821a	-0.023499537
181	0xbe5bdde4	-0.21471363
182	0xbd5084fd	-0.050908078
183	0xbe038475	-0.12843497
184	0xbdad370a	-0.084577635
185	0x3a859874	0.0010192529
186	0xbd1d647b	-0.038425904
187	0xbe204ab2	-0.15653494
188	0x3cbecfdc	0.023292474
189	0x3d86d6ee	0.06583963
190	0x3e18a140	0.14905262
191	0xbe9add27	-0.3024685
192	0xbd39014c	-0.045167252
193	0xbd0675f3	-0.03282733
194	0x3ce9d004	0.028541572
195	0xbda864f1	-0.08222378
196	0x3e681067	0.22662507
197	0xbe3007de	-0.17190501
198	0xbe32a6e5	-0.17446478
199	0xba8a4e4c	-0.0010551899
200	0x3e0bde8d	0.13659115
201	0x3e436ade	0.19083735
202	0x3d24e63b	0.040258627
203	0xbd761ce3	-0.060086142
204	0x3da567b6	0.08076422
205	0xbd84f8f9	-0.064928
206	0x3e08179f	0.1329026
207	0x3e013fd4	0.12622005
208	0x3dd527f9	0.10408015
209	0x3dfa2624	0.12214306
210	0xbe54837f	-0.20753287
211	0xbe784bf6	-0.24247727
212	0xbdf20712	-0.11817755
213	0xbd1cc20e	-0.038271002
214	0x3e200c8c	0.15629786
215	0xbe24cd60	-0.1609397
216	0xbe9abcb9	-0.3022211
217	0x3d4f1dbe	0.050565474
218	0x3d465b3d	0.048426855
219	0x3d534ef1	0.051588956
220	0xbd35ba61	-0.044367198
221	0x3e9870e3	0.29773626
222	0x3e3f2244	0.18665415
223	0x3e1f1d1e	0.15538451
224	0xbd49e9c2	-0.049295194
225	0xbdaa460a	-0.0831414
226	0xbe8d4af5	-0.2759625
227	0x3e107f26	0.14111003
228	0x3eabdb9c	0.33565986
229	0xbc8b280f	-0.016986875
230	0xbe6adce3	-0.22935824
231	0xbe85d9be	-0.26142687
232	0xbdc45059	-0.095856376
233	0xbe19f175	-0.15033515
234	0x3e36c144	0.17847162
235	0x3e98547d	0.2975196
236	0xbe10c955	-0.14139302
237	0x3e3af27a	0.1825656
238	0xbeae6d77	-0.3406789
239	0xbe84e812	-0.25958306
240	0xbdb65d3a	-0.089045
241	0x3e14022f	0.14453958
242	0x3e4c85dc	0.19972938
243	0x3e1c221e	0.1524739
244	0xbea192c7	-0.31557295
245	0x3db91733	0.09037628
246	0x3e4f43db	0.20240729
247	0xbe55d9dc	-0.20883888
248	0xbddb5a68	-0.10710603
249	0xbd255633	-0.04036541
250	0xbe551f17	-0.20812641
251	0xbdec260d	-0.11530695
252	0x3daf85ba	0.08570428
253	0x3c633fde	0.013870208
254	0xbd42f560	-0.04759729
255	0x3cb572b9	0.02214943

network_body.linear_encoder.seq_layers.2.bias f4 [128]
0	0xbc022424	-0.007943187
1	0x3a287b89	0.00064270996
2	0xbc11cdc3	-0.008899155
3	0xbc6fecbd	-0.014643845
4	0x3c441a35	0.011969139
5	0xbc1aaa57	-0.009440026
6	0x3c72b914	0.014814634
7	0xbc2e9b22	-0.010657104
8	0xbc8c2136	-0.01710568
9	0xbc4e4303	-0.012589219
10	0xbbcae01b	-0.0061912662
11	0xbc97d47b	-0.018533936
12	0xbbfac1d9	-0.007652503
13	0xb95e28eb	-0.00021186813
14	0xbc60e949	-0.0137274945
15	0x3c11c0ad	0.008896035
16	0x3c8a7422	0.01690108
17	0xbbffe2b1	-0.007809006
18	0xbc85b2f4	-0.016320683
19	0xbc55a98e	-0.013040913
20	0xb9559a4d	-0.00020370744
21	0xbc8ade37	-0.016951663
22	0x3bc3bd0c	0.005973464
23	0x3c2435ab	0.010022561
24	0x3c4dfba0	0.012572199
25	0xbc3406d7	-0.010987959
26	0x3b166c7e	0.002295285
27	0xba7b9a8d	-0.000959792
28	0x39e4af7e	0.000436183
29	0xbb570e87	-0.0032815055
30	0x3b90a7f6	0.0044145538
31	0x3b9ba76f	0.0047501842
32	0xbbc818df	-0.0061064805
33	0xbbc154c0	-0.0058999956
34	0xbc601a3b	-0.013678129
35	0xbb8029d2	-0.0039112354
36	0x3bc1b859	0.0059118685
37	0x3c3a1928	0.011358537
38	0x3b207d1f	0.002448864
39	0xbc3579be	-0.011076389
40	0xba43f2d2	-0.0007474843
41	0xbc8e3ee8	-0.01736398
42	0xba5a7d1c	-0.0008334683
43	0x3c496d96	0.012294194
44	0xbc4e5835	-0.012594272
45	0xbc184454	-0.009293634
46	0xbba6f8d5	-0.005095581
47	0xbaf3818e	-0.0018578039
48	0x3b908028	0.0044098087
49	0xbc603cc0	-0.013686359
50	0x3b22adfb	0.0024822939
51	0x3b69881c	0.0035634106
52	0xbc4634dc	-0.012097564
53	0x3c2c2097	0.010505817
54	0xbb747ef0	-0.0037307106
55	0x3c4ee507	0.012627847
56	0xbc9d5c01	-0.01920891
57	0xbcb611f8	-0.022225365
58	0xbc8dfa8e	-0.017331388
59	0xbc9b2931	-0.01894054
60	0x3c1fa4ab	0.00974385
61	0xbca4473c	-0.020053498
62	0xbc5714e3	-0.013127538
63	0x3c84d8ee	0.016216721
64	0x3a101b1c	0.00054972037
65	0xbca6a516	-0.020342391
66	0xbbd62359	-0.0065349755
67	0xbc8b7292	-0.017022405
68	0xbb2164b2	-0.002462667
69	0x3c0ee058	0.00872048
70	0xbbd447fc	-0.006478308
71	0xbc57568a	-0.013143191
72	0xbb82a65f	-0.003987118
73	0x3c1f7211	0.009731785
74	0xb9bafbbf	-0.0003566425
75	0x3b9fbf2e	0.0048750853
76	0x3b131b81	0.0022446814
77	0x3aff58e5	0.0019481449
78	0xbb9b5803	-0.0047407164
79	0xbb4aeda2	-0.0030964394
80	0x3bc8dc3b	0.006129769
81	0xbb7688d9	-0.0037618189
82	0xbc6647ba	-0.014055187
83	0x3bb9c099	0.0056687114
84	0xbb5c4e84	-0.0033616135
85	0xbbc974c4	-0.0061479528
86	0x3c648584	0.013947848
87	0x3aeef607	0.0018231281
88	0xbc9765d0	-0.018481165
89	0x3bc7bdb4	0.0060956124
90	0xbc750c7e	-0.014956592
91	0xbc102387	-0.008797533
92	0xbb7d5d30	-0.003866028
93	0x3baa53c6	0.005197975
94	0x3b119214	0.0022212313
95	0xbb3f5cd8	-0.0029199626
96	0x3b9a3f38	0.0047072433
97	0xbbf766b4	-0.007550085
98	0x3c45ded1	0.012077049
99	0xbbb9e80d	-0.0056734146
100	0xbbdaeae0	-0.0066808313
101	0xbbd3fabd	-0.0064690993
102	0xbbd62f0e	-0.006536371
103	0x3b8c9f9e	0.004291489
104	0xbc22cfda	-0.009937251
105	0xbbe34741	-0.0069359844
106	0x3b91a712	0.004444965
107	0xbce29c76	-0.027662497
108	0x3c83b34a	0.016076703
109	0x3b467290	0.0030280687
110	0xba48cb2f	-0.0007659671
111	0xbc6abce9	-0.014327266
112	0x3ae0257d	0.0017101016
113	0xbbcc2ac5	-0.0062306845
114	0xbc6792c8	-0.0141341165
115	0xbbf54733	-0.0074852942
116	0x3bd43ff6	0.0064773513
117	0xbb9e02e4	-0.004822122
118	0x3bbfaf81	0.005849779
119	0x3c798d26	0.015231406
120	0x3bc31cad	0.005954346
121	0x39f21c9c	0.00046179153
122	0x3bfcdcd2	0.0077167535
123	0xbc2b5713	-0.010457772
124	0xbc5dc713	-0.0135362325
125	0xbb8a606d	-0.0042229206
126	0xbc7ea208	-0.015541561
127	0xbb386e78	-0.0028142016

network_body.linear_encoder.seq_layers.2.weight f4 [128, 128]
0	0x3c832123	0.016007012
1	0x3d3807a0	0.044929147
2	0x3e023953	0.1271718
3	0xbdb71740	-0.089399815
4	0x3e044c46	0.12919721
5	0x3c410074	0.011779893
6	0xbab419dc	-0.0013740617
7	0x3d736768	0.059424788
8	0x3e0d366b	0.1379029
9	0xb9c10cbb	-0.00036821314
10	0x3d560dc4	0.05225922
11	0x3e0e5868	0.13900912
12	0x3d8307cf	0.06397974
13	0x3e063b6c	0.13108605
14	0x3c77244b	0.0150843365
15	0x3af0c161	0.0018368178
16	0x3d97e5c7	0.074168734
17	0x3e07ed8f	0.13274215
18	0xbd9ed329	-0.07755119
19	0xbc9827f6	-0.018573742
20	0x3d755441	0.059894804
21	0xbdc63763	-0.09678533
22	0xbcb22a95	-0.02174882
23	0x3d4d2ff8	0.050094575
24	0x3d55ff00	0.05224514
25	0x3d761571	0.060079042
26	0xbd915d88	-0.07097918
27	0xbd2c5a29	-0.04207817
28	0x3d7e696a	0.06211225
29	0xbc92bc4f	-0.017912058
30	0x3cf7ffca	0.030273337
31	0x3d9940c3	0.074830554
32	0xbb309e0a	-0.0026949667
33	0xbdc74018	-0.09729022
34	0xbd81acc4	-0.063317806
35	0x3d6fbec7	0.05853155
36	0xbda578b3	-0.08079662
37	0xbd6caaf1	-0.05778021
38	0xbdf65a0d	-0.120288946
39	0x3d7bdee7	0.061491873
40	0x3df57ef2	0.119871035
41	0x3a93aef0	0.0011267345
42	0xbcebd204	-0.028786667
43	0xbd579024	-0.052627698
44	0xbe33b167	-0.17548142
45	0x3d3c778a	0.04601244
46	0x3da19233	0.078892134
47	0x3deaf324	0.11472157
48	0x3da370cd	0.079804994
49	0x3df420d6	0.119203255
50	0xbd75b879	-0.05999038
51	0x3d4f0185	0.05053856
52	0xbe17a3a6	-0.1480852
53	0xbdb13deb	-0.08654388
54	0xb8f91431	-0.00011877006
55	0xbd50b998	-0.050958246
56	0xbdc7910e	-0.09744464
57	0xbd93fa4a	-0.07225473
58	0xbe69b65c	-0.22823471
59	0xbde9eca9	-0.114220925
60	0xbd147885	-0.03624775
61	0xbce75453	-0.028238451
62	0xbe00eb87	-0.12589847
63	0xba23b3a8	-0.00062447274
64	0xbd3e45e9	-0.04645339
65	0xbe02235a	-0.12708798
66	0xbd8428d2	-0.06453098
67	0x3bd90f33	0.0066241263
68	0xbb793a6a	-0.0038029202
69	0x3e2792db	0.16364615
70	0x3dae7d9b	0.08520051
71	0xbd6b17f2	-0.057395883
72	0x3de7f453	0.11325898
73	0x3b6e1f5b	0.0036334607
74	0xbe03eba2	-0.12882856
75	0x3ad33929	0.0016115058
76	0xbb4f9536	-0.003167463
77	0x3e2441b0	0.16040683
78	0xbd9398bd	-0.07206867
79	0xbe1d248a	-0.1534597
80	0xbe0e3fc2	-0.13891509
81	0xbbb089bf	-0.0053875144
82	0xbb2ecdb8	-0.002667291
83	0x3d0bb393	0.034106802
84	0xbe34d87a	-0.17660704
85	0x3dc5c900	0.09657478
86	0x3e4cbd55	0.199941
87	0x3d502eef	0.05082601
88	0xbda72efd	-0.08163259
89	0xbd8f921b	-0.07010289
90	0xbab76a33	-0.0013993442
91	0x3bd26f5a	0.0064219655
92	0xbc1f0038	-0.009704642
93	0x3e3a0d13	0.1816905
94	0x3cad678a	0.021167535
95	0xbd92ca97	-0.07167547
96	0x3db28558	0.087168396
97	0x3c48849c	0.012238648
98	0x3d7491bd	0.0597093
99	0xbd28a446	-0.04117229
100	0xbd151ed9	-0.03640637
101	0xbce43432	-0.02785692
102	0x3e70b277	0.23505579
103	0xbcc7efad	-0.024406279
104	0x3dca676f	0.0988301
105	0xbd87ff53	-0.06640496
106	0x3ce71a5a	0.028210808
107	0x3d8418dc	0.06450054
108	0x3ddcb9a6	0.10777597
109	0x3a838b6e	0.001003606
110	0xbd24b662	-0.040212996
111	0x3e1ba435	0.15199359
112	0x3c3138e9	0.010816791
113	0x3ddf68ab	0.10908636
114	0x3cb5b666	0.0221817
115	0x3d9c354c	0.07627353
116	0xbcd8cd86	-0.026465189
117	0x3d691d62	0.056912787
118	0x3d0faf7b	0.03507946
119	0x3d828485	0.06372932
120	0x3dddf12f	0.10837018
121	0xbcd96a11	-0.026539834
122	0xbd7d9d7b	-0.061917763
123	0xbe1aa52e	-0.15102074
124	0xbd4aa288	-0.049471408
125	0x3e04b9ff	0.12961577
126	0x3d3fe7b9	0.046851847
127	0x3d6e454a	0.058171548
128	0xbdc19318	-0.09451884
129	0x3d528eb6	0.05140563
130	0x3d52e590	0.05148846
131	0x3e25b754	0.16183215
132	0x3e03c39f	0.12867592
133	0xbca5d3f2	-0.020242665
134	0x3e4ff804	0.20309454
135	0x3c5d7c7c	0.013518449
136	0xbe6ab273	-0.22919635
137	0x3dcb41f8	0.09924692
138	0xbc04cf83	-0.008106115
139	0xbdd621af	-0.104556434
140	0xbddaa4af	-0.10675942
141	0x3dad9544	0.08475736
142	0xbd5caa04	-0.053873077
143	0x3d454285	0.04815914
144	0x3dbb341a	0.09140797
145	0x3d481d5a	0.048856117
146	0xbd1d90fb	-0.038468342
147	0x3d6a3681	0.057180885
148	0xbcd450cf	-0.025917439
149	0x3a07e9d9	0.00051846873
150	0x3d8cd09a	0.06875725
151	0xbc1c0e77	-0.009524933
152	0x3d2d5514	0.042317465
153	0x3c4de32c	0.012566369
154	0xbe17318e	-0.14764997
155	0x3c925f87	0.017867817
156	0x3a024e17	0.0004970743
157	0xbc4f118b	-0.01263846
158	0xbda84ce1	-0.082177885
159	0xbd2219bc	-0.039575323
160	0x3cae237c	0.021257155
161	0x3ce64830	0.028110594
162	0x3d8e8e0f	0.06960689
163	0x3ddac42c	0.10681948
164	0x3df7429a	0.1207325
165	0x3e0f2b2a	0.1398131
166	0xbd0b6067	-0.034027483
167	0x3d99a046	0.07501273
168	0xbd0fc717	-0.035101976
169	0x3cd1d354	0.025613464
170	0x3d73d6b5	0.059530932
171	0xbd80b0d0	-0.06283724
172	0xbe31ac40	-0.17350864
173	0xbd4971ab	-0.049180668
174	0xbd1924ab	-0.037388485
175	0x3cd4c7ca	0.025974173
176	0xbdd055c8	-0.101726115
177	0xbd5193d5	-0.051166374
178	0xbc4c03c4	-0.01245207
179	0x3d95de60	0.07317805
180	0xbd8583d8	-0.06519288
181	0xbdde5db1	-0.10857714
182	0xbce38a36	-0.027775865
183	0xbcaace15	-0.02085022
184	0x3dc721e1	0.09723259
185	0xbd8e838b	-0.069586836
186	0xbdfa5a5e	-0.122242674
187	0xbddb04ad	-0.10694251
188	0x3e36d3d2	0.1785424
189	0x3debcba5	0.115134515
190	0x3cba4433	0.022737598
191	0x3be21b31	0.006900214
192	0xb8847077	-6.315199e-05
193	0x3d1ce352	0.038302727
194	0xbda7ccdf	-0.08193373
195	0xbda26f4a	-0.07931383
196	0xbe033695	-0.1281379
197	0xbd12d4b3	-0.035847377
198	0xbd64168d	-0.05568557
199	0xbda8d126	-0.08243017
200	0xbd7d54ba	-0.06184838
201	0x3c4a1781	0.012334705
202	0xbd53f716	-0.05174931
203	0xbda0f120	-0.07858491
204	0xbd22c53b	-0.039738875
205	0xbd6ec64d	-0.058294583
206	0x3d85810d	0.06518755
207	0xbd0f1164	-0.034928694
208	0xbda5e2cd	-0.080998994
209	0x3dacfda0	0.08446813
210	0xbd26c3e1	-0.04071415
211	0xbd90bb91	-0.070670255
212	0x3e0dbdbd	0.1384191
213	0xbad2e91b	-0.0016091199
214	0x3d628615	0.05530365
215	0x3e2c43cf	0.16822742
216	0xbd3a3ae9	-0.045466337
217	0xbd8f21e0	-0.06988883
218	0xbb98c155	-0.004661719
219	0x3d65a112	0.05606181
220	0x3b38cde3	0.002819889
221	0x3c86be5d	0.016448194
222	0xbd88eacf	-0.06685411
223	0x3d242fb5	0.04008456
224	0xbc5cc601	-0.013474942
225	0xbe0b0369	-0.1357552
226	0xbcaaca6b	-0.020848474
227	0x3d2085d5	0.039190132
228	0x3dbc519a	0.09195252
229	0x3d1f56c1	0.038901094
230	0xbe14f734	-0.14547426
231	0xbd7364a2	-0.059422143
232	0xbd398338	-0.045291156
233	0xbe4982ce	-0.19678804
234	0x3da81259	0.082066245
235	0xbb46c3e3	-0.003032916
236	0xbcd18f08	-0.025580898
237	0xbde10f43	-0.10989239
238	0x3de96b04	0.11397365
239	0xbcb427d3	-0.021991646
240	0xbdcd6a4c	-0.1003004
241	0x3d6b4454	0.05743821
242	0x3d94bca4	0.07262543
243	0x3d1246d2	0.03571207
244	0xbcbce189	-0.023056762
245	0x3db7088b	0.08937176
246	0x3a6dc14d	0.00090696366
247	0x3ced68cd	0.028980637
248	0xbe1ff36e	-0.15620205
249	0x3d1298f9	0.035790417
250	0x3e526b40	0.20548725
251	0xbda9aab1	-0.0828451
252	0xbd1f3c44	-0.038875833
253	0x3c493da6	0.012282765
254	0xbdf8f7fc	-0.12156674
255	0xbd8c4668	-0.068493664
