results/Train4/DriveAroundTrack/checkpoint.pt (torch, 541687 bytes, 39 tensors)

network_body.linear_encoder.seq_layers.0.weight f4 [128, 37]
000000 69 fc 51 3e ba af 3d 3d 41 ab 82 bd 9f f0 8b 3c
       0.20506443 0.046310164 -0.0638032 0.01708251
000010 ec 49 83 3e 99 65 c4 bd eb 54 8a 3e 95 38 bd 3e
       0.25642335 -0.09589691 0.27017912 0.3695723
000020 3a 15 5c 3c 8d 07 62 3e 9c d0 88 3e b7 1a 1a 3e
       0.013432795 0.22073193 0.26721656 0.15049253
000030 b4 c4 e4 3e 85 57 ac be 0f 69 82 3d 22 26 34 be
       0.44681323 -0.33660522 0.063676946 -0.17592672
000040 6e 12 0a be 25 b7 97 3e b8 d2 03 be 76 cf dd bd
       -0.13483593 0.29631916 -0.12873352 -0.10830586
000050 0b 80 0f 3e 52 0c 07 3e 10 16 83 3d 77 8a b2 bc
       0.14013688 0.13188294 0.064006925 -0.02179454
000060 97 e6 9b bd 0c 62 1e bb d1 92 df 3d 5e fc fb 3d
       -0.07612341 -0.0024167327 0.10916675 0.123039946
000070 95 4b 6c 3d 68 c3 91 3e 6c 61 13 be ee bd a2 bc
       0.05768927 0.28469396 -0.14392632 -0.019865956
000080 9b c8 af 3d 96 9f d9 3d d0 57 81 3e cd 7e cc 3e
       0.08583184 0.10626142 0.25262308 0.3994049
000090 6a 5a 82 be 05 f8 be 3e 38 95 c1 be 87 4e 8e bd
       -0.25459605 0.372986 -0.37809157 -0.06948572
0000a0 86 e0 13 3d 0b f5 81 3e 26 6f 4e 3e 98 ed a8 3b
       0.036102794 0.25382265 0.20159587 0.0051552765
0000b0 35 7a 5c be 9b f8 01 be 30 7a ee 3d ff e9 16 3e
       -0.21530993 -0.12692492 0.11644399 0.147377
0000c0 ac d8 bc 3e 03 33 db 3d 0a 16 1c bd 99 2f 89 3d
       0.36884058 0.10703089 -0.038106956 0.06698532
0000d0 34 5d 01 bc 88 52 26 3d a8 c5 f7 3d 51 49 ad 3e
       -0.0078957565 0.04060605 0.12098247 0.33844998
0000e0 27 59 85 bb 17 60 56 3d 59 8f 17 3e a7 e8 88 3d
       -0.0040694657 0.052337732 0.14800777 0.06685
0000f0 72 9f 0a be 3c e1 7a 3e 99 cb ac 3e 3e 83 95 3e
       -0.13537386 0.24499983 0.33749083 0.29201692
000100 80 bd 1e be 4f fe 2b 3c 22 cd a1 3d d6 e6 e5 bd
       -0.15501976 0.010497644 0.07900454 -0.11225669
000110 16 a0 64 ba 95 58 bc 3d ec b5 07 be eb a2 f7 3d
       -0.00087213644 0.09196583 -0.13252991 0.12091621
000120 65 c9 d3 bc e8 3c c0 bd 2b de 9b bd 5c 0a 1f be
       -0.025852868 -0.09386617 -0.076107346 -0.15531296
000130 55 5a ff 3c 15 b3 70 3e 9e f2 a5 3a e3 7c 06 3e
       0.031171003 0.23505814 0.0012660807 0.13133578
000140 14 92 6b bd 64 49 7f 3c 66 c5 42 3e 52 bd f3 bd
       -0.057512358 0.0155814625 0.19020614 -0.11901344
000150 48 6b 65 be c4 50 0d be 54 10 16 3e ed 24 d8 bb
       -0.22404206 -0.13800341 0.14654666 -0.006596199
000160 2e b7 73 3d 8c 92 55 be ef 49 44 3e 1b 84 2b be
       0.059500866 -0.20856684 0.19168828 -0.16749613
000170 09 73 1b 3e ee fa 27 bc a9 62 37 3d 16 58 32 3d
       0.15180601 -0.010252697 0.044771824 0.043541037
000180 fc e4 09 3b d2 01 a5 bd fc 9d 1f be 2c b6 99 be
       0.0021041026 -0.08056988 -0.1558761 -0.300218
000190 15 2e a4 be 24 96 43 be 91 f7 15 3e af 77 7d 3d
       -0.32066408 -0.19100243 0.1464522 0.061881717
0001a0 bb e7 1c be dd bf bf 3e 5c 42 94 bd f0 22 9f bd
       -0.15322773 0.37451068 -0.072392195 -0.07770336
0001b0 11 85 65 be 9b 14 4f be 6c ab 96 bd cc 95 da 3e
       -0.22414042 -0.20222704 -0.07356915 0.4269241
0001c0 f6 7e 19 3e 56 1b 4d be 1d 99 35 be 05 79 52 be
       0.14989838 -0.20029959 -0.1773419 -0.20553978
0001d0 ea 03 95 3e 9e e6 00 3c 77 34 e9 bd 08 67 2a bd
       0.2910455 0.007867483 -0.1138696 -0.041602165
0001e0 ca eb fe bd e9 62 8b 3d 97 49 1c bc 0a 05 9b bd
       -0.12447317 0.06805975 -0.00953903 -0.075693205
0001f0 f9 cc 39 bc 06 a7 e2 3b e9 f3 5b 3e 80 e4 b3 bd
       -0.011340373 0.0069168834 0.21479763 -0.08783817
000200 fe 82 90 3e 3e bf 7a be c3 83 43 3e c3 cd 9e 3e
       0.2822494 -0.24487016 0.19093232 0.3101636
000210 1e c5 21 3e df 72 35 bc 05 35 e1 3e c0 74 25 3e
       0.1579785 -0.011074751 0.43985763 0.16157818
000220 ed dc 08 3d 13 7e dd 3d db 76 c3 3d c4 bf b8 3d
       0.033413816 0.108150624 0.09544154 0.090209514
000230 e5 5e c7 3c 90 b7 b2 bd c1 82 3b be 98 4c 1a be
       0.024337241 -0.08726418 -0.18311597 -0.1506828
000240 41 45 d9 3d d8 fb 11 be d7 30 e3 3d 02 d7 ca 3d
       0.10608912 -0.14256227 0.110933 0.09904291
000250 05 c9 8b 3d 03 34 b1 bc ff 1a 1a 3e 32 49 5b 3e
       0.06825451 -0.021631246 0.1504936 0.2141464
000260 f2 a2 ae bd a5 a4 af 3e a8 28 29 bb df 69 ac 3e
       -0.08527173 0.343053 -0.0025811587 0.33674523
000270 2d c4 7b 3d 11 c5 3b 3e 3c 88 39 3e 92 cf f1 3d
       0.061466385 0.18336894 0.18118376 0.11807169
000280 ae f0 b1 3e 21 42 10 3e c2 f6 05 be de 3b 8c 3e
       0.34753937 0.14087726 -0.13082412 0.27389425
000290 48 4a 2a 3e bd ac c6 bd 41 cd 9d 3d 72 6b fa bd
       0.16629899 -0.09700916 0.07705165 -0.12227525
0002a0 69 6b ff 3d a3 20 28 be 73 a7 1d 3e 02 a3 60 3d
       0.12471659 -0.164187 0.15395908 0.054842956
0002b0 4f 37 6d bc b1 5b b9 3d b7 ce 99 3e d2 f1 00 be
       -0.014478519 0.09050692 0.30040523 -0.12592247
0002c0 16 38 46 bd 13 87 01 bd 37 5c 59 be 9b cf 93 3d
       -0.04839333 -0.031622957 -0.21226583 0.07217332
0002d0 97 fe 10 be fd 9a 71 3e 83 4f 96 bb 30 b8 2f bd
       -0.14159618 0.2359428 -0.0045871153 -0.042900264
0002e0 2a 6d a5 3e fc be 90 3e cd 5f c9 3e ae 4f 21 be
       0.32309848 0.2827071 0.39330903 -0.15753052
0002f0 5e 3b c2 bd 85 ee 98 3e e7 09 00 bd 3d 6b b4 3d
       -0.0948398 0.29869476 -0.031259444 0.088095166
000300 a6 4f 85 3d 30 07 ef bd 83 d9 ec 3d 42 5b 72 be
       0.06509332 -0.11671293 0.115649246 -0.23667625
000310 47 d9 40 bb 17 1b 2a 3e b7 a6 8b bd 3f 5c d8 3d
       -0.0029426382 0.16611896 -0.06818908 0.105644695
000320 da 40 08 3e 37 e4 1d be 1b 7b 97 bd 38 3e 24 be
       0.13305989 -0.15419088 -0.073965274 -0.1603936
000330 9a 10 4f bd ae b6 12 bd d4 75 b4 3d 03 c8 a0 3d
       -0.05055294 -0.03581875 0.088115364 0.07850649
000340 4a 4c a7 bd a2 69 75 be d0 6c 9b bd 84 4c 5b bd
       -0.08168848 -0.23966077 -0.07589114 -0.053539768
000350 63 7b 34 3d 97 0c bb 3d 83 25 e2 bb 24 21 bf 3d
       0.044062983 0.09133261 -0.0069014444 0.09332493
000360 1b ea b1 3d 1a 67 bf be 9b 06 e3 3e 2e 9a 6e 3e
       0.0868723 -0.37383348 0.44340977 0.23301002
000370 79 e6 29 3d 54 b6 bc 3d df f5 83 bd 2b 3f 18 3e
       0.04147956 0.09214464 -0.064433806 0.14867847
000380 2d 50 74 3d 67 75 48 3e 65 d5 36 3e de 89 ab bd
       0.059646774 0.19576035 0.17854841 -0.083759055
000390 2a 96 88 be fc 75 fb bd 71 5f 9b be 1e b1 cc 3d
       -0.26677066 -0.12278363 -0.30346254 0.0999472
0003a0 e1 2e d3 bb 6f 10 04 3d 6e 07 65 3d 0d 2f da bd
       -0.0064447974 0.032242235 0.05591529 -0.106535055
0003b0 d3 71 7d be 9b 77 c7 3e 3e 12 36 3d aa d5 45 3d
       -0.24750452 0.3895844 0.04445099 0.04829947
0003c0 31 59 18 3e 85 87 2a 3e 70 f7 85 3d 41 b4 90 be
       0.14877774 0.16653259 0.065413356 -0.28262523
0003d0 40 ff 96 3d 20 5f 83 3e f5 43 1d bd 26 29 e4 bd
       0.07372904 0.25658512 -0.038394887 -0.11140661
0003e0 1e 03 d8 3d 08 e3 2b 3e b5 61 38 3d ae c9 98 3d
       0.105474696 0.16785824 0.045015056 0.07460342
0003f0 3e 98 4f bd ab 2f 90 be 6c bf 90 3d 46 50 07 bd
       -0.0506823 -0.28161368 0.07067761 -0.03303554

network_body.linear_encoder.seq_layers.0.bias f4 [128]
000000 12 9d f7 3c 73 c5 ad 3b 26 c7 b0 3c d9 27 a3 3c
       0.030226264 0.005303079 0.021579336 0.019916462
000010 f2 94 2b 3c 50 3b e4 3b 49 a8 b0 3c 6d 46 7a 3c
       0.010472523 0.0069650784 0.02156462 0.01527558
000020 56 00 c3 3b dc 18 95 3c 5e d0 6b bc 40 44 64 bc
       0.005950968 0.01820033 -0.01439294 -0.013932288
000030 4d 27 ff bb 89 49 1f bb e7 d9 4c 3c 87 d2 9f b8
       -0.0077866674 -0.0024305305 0.012503124 -7.6209246e-05
000040 11 94 ff bb 60 82 a9 3c 01 30 55 bb b6 16 d2 3c
       -0.0077996333 0.02069205 -0.0032529833 0.025645595
000050 7e 8b 86 bc 19 9a 23 bb 58 a8 49 3b ce 8b 76 3b
       -0.016423937 -0.0024963676 0.0030770507 0.0037619951
000060 03 be d5 3c 52 48 1f 3d eb c9 6a 3c ed 0d 6e bc
       0.026091581 0.03888733 0.014330368 -0.014529687
000070 5d bb 70 3b 13 3b f0 3c 4a f5 d4 3b 09 97 df bc
       0.003673277 0.029325044 0.0064989673 -0.027293699
000080 42 d7 94 3a e8 06 50 bc 75 18 02 bd bc e0 62 3c
       0.0011355656 -0.012696959 -0.031761605 0.013847526
000090 b3 be 78 3c 9b b5 7e ba 73 d0 d4 3c 9f 18 ec 3c
       0.015182185 -0.00097163924 0.025978303 0.028820334
0000a0 19 0b 00 3d c7 e1 a8 bc 15 ba 2b bb 1d db be 3b
       0.031260584 -0.020615472 -0.0026203443 0.00582446
0000b0 8b d7 16 3c 9f 68 c4 bb b1 2a d1 3c d0 7c ac 3c
       0.009206663 -0.005993917 0.025533052 0.021055609
0000c0 31 44 8f 3c cb b6 00 bc 0c ed b6 bb f6 94 7b 3c
       0.01748857 -0.007856081 -0.0055824574 0.015355339
0000d0 e9 90 8f ba e3 7c a0 3c 08 6f ea 3a b2 7c 22 3d
       -0.0010953221 0.0195908 0.0017885873 0.0396697
0000e0 4b 47 ae bc 81 8e 3f 3c b6 1a 4e 3c 26 aa 2e ba
       -0.02127423 0.01169169 0.012579611 -0.00066629273
0000f0 b1 d1 2b 3c f7 fb cf 3c 20 bd fa 3a bd 02 ea 3c
       0.010487006 0.0253887 0.001912985 0.028565759
000100 47 c1 fc bc 2c 0b 1e 3b 48 5e b1 bc b8 4e c2 3b
       -0.03085388 0.0024115546 -0.021651402 0.005929794
000110 d5 1a 9d 39 6d 2c 11 3c d2 6d 42 3d db ee 76 bb
       0.00029965365 0.00886069 0.047468014 -0.003767899
000120 ba a7 ac 3b 2a b7 ae 3b d3 4e 2b 3c 2d 79 f1 3c
       0.005269018 0.0053318935 0.010455805 0.029476726
000130 ee 36 f6 3c d6 2b 6b 3c be 6c af 3c 01 07 a9 3c
       0.03005549 0.014353713 0.021414157 0.020633223
000140 0e d1 a8 3c 43 88 09 3a 47 20 69 3c 33 39 32 3c
       0.020607498 0.000524644 0.014228887 0.010877895
000150 e3 8c ec bb ce 1b 8c 3c 7b ea cb bb 77 40 a1 3c
       -0.0072189434 0.017103102 -0.0062230206 0.01968406
000160 6f 72 4d 3d 06 7e 02 3c c6 85 24 3c 64 dc 69 3c
       0.05015796 0.007964617 0.01004166 0.014273737
000170 30 7e 2d 3c ac 2a 33 bc ca f7 83 3c 24 b9 4a bc
       0.0105891675 -0.010935467 0.016109366 -0.0123732425
000180 ca 68 36 b9 5d 83 e0 bc 66 4d 8d ba ef 95 9c bc
       -0.0001739591 -0.027406389 -0.0010780513 -0.019114463
000190 12 f1 e4 bc 7b 31 60 bb 9c 33 eb bc 18 59 32 3d
       -0.027946983 -0.003420918 -0.028711133 0.043541998
0001a0 4a 8c 04 3b 88 e1 d1 3c 81 8b fe 3b d4 11 59 3c
       0.002022522 0.025620237 0.007768095 0.013248879
0001b0 af 34 82 3c a4 77 11 3c 77 72 a6 3c 73 e3 86 3c
       0.015894262 0.008878622 0.020318253 0.016465878
0001c0 6d b7 82 3c 7c ff fe 3c 33 6d 86 3c df b7 ee 3c
       0.015956605 0.031127684 0.016409492 0.029140411
0001d0 40 27 1a 3c 32 78 69 3c 06 03 87 3c 02 90 9e 3c
       0.009408772 0.014249848 0.016480934 0.019355778
0001e0 67 e3 8c 3b f6 65 c9 bc 1f 3a 80 3c 30 72 08 3d
       0.0042995694 -0.024584752 0.015652714 0.033312023
0001f0 5d ce cc bb 91 1f 98 bb 6b 43 84 3b 5d 1a cb 3c
       -0.0062501864 -0.004642435 0.004036357 0.024792844

network_body.linear_encoder.seq_layers.2.weight f4 [128, 128]
000000 d8 11 29 3c ae 23 57 3e f7 71 4b bd bf 4b a5 3d
       0.010319196 0.21009704 -0.049669232 0.08071088
000010 29 21 0a 3d 5f 2b 38 bd 3e c0 b1 3d 29 60 8e 3d
       0.03372303 -0.044963237 0.086792454 0.06951935
000020 a6 48 e8 3d 2f 25 59 3d 53 47 3e 3e 4a 8f 05 bd
       0.113419816 0.053013977 0.18581896 -0.032607354
000030 23 ed 8a 3d b1 d8 3d bd 23 2c 2d 3b 6c 42 20 3e
       0.067835115 -0.04634923 0.0026424013 0.15650338
000040 26 2c 7c 3c f8 ab 52 3d 2c d5 8b bd d1 e1 d2 bc
       0.015391385 0.051433533 -0.06827769 -0.025742443
000050 cf 73 61 3d dd b2 0a be f8 ca b8 bd 79 a1 61 bd
       0.055042084 -0.13544793 -0.09023088 -0.055085633
000060 17 7e 76 3c 33 a9 f8 3c 69 cc 26 3d 85 5b 8e bb
       0.015044711 0.030354118 0.040722284 -0.004344406
000070 35 e3 1e 3e 16 51 3b be c8 78 82 bb b2 d2 bb bd
       0.1551636 -0.1829265 -0.0039816834 -0.09171046
000080 ee a2 be bc d0 e6 64 be 56 6d 09 bc 9c c4 9e bd
       -0.02327105 -0.22353673 -0.008387884 -0.07752344
000090 6f 90 bc 3d bf 40 ff 3c 47 46 2b 3c e6 90 57 3e
       0.09207236 0.031158803 0.010453767 0.21051368
0000a0 8d b1 7c bc 28 df 16 3e 91 45 ef bd 12 8e 9e bd
       -0.015423191 0.14733565 -0.116831906 -0.077419415
0000b0 6d 61 0b be fa 17 69 be 7e a3 ed 3d c6 8a 97 bd
       -0.13611384 -0.22763053 0.11603449 -0.07399516
0000c0 3d d2 ac 3d c1 67 16 3d 59 00 c0 bd 4b bb 9a 3c
       0.08438537 0.03672004 -0.09375066 0.018888136
0000d0 e6 b3 01 be a4 7e 45 3a 7d 9b 40 be 69 c4 2e 3e
       -0.12666282 0.00075338245 -0.18809314 0.17067112
0000e0 ea fb ad bd e3 17 d6 3d 0e 84 9c 3d c4 04 9d 3d
       -0.084953144 0.10453775 0.07642375 0.076669246
0000f0 db 3d 26 bd 8f e4 eb 3b 36 f9 26 bc e4 ef 33 bd
       -0.040586334 0.007198877 -0.010191252 -0.04392995
000100 6f 87 06 3d ec c7 45 be f9 27 05 be d7 3f 0e 3d
       0.032844003 -0.19314545 -0.1300353 0.03472885
000110 7d 94 de 37 6f 4f ad bd 90 8d 26 bd 50 ec 45 3e
       2.6533608e-05 -0.084624164 -0.04066235 0.19328427
000120 58 70 04 be 18 b6 e1 bd 93 db 13 3e a0 78 d4 bd
       -0.1293348 -0.1102106 0.1443923 -0.1037457
000130 fd 0e 8e 3d 9e ec b9 3d 23 d3 f5 3d dc b3 f6 3c
       0.069364525 0.09078334 0.12003162 0.03011506
000140 7d 9d 52 3d b5 99 81 3c f5 cf b2 3d 76 e5 b0 bd
       0.051419724 0.015820364 0.08731071 -0.08637516
000150 99 ac 0a be 26 8d ab 3d 6b dd a0 bc e5 d9 b4 3a
       -0.13542403 0.08376531 -0.01963683 0.0013797848
000160 b2 e8 3e bd d8 4a 2d bd b8 86 47 3c 0a 65 3e bd
       -0.046608634 -0.042307705 0.012178116 -0.046483077
000170 ce 97 68 bc ed 88 ac 3d 40 a7 4d 3d 29 a6 8c bd
       -0.014196349 0.08424554 0.05020833 -0.0686763
000180 5d dd fc 3d 19 f8 a8 bd 7b e1 19 3e 48 7a 91 3d
       0.12346909 -0.08250446 0.1502742 0.071034014
000190 ff 2c f8 3a 99 d2 77 bd 85 53 1e be bb 8c fa bd
       0.0018934308 -0.060503576 -0.15461548 -0.122338735
0001a0 ea 9b 52 3c c0 cd 4c be 85 46 a2 bc dc 45 c0 3d
       0.012854556 -0.20000362 -0.019809017 0.093883246
0001b0 58 bc 97 bd f1 0f a3 3d bd c7 34 3c 65 0d 81 3d
       -0.074089706 0.07962025 0.011033949 0.06301383
0001c0 a8 1c ad bd e4 7c 17 bd bc 23 7e bd 8c 9c ac 3b
       -0.08452731 -0.03698434 -0.062045798 0.0052676853
0001d0 b7 a2 68 bc e5 6f e1 3c d0 5b 65 3d c7 97 8f 3d
       -0.0141989505 0.027519176 0.055995762 0.07011371
0001e0 92 46 e0 3d 30 e3 43 3c 5d 93 bf 3d aa 5a 10 3e
       0.1095096 0.011956021 0.09354279 0.14097086
0001f0 ff f7 11 be 45 5e f9 3d ab 27 a0 bc b3 0e 9b bc
       -0.14254759 0.121761836 -0.019550165 -0.018927908
000200 27 d1 6f 3d e4 db 76 3e 58 75 17 3b bc c4 cc bb
       0.058549073 0.24107319 0.0023110714 -0.0062490385
000210 4b bb 29 be 09 59 1c 3e 46 2b 42 3e 08 2f d8 bb
       -0.16575353 0.15268339 0.1896182 -0.0065974034
000220 53 45 ac 3d 7d 25 84 bd cd 8f 08 3e a3 fd e4 3c
       0.0841166 -0.06452463 0.13336106 0.027952975
000230 5a 93 40 be de 6b 04 be 7a 2f 3e be 46 39 ab 3b
       -0.1880621 -0.12931773 -0.18572798 0.0052253334
000240 91 52 ca 3d 60 d8 78 3e 3f 47 25 3d bd ac a9 3b
       0.098790295 0.2430129 0.04035115 0.0051780627
000250 22 27 09 3e 7c 17 e8 bd cc 82 27 be 9f b5 9c bd
       0.13393834 -0.11332604 -0.16358489 -0.07651829
000260 97 21 e1 bd aa b1 55 be e3 f0 1a bd 46 2e 41 bd
       -0.10992735 -0.20868555 -0.037827384 -0.04716327
000270 e2 3f a6 3d 9f e2 20 3a d7 bd 31 3e 7c 86 10 3d
       0.081176534 0.0006137285 0.17357574 0.035284504
000280 72 30 13 3e 10 56 d3 3c 80 f0 45 3e 18 60 93 bd
       0.14373949 0.025797874 0.19330025 -0.07196063
000290 21 61 81 3c 0c d6 6a 3d f9 2c d3 3d ee e9 03 3e
       0.015793385 0.057333037 0.10311312 0.12882206
0002a0 39 21 eb 3d 16 ee 3b 3d 9c 67 b3 3b ca cb 82 bd
       0.11480946 0.045881353 0.0054749977 -0.06386526
0002b0 f0 aa 3c be b9 e4 86 3c ef 0a 21 3e 67 1a 50 3d
       -0.18424582 0.016466485 0.15726827 0.05080643
0002c0 68 d9 96 bd d9 5c a6 3c 24 00 12 3d 18 ed 74 bc
       -0.07365686 0.020307945 0.035644665 -0.014949106
0002d0 67 b5 10 bd fc 49 f2 3c d0 e2 13 3d 22 d7 80 3d
       -0.03532925 0.029576294 0.036104977 0.06291033
0002e0 3e 64 09 3d 7c b0 df bd 33 e5 13 3e 57 f7 0e bd
       0.033542864 -0.109223336 0.14442901 -0.03490385
0002f0 8d a5 86 3e 82 7a bc bd d7 18 de 3d 8e 04 9a 3c
       0.2629818 -0.09203054 0.108445816 0.018801
000300 89 cd c9 bd 6b af 1c bd cf fc 21 bd c2 d0 2f bd
       -0.09853656 -0.03825323 -0.039547738 -0.042923696
000310 2f 14 eb 3c bb 80 f4 3c fc 67 71 bd 41 77 8d bd
       0.028696148 0.02984654 -0.058937058 -0.069075115
000320 42 50 e4 3d 0a 71 06 bd af dc 90 bd f6 cd d3 3d
       0.111481205 -0.032822646 -0.07073342 0.10342018
000330 a9 5e 48 3e 76 9d 8b bd 6f 09 aa bd dc 05 a3 3d
       0.1956736 -0.06817143 -0.083025806 0.07960102
000340 75 0e 0b 3e 69 80 01 3c 7c 43 2f bd af 4e a2 3c
       0.13579734 0.0079041505 -0.042788967 0.01981291
000350 db 48 46 bd a0 4c e3 bc 87 ac 38 bc 94 6f 44 3d
       -0.048409324 -0.027746499 -0.0112716025 0.04795797
000360 f5 dd 9a 3d 9f a2 be be c5 ae 0f 3d 75 89 3d 3d
       0.07561866 -0.37233445 0.035078783 0.046273667
000370 11 5f 3d bd 93 07 e9 3c 73 f2 66 3e 40 f7 9d bd
       -0.04623324 0.028445994 0.22553425 -0.07713175
000380 4c b5 fa 3d 02 6d 90 3b 18 0f af 3a 2c 83 f7 3d
       0.12241611 0.004407526 0.0013355939 0.12085566
000390 09 4f d5 bd 6c 3a f4 bd 3b 58 7d bd 49 6a 63 3e
       -0.104154654 -0.119252056 -0.06185172 0.22208513
0003a0 f6 a9 46 be 1c d3 9f 3d 30 d1 ee bd 14 1d 38 3d
       -0.19400772 0.07803938 -0.11660993 0.044949606
0003b0 44 1a 9f 3c 32 59 16 3e 0a 3f 4f bc 9e f4 2b 3c
       0.019421704 0.14682463 -0.012649307 0.010495333
0003c0 96 45 38 bd a8 3c 90 bc 09 dd c1 3c 10 82 fa 3c
       -0.044988237 -0.017607048 0.023664968 0.030579597
0003d0 aa ec 89 be 3b 65 ac 3d b4 96 4c be 04 7c 1a be
       -0.26938373 0.08417746 -0.19979364 -0.1508637
0003e0 02 f4 13 3e ba f9 25 be 7a a7 01 3e 2c 54 17 3b
       0.1444855 -0.16208544 0.12661543 0.0023090942
0003f0 e4 46 bf bd a3 90 1c bd 40 af 4d 3b bd 1e fd bc
       -0.09339693 -0.038223874 0.0031384975 -0.030898446

network_body.linear_encoder.seq_layers.2.bias f4 [128]
000000 28 c6 85 3c 9d 2c 61 3c 1f 3d cf 3c f3 fa 33 3c
       0.01632984 0.013743547 0.0252977 0.010985124
000010 3d 3d c1 b9 14 32 8c 3c a7 ad a7 3c cc 9b a8 bb
       -0.00036857455 0.017113723 0.020468546 -0.0051455256
000020 96 dd 82 ba c8 3b 76 3c e1 5f 3b 3c 2f db 47 bc
       -0.0009984251 0.015028901 0.0114364335 -0.012198254
000030 a4 75 5b bb 24 09 46 3c 7d 73 83 bc d9 cf bc 3c
       -0.0033486867 0.01208714 -0.01604628 0.023048328
000040 a5 41 8a 3c 8b 3b db bc 4a ba a7 3c df f9 94 3c
       0.016877005 -0.02676179 0.020474572 0.018185554
000050 62 ba cf 3c c3 b8 d2 3c 90 01 4e 3c 39 dd 9b ba
       0.025357429 0.025722867 0.012573615 -0.0011891491
000060 e4 82 0e 3c d4 c3 93 3a f3 b0 6f 3c 86 88 33 3c
       0.008698199 0.0011273571 0.01462959 0.010957843
000070 61 ac 9f 3a 73 84 63 3c c3 8f a6 ba 69 f7 26 bb
       0.001218211 0.013886559 -0.0012707639 -0.0025477058
000080 65 e2 a9 3c 31 39 92 bc 17 4a f2 3c d9 76 4e 3c
       0.020737836 -0.017849537 0.029576344 0.012601578
000090 6f 35 bd 3c a5 4a 8a 3c aa f3 95 bb d2 b7 cf ba
       0.023096768 0.016881296 -0.004576166 -0.0015847629
0000a0 e9 ea 27 3a 5a 82 8a ba b1 fb 86 bc 87 c1 c5 3b
       0.0006405549 -0.0010567412 -0.016477438 0.006035033
0000b0 01 94 ba 3c 08 bd 22 3c e2 75 a1 3c bb ec 6c 3c
       0.022775652 0.009932764 0.019709531 0.014460738
0000c0 34 9c 04 3c 66 dc 90 3c 93 d3 94 3c 2f 75 22 3a
       0.008093882 0.01768322 0.018167293 0.0006197271
0000d0 d4 d2 e7 3c ad 48 d7 3c c3 9c d6 3b a8 6a a3 3c
       0.028298773 0.026279772 0.006549449 0.019948319
0000e0 fb db 96 3c a5 b8 2d 3c 9d ca 79 bc 87 35 96 3c
       0.018415442 0.010603105 -0.015246061 0.01833607
0000f0 c2 f4 a2 ba eb 73 b0 3b 4e b1 fb 3c f4 e1 0f bc
       -0.0012432563 0.0053849122 0.030724194 -0.008781899
000100 da a0 87 3c 78 17 02 bb 38 c4 17 3c ab b6 d7 3b
       0.016556192 -0.0019850414 0.009263091 0.006583055
000110 25 99 cd bb e9 86 fd 3b 6d 38 8b 3c 2d c6 d8 3c
       -0.0062743598 0.00773703 0.01699468 0.026461685
000120 94 81 08 3c f1 14 93 3b a3 a8 56 3b 22 63 09 3c
       0.008331675 0.0044885804 0.0032754324 0.0083854515
000130 9a b8 be 3b f9 f3 90 3c b9 45 af 3c a8 c4 a9 3c
       0.005820346 0.01769446 0.021395551 0.020723656
000140 f1 1a 05 3c c9 73 ab bc 1a e3 0e 3b 1e 6a 38 3c
       0.008124099 -0.020929234 0.0021802844 0.011255769
000150 21 e3 ef 3c ac aa a6 3c f2 e3 72 3c 02 a1 89 3c
       0.029283108 0.020345055 0.014824854 0.016800407
000160 5e 1e 74 bc eb b6 a1 3c 4f 6f 79 bc 38 bf 54 3a
       -0.014899818 0.019740542 -0.015224292 0.0008115652
000170 27 24 26 bc 0c 46 25 bc ed aa b8 3c 82 5e 15 bb
       -0.010140455 -0.010087501 0.022542441 -0.0022791927
000180 84 5a 32 3c be 52 ad 3c 80 ae 1d 3c c9 e3 0b 3c
       0.010885838 0.021157619 0.009624124 0.008538195
000190 84 5f e1 bb 40 70 07 3d 16 e2 95 bc b2 d1 9c 3c
       -0.0068778414 0.033066034 -0.018296283 0.01914296
0001a0 18 70 85 3c 76 35 b0 3b 7f 36 4e bc 4b 09 f2 3a
       0.016288802 0.005377467 -0.012586235 0.0018465904
0001b0 5f 02 1f 3c 6a d7 6c 3c fb a0 39 3c 33 32 21 3c
       0.009705155 0.014455656 0.011329885 0.009838629
0001c0 2f b5 5a 3c 9a 77 a7 3c 3d bf d7 bb 71 71 83 3c
       0.013348862 0.020442773 -0.0065840767 0.016045304
0001d0 13 21 a6 3b 07 c9 09 3d 91 a3 84 3c e9 c1 1a bb
       0.0050698607 0.03363898 0.016191276 -0.0023614115
0001e0 fd 24 62 bc 7d 89 72 bb d7 a2 a5 3c a2 ea d5 3b
       -0.013802764 -0.003700822 0.02021925 0.0065282146
0001f0 40 46 86 3c 9e cb 69 3b f1 f7 a0 3c 8c 5b 99 3c
       0.01639092 0.0035674344 0.019649478 0.01872041

action_model._discrete_distribution.branches.0.weight f4 [3, 128]
000000 57 26 55 bb 31 56 a0 3c 24 b5 b0 3a 79 d2 56 3c
       -0.0032524073 0.01957235 0.0013481718 0.013111704
000010 5d eb 8e 3b 2c 4a 89 bc c3 6e 80 3b ec 54 4e 3c
       0.0043615536 -0.016759 0.003919454 0.012593489
000020 22 ad 49 bc d3 56 91 3c 78 51 2a 3b 30 91 9d bc
       -0.0123093445 0.017741596 0.00259885 -0.01923427
000030 9b 8c bd 3b ae 4f 25 bc 2a 50 79 bc 12 ee b1 3c
       0.0057845837 -0.010089798 -0.0152168665 0.021719966
000040 b2 a3 d7 3b 89 eb f6 3a 1f b4 71 bc 76 b0 8e bc
       0.0065807933 0.0018838505 -0.014752417 -0.017418128
000050 b5 9c 77 bc 58 f1 b9 bc 74 ef 40 3b 49 f7 da 3a
       -0.015113045 -0.02269809 0.00294396 0.0016705777
000060 aa 10 8e bc 35 e8 f8 3b 3f 85 94 3c 1f 4b 1d bc
       -0.01734193 0.0075960406 0.018129943 -0.00960043
000070 72 e2 36 bb 79 39 ed 3b f2 ac 9d 3c fe 29 7d bc
       -0.0027905968 0.0072395173 0.019247506 -0.015451906
000080 7e be 7d bc ab 0b e0 3b 6c 0e d5 3c 6d e4 c3 bb
       -0.015487311 0.0068373284 0.026007853 -0.005978158
000090 fc 9e 91 bb 42 7e 97 bc 0d 51 a9 3c d7 f7 77 ba
       -0.0044440012 -0.018492822 0.02066853 -0.0009459233
0000a0 04 1a 11 bc d4 3e 9d bb 1c 26 9d bb 17 17 29 bc
       -0.0088563 -0.0047987495 -0.0047958028 -0.010320446
0000b0 ed e1 9a bc ed 91 84 bc 4e 94 2f 3c b0 b3 1b bc
       -0.018906558 -0.016182864 0.010716511 -0.00950329
0000c0 46 47 b5 ba b8 c4 8f bc a3 c5 0f bc 3b bb 08 bc
       -0.0013830445 -0.017549857 -0.008775148 -0.0083454205
0000d0 c4 b3 2b 3c 6b 5a d4 3c 0f ef 0b 3a 30 53 0f bb
       0.010479871 0.02592202 0.00053380517 -0.0021869652
0000e0 b0 49 02 bc 97 1c b5 bb 3e fe 3c 3b 39 12 c1 3c
       -0.007952139 -0.00552709 0.0028838064 0.02356826
0000f0 6c c4 8c bb 5b 71 1a bc f8 9c 09 bc 33 3c 72 3c
       -0.0042958762 -0.00942644 -0.008399241 0.01478486
000100 8a 3e 9d bc 04 07 da 3a 42 37 eb 3c 8a 02 9d b9
       -0.01919486 0.0016634171 0.028712872 -0.00029947265
000110 66 f4 d5 bb ec 7a 01 3c a6 2c 11 3c 9e fe 9b 3c
       -0.0065293787 0.007902842 0.008860743 0.01904231
000120 c6 76 3f 3c d6 7b 2d 3c a1 4e 1d 3c c2 9a 3d bc
       0.011686033 0.010588607 0.009601266 -0.011572542
000130 07 15 71 bb a8 94 92 3a 55 83 88 bc 26 40 1e ba
       -0.0036786215 0.0011183219 -0.016664186 -0.00060367805
000140 38 52 3a 3b b2 81 19 bb 30 be 03 3b fb 62 68 bb
       0.0028430354 -0.0023423252 0.0020102374 -0.0035459388
000150 c7 be 06 bc b8 0d 94 bc 06 32 bb bc 0b 1c c0 3c
       -0.008224196 -0.018072948 -0.022851001 0.023450872
000160 f0 f6 05 3c 1a b0 9a 3b 04 e3 fd b8 69 af 04 ba
       0.00817655 0.0047207 -0.00012106265 -0.00050615385
000170 83 ae ff 3c 7e a0 20 3c 09 8c f8 bb 91 18 75 bc
       0.031211143 0.009803889 -0.007585053 -0.01495947
000180 9b 6e 4c 3b ee 62 e0 3b fb ec 03 bc 2f 48 84 3c
       0.0031193856 0.006847731 -0.008052106 0.016147701
000190 bd cf e7 bc 07 71 05 3d 7b b7 5b 3c 71 55 ff 3c
       -0.0282973 0.032578494 0.013410444 0.031168671
0001a0 10 c1 32 bb e1 8e 8d bc 96 35 30 3c 7b 24 b0 bc
       -0.0027275719 -0.017280044 0.010754963 -0.02150177
0001b0 82 0a 05 3c 91 a5 33 3c a9 6f 1e 3c bb 4e be 3b
       0.008120181 0.010964767 0.009670177 0.0058077252
0001c0 89 d2 52 bc 45 ea 4c bc f4 c6 9e 3c e8 9c 3f 3c
       -0.012867578 -0.012507026 0.019381978 0.011695124
0001d0 ec 8d 15 3b 2e f6 b0 3b 4d 94 41 bc 0c b1 90 3c
       0.0022820188 0.0054004407 -0.011815143 0.017662548
0001e0 eb cf 84 3c 16 8d b7 bb 8d 66 da 3c 12 3b cb bb
       0.016212424 -0.0056015356 0.026660228 -0.00620211
0001f0 ef 71 4e bc 09 29 03 bb 49 96 b1 3c 11 87 f7 39
       -0.012600406 -0.0020013473 0.021678107 0.00047212144
000200 95 56 c1 3c fd 28 bf 3c 9a d8 6a 3d a4 d5 43 3c
       0.023600856 0.023334974 0.057335474 0.011952791
000210 c8 9e 13 bd 28 c3 9d 3c 4a 8e d3 3a 9c 75 08 bd
       -0.036040097 0.019258097 0.0016140428 -0.033315286
000220 78 38 c8 3c 94 33 85 bc 7c cf 24 ba 1e 29 0d bd
       0.024440989 -0.016259946 -0.0006287021 -0.03446304
000230 30 88 03 3b 62 98 24 3d 91 b3 af 3a 9a 40 6b bc
       0.0020070188 0.040184386 0.0013404955 -0.014358664
000240 40 0b a4 3b ce 14 af bc e7 10 0e 3d 0d 6c 20 3d
       0.005006224 -0.021372225 0.034684088 0.039165545
000250 6c 3a 11 3d 72 4f 12 3d 0e 94 20 3d c5 12 03 bd
       0.035456106 0.035720296 0.039203696 -0.032000322
000260 23 38 ae 3c b6 1f 72 bc db 7f 29 3c c5 a6 16 bd
       0.021267002 -0.014778068 0.0103454245 -0.036780138
000270 a6 96 b3 bc 24 23 ec bc 16 8f be bc e2 6c 9c 3c
       -0.02192242 -0.02882535 -0.023261588 0.019094888
000280 c4 b7 1d 3d c9 49 f1 bc c9 c1 1a 3c 49 e3 16 3d
       0.03850533 -0.029454129 0.009445616 0.03683785
000290 ac 6a 1d 3c 39 3d 0d 3d 89 57 ab bc 7b bd 07 bd
       0.009607952 0.034482215 -0.020915763 -0.033139687
0002a0 a9 4a 9a bb 31 a5 c6 bc 63 5f 13 bd 75 64 82 3c
       -0.004708607 -0.024248691 -0.03597964 0.015917042
0002b0 01 9b 88 3c 6f 0b ed 3c 57 c8 ca 3c 9a 47 05 3d
       0.016675474 0.028936116 0.024753733 0.032538988
0002c0 55 f9 b1 bc cd 75 32 3d ed 82 23 3d 0d ef 11 3c
       -0.021725336 0.043569375 0.039919782 0.008907092
0002d0 bc af 4f 3c 7c 11 62 bc fc 7e 8e 3c dd 54 47 bc
       0.012676176 -0.013798114 0.017394535 -0.012166229
0002e0 36 37 be 3c 24 6b c2 3c fc d5 03 bd a2 62 b2 bc
       0.023219686 0.02373273 -0.032186493 -0.021775547
0002f0 71 d5 07 bd 51 d1 f4 3c 78 4b 15 3d c5 c5 23 bd
       -0.033162538 0.029884966 0.036448926 -0.03998353
000300 8f 46 15 3d 8c 24 0c 3c 36 2f a3 3c b1 22 64 bc
       0.036444243 0.008553635 0.019919973 -0.013924287
000310 e8 5e 8e bc b5 22 b6 3b 69 12 e4 3c f9 6a f8 3b
       -0.01737924 0.0055583366 0.02784081 0.0075811115
000320 0b 18 0b 3c bb b9 0f bc 66 21 71 3c e5 fb e3 bb
       0.008489619 -0.008772309 0.014717435 -0.0069575184
000330 63 50 be 3c 2e c4 c2 3b 17 f4 ed 3c 7f 67 43 3c
       0.02323169 0.0059437966 0.029047055 0.011926531
000340 1c 51 d0 bc df f1 20 bd 8f bd 98 3c 2f 22 eb 3c
       -0.025429301 -0.039293166 0.018645076 0.028702823
000350 56 cd e0 3a d0 aa d9 3c 5f b0 dd 3c d1 bb 93 ba
       0.0017151039 0.026570708 0.02706164 -0.0011271184
000360 9f 75 2b bd 22 30 b1 3c 33 93 e7 bc 09 e8 ab bc
       -0.04186022 0.021629397 -0.028268432 -0.020984666
000370 27 96 87 bc f8 e0 3d bd c9 6c 9b bb 2a e1 09 bc
       -0.01655109 -0.046357125 -0.004743193 -0.0084155
000380 e7 60 9b bb 4c b0 c9 3c ea af bf 3c 2c 04 bb bc
       -0.0047417763 0.024620198 0.023399312 -0.022829138
000390 14 96 08 3c ca be b5 bb 6e 8b d5 bc 8e 09 79 bc
       0.008336563 -0.0055464255 -0.026067462 -0.015200032
0003a0 5d 96 ad 3c 67 3e 03 3d 4c 46 47 bc 8e a9 c4 3c
       0.021189863 0.032041933 -0.012162756 0.024006631
0003b0 f0 23 a4 3c 36 05 01 bc 6d 1d 28 3d 82 d9 b2 3c
       0.020036668 -0.007874778 0.041043688 0.021832231
0003c0 ab 52 2f 3d a3 f3 52 b9 4f 23 59 bc 63 bb 8d bc
       0.042803448 -0.00020117922 -0.013253047 -0.017301267
0003d0 eb 20 ee 3c 62 d6 1e 3c 66 a6 dc 3c 96 ba 51 bd
       0.02906843 0.0096946675 0.026934814 -0.051203333
0003e0 4c 07 35 bd 3e 79 61 bb 4e 0a e8 3a a2 99 c7 3b
       -0.044196412 -0.0034404541 0.0017703266 0.0060913125
0003f0 a1 de e1 3c ed bc 57 bc 06 db d2 3c 35 6f de 3c
       0.027571978 -0.013167602 0.025739204 0.027152637

action_model._discrete_distribution.branches.0.bias f4 [3]
000000 e2 34 e5 bb eb a6 d3 3c cd fc 97 bc
       -0.0069948295 0.025836429 -0.018553162

action_model._discrete_distribution.branches.1.weight f4 [3, 128]
000000 9f e2 7f 3b 27 70 a8 bb 1d 44 c3 bc ce fe b7 bc
       0.0039044989 -0.0051403227 -0.02383619 -0.022460368
000010 df e6 27 bd 8f 7c 0d 3c 90 8e 65 bb a4 e0 07 bc
       -0.04099166 0.008635654 -0.00350276 -0.008293305
000020 a5 a5 61 bc 38 4a e6 bb f1 7e 06 bd 2f ee 1f bb
       -0.013772403 -0.0070278905 -0.032835905 -0.0024403443
000030 7a a6 25 bc a2 e3 89 3c 33 ba 8a 3c 5e 63 c0 bc
       -0.010110492 0.016832177 0.01693449 -0.023484882
000040 82 e3 f3 bc 0b 52 4a 3b a8 09 d7 bc 85 ca 0b bc
       -0.02977157 0.0030871655 -0.026249722 -0.008532171
000050 02 82 bf ba a3 21 97 3b d5 e5 39 3c 59 e1 5f bc
       -0.0014610889 0.004612164 0.0113463 -0.013664567
000060 9d 9c 6c bc 7a ad 6f bb 45 c3 92 bc 34 43 f7 bb
       -0.014441636 -0.0036571906 -0.017915377 -0.007545853
000070 b0 e6 a0 bc 5b 54 54 3b 03 73 33 bc be 6d 03 3b
       -0.01964125 0.0032398913 -0.010952714 0.0020054425
000080 44 ef 66 ba 2a 6e 45 3c f0 ba 5c bc 7f 47 93 3c
       -0.0008809457 0.012050191 -0.013472304 0.017978428
000090 01 2b fe b9 d7 07 da 3c 00 92 ad bc be 4c e6 3b
       -0.00048478696 0.026615066 -0.021187782 0.0070281914
0000a0 95 1e a9 ba 6f 44 46 bb bf 87 77 bb 2a 96 24 3b
       -0.0012902791 -0.0030253192 -0.003777012 0.0025113919
0000b0 23 87 6c 3a b8 30 e5 38 5c 1f 4b 3c 0f 09 06 3d
       0.00090228225 0.000109286455 0.012397613 0.032723483
0000c0 56 60 4c bc 39 56 49 3b 56 18 08 3c 2f ae 4d bc
       -0.01247414 0.0030721559 0.008306583 -0.012553736
0000d0 73 b0 11 3a 14 5b c5 bc a2 6c 07 bd a3 07 8e bc
       0.0005557604 -0.024091281 -0.033062585 -0.017337626
0000e0 13 68 80 3b 81 31 96 bb 54 fb b4 3b ab 64 9f bb
       0.0039186566 -0.004583538 0.0055231247 -0.0048642955
0000f0 3d c8 ae 3b 4f f1 ff 3c 13 1a 45 bd cc 77 10 bc
       0.005333929 0.031242995 -0.04812057 -0.008817624
000100 a5 81 8a 3c d1 24 b4 bc 02 9e 04 bd ac bc 45 bd
       0.016907522 -0.021990212 -0.03237725 -0.048275635
000110 64 ba 0d 3c e7 dd 54 bc 85 0f 0d bc 71 e3 86 bc
       0.008650396 -0.012992359 -0.008609657 -0.016465874
000120 2c 4a f0 39 fc 08 8c bc 2b 9f 4f bb 5d 77 dc bc
       0.0004583163 -0.017094128 -0.0031680565 -0.026912386
000130 eb 18 b2 bc 7c 78 03 bd 12 6b e5 3b f2 b4 4c bc
       -0.021740397 -0.032097325 0.007001289 -0.012494313
000140 57 cc b7 bb dc 61 ba 3b f5 b5 13 3a 03 c1 34 3c
       -0.005609076 0.0056879353 0.00056347187 0.011032346
000150 3c 62 6b 3c 18 74 25 bb c5 82 2e bc e8 42 92 bc
       0.014366683 -0.00252462 -0.010651295 -0.017854169
000160 c8 b1 e1 ba 1b db c6 39 4f cc d8 3b 2b 6b 60 bb
       -0.0017219121 0.0003792875 0.0066161524 -0.0034243565
000170 94 44 5f bc b8 a4 07 3c 59 05 8f 3c a2 87 5b 3c
       -0.01362719 0.008279018 0.017458605 0.013399037
000180 8e d4 a2 bc e3 8b 6d bc db ac a0 bc a1 e7 6d bc
       -0.019876745 -0.014498684 -0.019613674 -0.014520557
000190 0a 15 0b 3d cd 91 a1 bc cc 58 f7 b9 ca c1 11 bd
       0.03395561 -0.019722844 -0.0004717767 -0.035585202
0001a0 4f 82 88 bd d4 90 47 3c 1f ce aa 3c 1c a2 d1 3b
       -0.066654794 0.012180526 0.02085024 0.006397499
0001b0 da b0 8a bc 67 54 76 3c af bd 01 bd 93 66 00 bd
       -0.016930033 0.0150347715 -0.031675037 -0.031347822
0001c0 44 8b d1 3c d4 35 b6 bc 30 f5 8a 3b 91 e9 15 bd
       0.025579102 -0.022242464 0.0042406544 -0.0365997
0001d0 70 ec dc bc 67 1e 46 bc d2 01 cc 3b 56 d0 03 bc
       -0.026968211 -0.012092209 0.006225803 -0.008045277
0001e0 3b 2e d1 38 d7 82 8b bc 17 a4 ac bc 90 8f 86 bc
       9.974508e-05 -0.017030163 -0.021074338 -0.016425878
0001f0 d2 44 1f bc a3 61 da bc 80 10 53 bd 72 16 0c bd
       -0.009720998 -0.026657885 -0.051529408 -0.034201093
000200 2f d5 74 bc 22 41 43 bd f9 28 10 3d c3 59 49 3d
       -0.014943405 -0.047669537 0.035195325 0.04915787
000210 85 45 6c 3c 37 97 24 bd 98 cc 17 bd 7e 63 f8 bb
       0.014420872 -0.040183272 -0.03706035 -0.00758022
000220 4a e4 4f 3c 20 6c f8 bc 1a 6a b5 3d 9d 1b 28 3d
       0.012688706 -0.030324996 0.08858128 0.04104196
000230 39 83 ae 3c 00 74 f6 3c 0c 79 69 3b 37 2c 33 bd
       0.021302806 0.03008461 0.0035625128 -0.04374334
000240 d0 f0 39 bd 7e b9 17 bc 70 c8 94 3c 87 a9 1e 3d
       -0.045395672 -0.009260533 0.018161982 0.038735893
000250 a3 b7 ca bc c1 2f 03 bd d4 83 cd 3c 2a 3d ed 3c
       -0.024745768 -0.032027964 0.025087275 0.02895983
000260 75 59 9d 3d d9 63 fb ba 78 0a a8 bc 58 19 ba bc
       0.07683078 -0.0019179537 -0.020512804 -0.022717163
000270 83 a9 a5 3c e6 b5 32 bd e2 c3 22 3d 73 ec 18 3c
       0.020222431 -0.043630503 0.03973759 0.009333718
000280 ee 67 a7 bb 7e e1 a5 3c 16 27 82 bd 43 77 f9 bb
       -0.005108825 0.020249125 -0.06355111 -0.007613094
000290 0a 59 38 bd e3 36 31 bd 1f ac 44 3d 3f df 4c bb
       -0.04500679 -0.043265235 0.04801571 -0.0031260995
0002a0 91 bf 78 bd 0d fb 36 3c b6 fd 93 3c 30 6d 08 bd
       -0.060729567 0.011168254 0.018065315 -0.033307254
0002b0 e2 39 a0 bd 31 28 bd 3b 0e 22 24 bd 63 b6 9d 3c
       -0.0782354 0.0057726135 -0.04007154 0.019252008
0002c0 86 34 32 3d 44 6f e2 3c 42 32 4f bc 8f 13 54 3d
       0.04350712 0.027640946 -0.01264626 0.051776465
0002d0 66 4d 98 bd b4 b7 85 bd 40 66 86 3d 9d 54 b2 bc
       -0.074366376 -0.06529179 0.065624714 -0.021768862
0002e0 96 07 48 bd 7e 31 75 3d c7 18 d1 bb bd 9f d7 bc
       -0.04883536 0.059861653 -0.0063811275 -0.026321286
0002f0 1c c3 cb bb b3 67 9a bc 7d 56 94 3d 55 83 59 3b
       -0.006218327 -0.018848276 0.07243059 0.0033189852
000300 de d5 0e bc 6f 57 98 3d 0a 81 9c 3d a0 c7 54 3d
       -0.008717982 0.07438552 0.076418 0.05194819
000310 a1 6f 2b 3b 9c 8b 43 bd ad 31 dd 3b a8 9e 91 bd
       0.0026159065 -0.047740564 0.0067503066 -0.071103394
000320 0c 62 3f b9 61 91 e2 bb 9a 27 86 3d b3 e5 8a 3d
       -0.00018251705 -0.006914303 0.06550522 0.06782093
000330 d2 01 02 3c 33 cb 99 3d fe 26 75 bd c0 de 81 bd
       0.007935004 0.0750946 -0.05985164 -0.06341314
000340 1c ad 30 3a 68 af 95 bc 2d bb 80 3d f1 a0 06 bd
       0.00067396625 -0.018272117 0.06285701 -0.03286833
000350 a3 7f 94 bd a0 bd 30 3c 11 68 cd bb 4d 92 5f bd
       -0.07250907 0.010787398 -0.006268509 -0.054582883
000360 92 1b 53 3c b6 04 55 bd 4e 51 c5 3b 3c f5 1d 3d
       0.012884991 -0.052006446 0.006021655 0.03856395
000370 06 bb bd 3c eb 41 17 3b e3 98 be bd 3a 57 07 bd
       0.023160469 0.0023080062 -0.093065046 -0.03304217
000380 ef cc bb 3d 39 11 da bc 9b 95 f3 3a 78 a8 1c bd
       0.09169947 -0.02661954 0.0018584015 -0.0382466
000390 52 59 14 bb 42 8d 61 bd 55 14 09 3c 27 e8 9a bd
       -0.0022636247 -0.055066355 0.008366664 -0.07563811
0003a0 34 16 c4 3d 92 0e 12 3c 95 92 cb bb 39 11 33 3c
       0.095745474 0.008914607 -0.0062125423 0.010929399
0003b0 6c 87 93 3d 9b 1f 93 bd 4d 42 aa 3d b0 84 2a 3d
       0.07203564 -0.07183763 0.08313427 0.041630447
0003c0 07 3b 2e bc 17 99 36 bd 7e 46 4f 3d 14 26 64 bd
       -0.01063419 -0.04457959 0.050604336 -0.055700377
0003d0 5b df 88 3d 95 46 69 bd 8c cc e0 bc 9c fa b4 bb
       0.06683227 -0.056952078 -0.027441286 -0.005523039
0003e0 ad ff 64 3b e8 b1 a1 bb e0 19 24 bd 82 b2 3b 3d
       0.0034942434 -0.004934538 -0.04006374 0.045824535
0003f0 e1 b6 6f 3d 94 7e 4f 3d 99 84 89 3d c2 56 3a 3d
       0.058524016 0.050657824 0.06714744 0.045492895

action_model._discrete_distribution.branches.1.bias f4 [3]
000000 dd 32 d3 bb d7 63 11 bc ca 90 85 3c
       -0.0064452724 -0.008873901 0.016304392

critic.network_body.linear_encoder.seq_layers.0.weight f4 [128, 37]
000000 8e 6e 18 3e 82 f3 57 3e c0 2e 3f be 58 67 8a 3a
       0.14885923 0.21088985 -0.18670177 0.0010559363
000010 3b 98 96 bd 5e e8 0a be 8b 6a 87 bd fd 76 00 3e
       -0.073532544 -0.13565204 -0.06612118 0.1254539
000020 04 2f 6a 3d 66 0e 95 3e 9c 5f ba 3d 86 f2 0a be
       0.057173744 0.29112548 0.09100267 -0.13569078
000030 81 fd b5 3e da 09 9e 3b be 36 47 3d f2 c6 cf 3d
       0.3554497 0.0048229517 0.04863619 0.10145368
000040 5e 69 6f be 0f 1e 0a 3e bb 41 68 be 53 2d f7 3d
       -0.23380038 0.13488029 -0.22681324 0.12069192
000050 53 13 1b be 2f 28 0d be f8 69 eb bd 55 da 88 be
       -0.1514409 -0.1378486 -0.11494821 -0.26729074
000060 f1 04 8e be 8a 50 00 be 0c c4 b0 3e 3c ae 35 3c
       -0.27738145 -0.12530723 0.34524572 0.011088904
000070 f2 c7 99 bd a8 97 82 bd 51 9e 1f be 1a a7 4b be
       -0.0750884 -0.063765824 -0.15587737 -0.19887963
000080 9c ac 58 3e fe 7a 08 be 1b 2a df 3d f7 97 a3 bd
       0.21159595 -0.13328168 0.10896703 -0.07987969
000090 ed fa 8c 3e 60 ad 61 be 13 f7 af bd a0 97 84 be
       0.2753519 -0.22038794 -0.085920475 -0.2589693
0000a0 10 82 30 3c e3 ab 2b be 52 42 94 3e 05 49 99 be
       0.010773197 -0.16764788 0.28956848 -0.29938522
0000b0 95 e0 0c bd 7b d1 97 be de 6c 34 bc 67 6b 07 bd
       -0.034393866 -0.29652008 -0.011012284 -0.03306141
0000c0 1a 19 0b be 4d 9b 04 3e 3d b1 6d 3e 41 3c 2e 3e
       -0.13583794 0.12949868 0.23212142 0.17015173
0000d0 22 9d 11 bd 0c fc 7b be 27 92 0a bb cd 70 29 be
       -0.035550244 -0.24607867 -0.0021144242 -0.16546936
0000e0 d0 77 c3 3d 41 77 39 be 78 b7 a4 3e 7d 24 21 3e
       0.09544337 -0.18111898 0.32171226 0.15736575
0000f0 e8 24 d7 3e 14 3a ac be 88 a4 b4 3e 48 1b 82 3c
       0.42020345 -0.3363806 0.35281777 0.01588215
000100 97 aa 0a 3f 39 00 59 be 5e 4f 1c bd 05 60 a5 3c
       0.5416655 -0.21191491 -0.038161628 0.020187387
000110 3c 83 df 3d 13 fb 54 bd cd 12 b6 3d 18 ad 7a 3e
       0.10913703 -0.051997256 0.08890305 0.24480093
000120 d3 d8 7f 3e 35 49 ed be 05 f7 d6 3d 5f 72 4f 3e
       0.24985056 -0.46344915 0.10496334 0.20258473
000130 11 3e b1 be 1c 98 78 be 32 de 88 bd 0a 2a 6f 3e
       -0.34617665 -0.24276775 -0.066830054 0.2335588
000140 87 c4 97 3d 9b e5 0d be bf fc 93 3e 88 b3 47 3d
       0.074105315 -0.13857119 0.28903767 0.0487552
000150 5e 66 53 3c f5 29 0f 3d 28 36 9b 3d a6 e7 f5 3c
       0.012902824 0.034952123 0.07578689 0.030017685
000160 47 a2 4e bc 58 99 99 be 66 79 11 bc 12 b4 23 be
       -0.012611932 -0.29999804 -0.008879041 -0.1598666
000170 60 4c d5 3c b7 a2 df bd e9 d8 8a 3d d1 44 3f 3e
       0.026037395 -0.10919707 0.067796536 0.18678595
000180 fe b9 dd bd a8 ae 84 3d f1 b9 e8 bd 1f 59 16 3e
       -0.10826491 0.064786255 -0.113635905 0.14682434
000190 17 50 93 3c 24 31 35 3e 6d 12 6a be 1f cb 53 3c
       0.017982526 0.17694527 -0.22858591 0.012926846
0001a0 ae 47 c6 bd c9 02 fd bd 2f 36 d0 bc 34 5d f8 3d
       -0.096816406 -0.12354047 -0.025416462 0.12127152
0001b0 9a 3c 37 bd 36 f1 a7 3d 28 bd 24 3e 1a a0 fd 3d
       -0.04473553 0.08200304 0.16087782 0.123840526
0001c0 0e 2b 80 3c be 81 d6 bd 93 3c 94 3d 92 d8 2e bd
       0.01564553 -0.10473965 0.07238116 -0.042687006
0001d0 c7 67 47 bd b0 c1 33 be 87 0b ae 3e 3d fe 98 3e
       -0.048682954 -0.17554355 0.3399317 0.29881468
0001e0 e0 0c 2b 3e a8 50 7f 3d 73 c7 f1 3d f9 bf 28 bd
       0.1670413 0.06233278 0.1180562 -0.041198704
0001f0 31 69 f2 3d 1f 56 41 bd d0 74 43 3c 20 33 ba be
       0.1183647 -0.047201272 0.011929706 -0.3636713
000200 94 41 9f bb 11 8c 0f bd 1c fe 04 3e ee ec 07 3e
       -0.0048601124 -0.035045687 0.1298756 0.13273975
000210 fa 79 dd 3e 51 f4 8a be 5d 87 82 3e 9a 0c 2b be
       0.43257123 -0.27139524 0.254939 -0.16704026
000220 af a5 04 3e 6a dc 23 3e dc c2 8e 3e fd e7 fa 3d
       0.12953828 0.1600205 0.2788304 0.122512795
000230 75 76 b4 bd 13 df 0b 3d 42 7d 72 bd d5 19 66 be
       -0.088116564 0.034148287 -0.059201486 -0.22470792
000240 89 16 94 3d d4 45 87 3d d5 eb dc bd dc 1d bc 3d
       0.07230861 0.066051155 -0.10787169 0.09185383
000250 77 c8 dd bd 67 ef ae be 91 3d 19 be d6 6d ba 3e
       -0.10829251 -0.34167024 -0.14964892 0.36411923
000260 af db 78 bd 90 44 f1 3d 29 5e 10 3e b4 08 ca 3e
       -0.06075638 0.117806554 0.14098419 0.39459765
000270 e8 44 a8 bd c4 d0 a1 be a4 8b 59 bd da 5e 01 3e
       -0.08216268 -0.31604588 -0.053111687 0.12633839
000280 71 79 ba 3c 3b d8 c3 3b 1e b1 4a 3e bf 5b a4 be
       0.022762986 0.0059767044 0.19794127 -0.32101247
000290 db 6f 6a bd 30 8f fc 3d 64 92 7f 3d 01 d9 80 3d
       -0.05723558 0.12331998 0.06239547 0.0629139
0002a0 74 1c 8d bd e7 a7 b1 3d fb fb c2 bd 58 dd 47 be
       -0.06890193 0.08674603 -0.09520718 -0.1951803
0002b0 ff 8c 8c ba 54 20 e8 3d 2c 8e 34 3e 97 48 11 be
       -0.0010723172 0.11334291 0.1763236 -0.14187847
0002c0 a9 81 38 bd f4 a4 65 be 5c 9e ce 3d 69 a4 91 3d
       -0.04504553 -0.22426206 0.100887984 0.07111437
0002d0 1b 4b 84 3e 99 f8 af 3c 03 e4 46 be 9b 1e 4c 3d
       0.2583855 0.021480845 -0.19422917 0.049833875
0002e0 24 63 39 3e 61 f6 57 3e 1b 66 39 bd 6f 63 ae bd
       0.18104225 0.2109008 -0.04526339 -0.08515059
0002f0 2c f2 30 3e ee e8 f9 bc 9c a0 02 3e 29 e1 b6 3d
       0.17279881 -0.030506577 0.1275658 0.08929665
000300 69 e4 80 3e e6 5d 8a 3e 74 89 5d 3e 97 b8 7f 3e
       0.25174263 0.27024764 0.21634465 0.24972759
000310 bd 7b 8c bd f9 88 15 be 2c 67 43 3e 21 c1 31 3e
       -0.06859539 -0.14603032 0.19082326 0.17358829
000320 ae ed 7d 3d 78 c6 c8 bc c8 44 cb 3c a5 03 85 be
       0.061994247 -0.0245087 0.02481307 -0.25979343
000330 c4 31 80 3a 4e ac 16 bd 14 4b 86 3d 1d e7 7c be
       0.0009780456 -0.036785416 0.06557289 -0.24697538
000340 d3 dc 1f be 33 49 8d 3d 73 25 97 3e ec 65 9a bc
       -0.15611582 0.06898727 0.2952076 -0.018847428
000350 3f 46 e3 bd 5e ad 08 3e 68 2e 1a 3e 0f 6f 95 3e
       -0.11097383 0.13347384 0.15056765 0.29186293
000360 82 88 20 be 8a a6 59 3d 07 66 13 3e 5b 50 6d 3d
       -0.15677074 0.05313734 0.14394389 0.05793796
000370 a7 ff f3 bc 3b c1 f2 3b a1 f6 84 3e 10 a1 38 3d
       -0.02978499 0.007408289 0.25969413 0.045075476
000380 16 c3 9e be c1 be 72 bd a9 1c 47 3e e2 d1 84 3e
       -0.31008214 -0.05926395 0.19444527 0.25941378
000390 b9 62 d1 3d 7d 51 87 3d 29 48 fd bd 8c 3a 4b 3e
       0.10223908 0.066073395 -0.12367279 0.19846553
0003a0 0c cc 2e 3e a1 7b 45 bc 71 e6 73 3d 70 bb 42 3e
       0.17070025 -0.012053401 0.059545938 0.19016814
0003b0 51 29 22 3d 74 b6 3a be 1e ec 00 be e8 9e 5c 3d
       0.039590184 -0.18233663 -0.12590072 0.053862482
0003c0 b9 04 77 3c af b1 df 3d bd cb ad bc c5 19 e5 3c
       0.01507681 0.10922562 -0.021215314 0.02796639
0003d0 40 12 d5 3d be a1 0f be 24 91 e7 be 65 be b9 bd
       0.104038715 -0.14026543 -0.4522792 -0.09069518
0003e0 c4 29 ac be e4 d6 cd 3d ea fb ee 3d 56 87 2c be
       -0.33625615 0.10050753 0.116691425 -0.16848502
0003f0 ee 2e e1 3e 38 91 05 be cb d7 12 be 35 79 f3 3c
       0.43981117 -0.13043678 -0.14340131 0.029720882

critic.network_body.linear_encoder.seq_layers.0.bias f4 [128]
000000 cb 8c 7c bb 49 ee b1 3c 23 22 85 3c 7f 14 b6 3c
       -0.0038536068 0.021720069 0.01625163 0.02222657
000010 80 fe 55 3c 7a 61 8b 3b 48 ed 51 bc 24 95 77 3b
       0.013061166 0.0042535635 -0.01281292 0.0037778104
000020 3a 6e 01 bb 9f 06 6e 3d 00 35 b6 3a f2 17 74 bb
       -0.0019749538 0.058111783 0.0013901293 -0.0037245718
000030 97 54 06 3d 14 cc 96 ba 22 85 93 3c 51 4a 8c bb
       0.032795515 -0.0011504912 0.018007819 -0.00428132
000040 ca 11 68 bb 73 3c 10 bc 43 06 0e bc 9b 95 7c 3c
       -0.0035410994 -0.008803475 -0.008668485 0.015416528
000050 5a 32 a2 bb 91 71 f9 bb 2d c1 f9 3a 4a 03 e3 3c
       -0.00494985 -0.007612415 0.0019054763 0.02771153
000060 44 31 fd 3c 64 21 83 3c 8c 4c 09 bc e6 8d 80 3c
       0.03090728 0.016007133 -0.008380067 0.015692662
000070 62 f0 69 bb 2b 5b 23 3c 11 05 d3 bb ed ce 6b bb
       -0.0035696258 0.009970467 -0.006439813 -0.0035981492
000080 78 eb 20 bb cd b3 3a 3c 6b 52 db ba 44 4b d2 bb
       -0.0024554413 0.011395407 -0.0016732936 -0.006417664
000090 2c b2 5e 3a e9 1a 9e 3c 18 21 eb b9 3c 8a 42 3c
       0.00084951776 0.019299941 -0.0004484735 0.011873778
0000a0 fe d0 5e bc dd 16 c3 bb f3 0b 48 bb 82 5f a8 bb
       -0.013599632 -0.0059536532 -0.00305247 -0.0051383385
0000b0 5f 73 7b 3c 11 f3 a2 3b d5 48 30 bc ab 11 aa bb
       0.015347331 0.0049728234 -0.010759552 -0.0051900945
0000c0 8e 08 08 3c 69 05 ac 3c fe 68 0d 3c 37 75 99 bb
       0.008302821 0.020998674 0.008630989 -0.0046831626
0000d0 9f b2 e5 bb 26 e7 be 3c e4 c5 75 39 d3 39 de 3a
       -0.0070098187 0.02330358 0.00023438741 0.0016954489
0000e0 12 df b6 bb ca dc 52 3c 36 3d 1e 3a 04 61 4b 3c
       -0.0055807913 0.012870023 0.0006036343 0.012413267
0000f0 90 93 ad 3b 39 5a ec 3a da e7 25 3c 43 58 25 bc
       0.005297132 0.001803226 0.0101260785 -0.010091844
000100 c8 bf 8c 3c e4 f6 48 ba e9 a3 1c 3c ca b7 5e 3c
       0.017181292 -0.0007666184 0.009560564 0.013593623
000110 74 59 62 3d ba 84 21 3c 41 33 d4 3c bf e8 22 bc
       0.05526109 0.009858305 0.025903346 -0.009943186
000120 1b 3f 9c bb 63 a1 bf 3c b5 ab 04 bc 8c 14 3a 3c
       -0.004768265 0.023392385 -0.008097579 0.011357438
000130 4d e9 f5 ba 58 05 ec bb 23 9d 08 3c a7 36 db bb
       -0.0018761546 -0.0072027855 0.008338246 -0.0066898647
000140 5f a7 44 bb 7d 5a 79 3c 9d 26 13 3c f8 87 b0 bc
       -0.0030006988 0.015219328 0.008981374 -0.02154921
000150 8b 0f 84 3b 83 22 86 3a 8c ef cd 3a d0 e7 d3 3b
       0.004030173 0.0010233674 0.0015711649 0.006466843
000160 b0 51 ac 3c 05 f1 0b 3c fc 27 dc 3c 3d a9 50 3d
       0.021035045 0.00854135 0.026874535 0.05094265
000170 ac 3c a2 3a 61 c7 9a 3b 1f e8 17 3b 30 e5 0f bc
       0.0012377701 0.004723475 0.0023179126 -0.00878267
000180 4b d2 41 ba f6 aa 90 b9 21 5b 57 3b 31 a6 28 3c
       -0.0007393702 -0.00027593196 0.0032860714 0.010293529
000190 a7 7e 08 bc 79 0d 3d bc 8f 9c a2 3c 72 8f 83 bb
       -0.0083309775 -0.011538857 0.019850044 -0.0040149027
0001a0 3d c5 7a 3c 2b d7 0f bc 3f 92 b5 ba 4d 73 58 3c
       0.015305814 -0.008779327 -0.0013852789 0.013211084
0001b0 e2 a8 49 3c b9 37 c8 bb a4 11 ef 3c 84 ef 80 bb
       0.012308331 -0.0061101583 0.029183216 -0.0039348025
0001c0 c5 5d 2f 3c 1b 04 14 bc c3 2c 09 3c 8b 63 09 bc
       0.010703509 -0.009034182 0.008372488 -0.008385549
0001d0 3e eb 3b 3c 78 1a d3 3b bd f8 57 3a 65 2d 30 3c
       0.01146966 0.0064423643 0.0008238664 0.01075301
0001e0 68 99 ac 3b eb 2a 74 3a 9e 33 2b 3c 8e 3e 38 3c
       0.005267311 0.00093142566 0.010449318 0.011245383
0001f0 63 ac ea 3b 18 bb 29 3c b5 38 d1 3c b6 ff 74 3c
       0.0071616634 0.010359548 0.025539735 0.014953544
