results/Train8/DriveAroundTrack/checkpoint.pt (torch, 541687 bytes, 39 tensors)

network_body.linear_encoder.seq_layers.0.weight f4 [128, 37]
0.2163863 0.043589734 -0.06380676 0.003641182 0.26158127 -0.09906239 0.2707779 0.3653378
-0.009673499 0.22788589 0.26806116 0.120939545 0.44762155 -0.34089896 0.06367931 -0.16481917
-0.1755255 0.32535186 -0.13283266 -0.12943868 0.17199597 0.08576426 0.064006925 -0.0033609439
-0.096172795 0.031594478 0.10681551 0.108937934 0.06227247 0.2586308 -0.14392632 -0.013071991
0.08462098 0.10315362 0.25262308 0.39024004 -0.25377384 0.40266162 -0.3930015 -0.06948407
0.028228609 0.26505098 0.18886676 0.0042901044 -0.23012912 -0.16156903 0.11883178 0.14571397
0.34630218 0.10391071 -0.04762977 0.06698752 -0.0075183352 -0.00318608 0.14085221 0.3336579
-0.0042014946 0.057242595 0.1200866 0.06685 -0.12963447 0.22606584 0.353491 0.2894328
-0.156164 0.007832488 0.07091517 -0.11225669 -0.0019309871 0.08702078 -0.13773753 0.12091621
-0.033789136 -0.07672653 -0.07427911 -0.13891332 0.031175658 0.25660428 0.0037361502 0.14972575
-0.056851245 0.03002719 0.20865417 -0.10801224 -0.22281972 -0.0969028 0.15487896 0.016905101
0.059499685 -0.20391358 0.2281835 -0.1844586 0.15701939 0.024841141 0.036933318 0.098221935
0.0021041026 -0.082210094 -0.12865798 -0.320851 -0.31636664 -0.15576458 0.14697102 0.11918818
-0.15322773 0.37425742 -0.053445134 -0.074986756 -0.22414042 -0.16828872 -0.09185256 0.46638584
0.14795448 -0.20029339 -0.16054617 -0.18707104 0.2987881 0.007738523 -0.10871386 -0.03928034
-0.11539711 0.070306145 0.007203012 -0.078960516 0.004797584 0.006916254 0.22322631 -0.08145976
0.2905596 -0.2454912 0.22108498 0.30855033 0.17930008 -0.011074751 0.44185784 0.15715535
0.06655783 0.10790073 0.117314786 0.08623321 0.078559905 -0.08726418 -0.18291284 -0.14206763
0.11730796 -0.14256227 0.13246524 0.10125264 0.09219071 -0.010956058 0.15049852 0.23328613
-0.0839273 0.36343074 -0.0018926378 0.34767234 0.068924494 0.19652621 0.18404269 0.14734483
0.34804064 0.1664499 -0.13082479 0.28622788 0.18913543 -0.095954016 0.07951719 -0.09115733
0.13061996 -0.1358072 0.15395908 0.06215424 0.0010417725 0.10304003 0.30197096 -0.09543746
-0.054943122 0.03632697 -0.21226583 0.071448855 -0.12863366 0.2520944 -0.0045871153 -0.015513843
0.30769822 0.28281063 0.39613116 -0.15753438 -0.098190874 0.3069607 -0.03379837 0.08799625
0.0728537 -0.14590642 0.12689519 -0.23696949 -0.02995371 0.17675363 -0.07760264 0.105646715
0.15784977 -0.18079062 -0.051134393 -0.16439208 -0.06417658 0.0019951742 0.036851086 0.07850649
-0.051613256 -0.25842676 -0.04310728 -0.05579462 0.02927962 0.10411325 -0.041601267 0.09332493
0.102849714 -0.37390384 0.44740605 0.23301002 0.032525674 0.0922713 -0.06144941 0.15014149
0.059641596 0.18182398 0.17946555 -0.083089165 -0.26609063 -0.12493231 -0.32005757 0.10720484
-0.004804083 -0.0020085904 0.05563577 -0.10697973 -0.24750258 0.40418503 0.009766708 0.08366469
0.14506403 0.13775867 0.09656965 -0.33951733 0.07372904 0.2802828 -0.05184244 -0.077085376
0.10329977 0.14657646 0.056768697 0.03324381 -0.0506823 -0.26590317 0.0681455 -0.023068879
00000000: 5f94 5d3e 268b 323d 1ead 82bd e6a0 6e3b
00000010: fbed 853e 39e1 cabd 67a3 8a3e 8e0d bb3e
00000020: 987d 1ebc eb5a 693e 503f 893e 27af f73d
00000030: a72e e53e 4f8a aebe 4c6a 823d 5bc6 28be
00000040: f5bc 33be 8594 a63e 4905 08be 938b 04be
00000050: b61f 303e 2ca5 af3d 1016 833d 4843 5cbb
00000060: 3ef6 c4bd 3669 013d 17c2 da3d da1a df3d
00000070: 6b11 7f3d 426b 843e 6c61 13be e72b 56bc
00000080: c44d ad3d 3542 d33d d057 813e 8bcd c73e
00000090: a5ee 81be aa29 ce3e 7e37 c9be aa4d 8ebd
000000a0: af3f e73c c3b4 873e 4a66 413e 0194 8c3b
000000b0: f8a6 6bbe 5a72 25be 145e f33d 0b36 153e
000000c0: 854e b13e 23cf d43d 6f17 43bd c130 893d
000000d0: 5e5c f6bb 8dcd 50bb 903b 103e 35d5 aa3e
000000e0: b1ac 89bb 3677 6a3d f7ef f53d a7e8 883d
000000f0: e6be 04be ce7d 673e c6fc b43e 8930 943e
00000100: 75e9 1fbe d653 003c f93b 913d d6e6 e5bd
00000110: 2d19 fdba f337 b23d 110b 0dbe eba2 f73d
00000120: 7a66 0abd cd22 9dbd a51f 98bd 4b3f 0ebe
00000130: 1864 ff3c a361 833e 33da 743b b551 193e
00000140: dadc 68bd 95fb f53c 70a9 553e 8535 ddbd
00000150: da2a 64be fa74 c6bd 9798 1e3e 917c 8a3c
00000160: f1b5 733d b9ce 50be efa8 693e b7e2 3cbe
00000170: b1c9 203e a67f cb3c 6447 173d 9528 c93d
00000180: fce4 093b c45d a8bd ebbe 03be 9546 a4be
00000190: cffa a1be c080 1fbe 927f 163e ef18 f43d
000001a0: bbe7 1cbe ab9e bf3e 49e9 5abd a892 99bd
000001b0: 1185 65be e153 2cbe 321d bcbd 20ca ee3e
000001c0: 6181 173e b619 4dbe 3766 24be 8d8f 3fbe
000001d0: c1fa 983e 7093 fd3b 5fa5 debd 6ce4 20bd
000001e0: 5255 ecbd abfc 8f3d 3e07 ec3b 0db6 a1bd
000001f0: 0d35 9d3b bea1 e23b 7095 643e 60d4 a6bd
00000200: 3ac4 943e 0c62 7bbe 1a64 623e 4ffa 9d3e
00000210: 719a 373e df72 35bc 313b e23e 55ed 203e
00000220: 794f 883d 0ffb dc3d bc42 f03d 0a9b b03d
00000230: 04e4 a03d 90b7 b2bd 814d 3bbe 2d7a 11be
00000240: 283f f03d d8fb 11be f8a4 073e 8b5d cf3d
00000250: 7cce bc3d 0a81 33bc 491c 1a3e 8fe2 6e3e
00000260: 14e2 abbd 9813 ba3e 6312 f8ba 1c02 b23e
00000270: 4928 8d3d 2b3e 493e b075 3c3e 90e1 163e
00000280: 6232 b23e d871 2a3e eff6 05be 768c 923e
00000290: b8ac 413e 8a83 c4bd e9d9 a23d b2b0 babd
000002a0: 3dc1 053e 0b11 0bbe 73a7 1d3e 7295 7e3d
000002b0: 168c 883a a706 d33d f09b 9a3e b774 c3bd
000002c0: 0a0c 61bd 97cb 143d 375c 59be c753 923d
000002d0: 8bb8 03be 8412 813e 834f 96bb c62d 7ebc
000002e0: 9f8a 9d3e 8ecc 903e b4d1 ca3e b150 21be
000002f0: 4c18 c9bd f429 9d3e 2970 0abd 6137 b43d
00000300: 5234 953d 7e68 15be d0f0 013e 21a8 72be
00000310: 7c61 f5bc e7fe 343e 22ee 9ebd 4e5d d83d
00000320: 5fa3 213e 2d21 39be 4c72 51bd 6656 28be
00000330: 036f 83bd 78c1 023b 2af1 163d 03c8 a03d
00000340: 6c68 53bd 8350 84be 4291 30bd e688 64bd
00000350: d0db ef3c 5439 d53d 1766 2abd 2421 bf3d
00000360: dfa2 d23d 5370 bfbe 6812 e53e 2e9a 6e3e
00000370: a439 053d bcf8 bc3d 60b2 7bbd b1be 193e
00000380: bf4a 743d 1130 3a3e d1c5 373e a72a aabd
00000390: 083d 88be 83dc ffbd 96de a3be 368e db3d
000003a0: 926b 9dbb 8ea2 03bb 55e2 633d 3018 dbbd
000003b0: 5171 7dbe 57f1 ce3e 8b04 203c 6558 ab3d
000003c0: aa8b 143e 9c10 0d3e 4fc6 c53d 37d5 adbe
000003d0: 40ff 963d 3a81 8f3e bd58 54bd f0de 9dbd
000003e0: d48e d33d 2418 163e 4b86 683d a92a 083d
000003f0: 3e98 4fbd 7624 88be de8f 8b3d f2fa bcbc

network_body.linear_encoder.seq_layers.0.bias f4 [128]
0.02814588 -0.00092802045 0.040771168 0.032084268 0.029518643 0.007995122 0.021892255 0.028403332
0.017590536 0.027540412 -0.03464829 -0.027707918 -0.012997054 0.014967738 0.010159718 0.029895503
0.007829089 0.023768649 0.010008272 0.006272603 -0.037453383 -0.01435899 0.021095067 0.014854008
0.049189392 0.040765975 0.04458252 -0.026717933 -0.00077094324 0.03332925 0.0052562486 -0.0234179
-0.008789975 -0.028787505 -0.020566225 0.031626273 0.0039039408 0.005587335 0.010030845 0.030924378
0.022844423 -0.007192333 0.007049891 0.010560752 0.04384066 0.009168977 0.024127496 0.013229883
0.028418623 -0.036504358 0.0064247013 0.00754332 -0.026187975 0.03450574 0.0033843003 0.07480833
-0.030068658 0.039177317 0.0065644234 0.0040842146 0.033736385 0.023806568 0.031430613 0.033649612
-0.026352614 0.008837615 -0.034399785 0.04393395 0.0015232916 0.017721364 0.036902852 -0.012112017
-0.0038603027 -0.010053064 0.0100588435 0.032465827 0.040651504 0.029551795 0.04319696 0.044177458
0.0284353 0.00057208096 0.02920139 0.02743391 -0.008426299 0.03187359 -0.022653935 0.03653421
0.07532898 0.009078616 0.004892224 0.0152520295 0.023518646 0.013551943 0.011354413 -0.0010097825
0.0013471859 -0.042059302 -0.0035716614 -0.011530192 -0.05123235 0.0010359343 -0.05264722 0.03543653
0.008483835 0.02971646 0.000112367634 0.008917624 0.02688774 0.018001571 0.031001633 0.054886825
0.034761332 0.03324348 0.01361207 0.039294194 0.03720848 0.017853651 0.032956045 0.006084229
0.022607762 -0.016370213 0.021045228 0.029216725 -0.030109184 -0.0050196885 0.016576173 0.05243665
00000000: 3092 e63c 6646 73ba abff 263d cb6a 033d
00000010: 15d1 f13c f9fd 023c 6357 b33c 1bae e83c
00000020: 071a 903c 6e9c e13c 5eeb 0dbd b7fb e2bc
00000030: 98f1 54bc 3e3b 753c f274 263c 6ae7 f43c
00000040: 9445 003c 78b6 c23c bcf9 233c 688a cd3b
00000050: b868 19bd f841 6bbc 90cf ac3c 3a5e 733c
00000060: d17a 493d 39fa 263d 299c 363d 91df dabc
00000070: 2019 4aba 4084 083d 9c3c ac3b e5d6 bfbc
00000080: d403 10bc c6d3 ebbc 807a a8bc 8d8a 013d
00000090: 42d9 7f3b f715 b73b 6a58 243c 1f55 fd3c
000000a0: 3a24 bb3c aaad ebbb c602 e73b 0107 2d3c
000000b0: 4492 333d 7a39 163c 07a7 c53c 27c2 583c
000000c0: 2cce e83c 9885 15bd 4d86 d23b f42d f73b
000000d0: 2a88 d6bc e455 0d3d 23cb 5d3b 1c35 993d
000000e0: 8c52 f6bc 6578 203d 601a d73b e0d4 853b
000000f0: 2a2f 0a3d fe05 c33c 63bd 003d 2dd4 093d
00000100: 70e1 d7bc a5cb 103c cae6 0cbd 16f4 333d
00000110: 2fa9 c73a 652c 913c 7227 173d 7b71 46bc
00000120: 22fd 7cbb 9bb5 24bc d9cd 243c e3fa 043d
00000130: 3182 263d 9b16 f23c 4cef 303d 6cf3 343d
00000140: 25f1 e83c b4f7 153a c137 ef3c 14bd e03c
00000150: 760e 0abc e28d 023d bf94 b9bc e5a4 153d
00000160: 1546 9a3d 7abe 143c f34e a03b a6e3 793c
00000170: 2daa c03c f808 5e3c dc07 3a3c ae5a 84ba
00000180: 0f94 b03a 6046 2cbd 8912 6abb 21e9 3cbc
00000190: 03d9 51bd 30c8 873a 9da4 57bd e525 113d
000001a0: c8ff 0a3c ef6f f33c eaa6 eb38 3a1b 123c
000001b0: ad43 dc3c 0878 933c 23f7 fd3c 02d1 603d
000001c0: e661 0e3d 512a 083d 2905 5f3c f3f2 203d
000001d0: eb67 183d d241 923c ebfc 063d 365e c73b
000001e0: ea33 b93c d31a 86bc 0b67 ac3c ea57 ef3c
000001f0: 89a7 f6bc 337c a4bb c1ca 873c d0c7 563d

network_body.linear_encoder.seq_layers.2.weight f4 [128, 128]
0.020774057 0.23009577 -0.07308171 0.087333634 0.037710257 -0.043222703 0.099904984 0.066104785
0.11355146 0.043711007 0.18421417 -0.030335832 0.06647998 -0.06678799 0.019321103 0.1490345
0.0015842372 0.06741338 -0.07830873 -0.022506233 0.058489997 -0.15258408 -0.095657535 -0.067408435
0.008916643 0.04397663 0.026520675 0.0005294321 0.16001771 -0.16216147 0.0047390875 -0.09746977
-0.01894721 -0.22710872 -0.01928083 -0.082150765 0.09261159 0.02964108 0.015692709 0.22280863
-0.0015213166 0.13623257 -0.10639961 -0.07255198 -0.15982747 -0.24039146 0.14598955 -0.06522786
0.0773407 0.03645415 -0.0996182 0.019163052 -0.11627617 -0.009570385 -0.19925797 0.15599228
-0.08911672 0.107406355 0.078951046 0.07233892 -0.044790722 0.039185405 -0.009978875 -0.04126118
0.022833731 -0.18566248 -0.12131961 0.014349727 0.0021751658 -0.05071132 -0.030215412 0.18890038
-0.13590418 -0.10504227 0.1458258 -0.105542816 0.06903149 0.0861451 0.11477816 0.027374314
0.055731405 0.015893456 0.094649635 -0.09733059 -0.1204834 0.07553733 -0.022962421 0.0054790126
-0.058223605 -0.03160285 0.021413146 -0.029571557 -0.026600346 0.07040275 0.059848364 -0.083948776
0.120156325 -0.08708222 0.1608288 0.05039885 -0.0010469628 -0.044516124 -0.1561746 -0.11952861
0.004988663 -0.19271708 -0.03193502 0.11198849 -0.07385786 0.07571922 0.03683241 0.06187202
-0.092599854 -0.018782638 -0.042641137 0.009338887 -0.029594883 0.03815012 0.056081545 0.07224505
0.09199988 0.004001082 0.08986952 0.17511931 -0.14524685 0.13936892 -0.016367186 -0.0373106
0.06979335 0.25477445 -0.044780795 0.007913513 -0.1684501 0.16764894 0.21425998 -0.021653024
0.0875085 -0.071965784 0.13233493 0.040027436 -0.18186706 -0.15292893 -0.15109411 -0.018217808
0.079469524 0.25763926 0.032142498 0.007311115 0.14700769 -0.13539955 -0.21092133 -0.08747847
-0.16597465 -0.19938189 -0.068387516 -0.03750995 0.095939025 0.025296092 0.19377694 0.026713409
0.17301334 0.02563219 0.18121347 -0.094882496 0.015209067 0.058320444 0.10623052 0.15511765
0.121658675 0.033216357 -0.00034154084 -0.058445886 -0.22654717 0.0062557897 0.19194448 0.06750485
-0.09019279 0.020912532 0.025187917 0.006556876 -0.028711343 0.007532682 0.024205226 -0.0011710824
0.035531636 -0.13151976 0.14743754 -0.03722542 0.2559333 -0.06086528 0.1013571 0.02127605
-0.11572552 -0.028600806 -0.022555193 -0.07062432 0.02651463 0.09451289 -0.049504492 -0.064013444
0.11754473 -0.03467939 -0.06266369 0.08806955 0.20948248 -0.08979206 -0.12306626 0.04552237
0.13978425 0.0012677653 -0.019916203 0.007357304 -0.021291154 -0.040704317 -0.01133257 0.028794488
0.021937162 -0.35964826 0.043988705 0.08003178 -0.06423961 -0.009927095 0.24635081 -0.104342885
0.11768329 0.0013410661 0.019199222 0.10470821 -0.11099321 -0.10723334 -0.05680793 0.2202334
-0.20046033 0.08892145 -0.09606406 0.06194723 0.008005935 0.1466512 0.044454712 -0.037205536
-0.075742796 0.011517362 0.05396233 0.032818016 -0.31373867 0.10487432 -0.24520263 -0.147374
0.11025384 -0.17245074 0.13863003 0.051911257 -0.08944981 -0.010355422 0.018851368 -0.09734755
00000000: 5b2e aa3c 3a9e 6b3e ddab 95bd fadb b23d
00000010: 1276 1a3d 4a0a 31bd fc9a cc3d f261 873d
00000020: ab8d e83d 500a 333d a4a2 3c3e da82 f8bc
00000030: a826 883d 24c8 88bd 4a47 9e3c 809c 183e
00000040: 2ea6 cf3a 0710 8a3d 5460 a0bd fe5e b8bc
00000050: 3593 6f3d 003f 1cbe 19e8 c3bd 6f0d 8abd
00000060: 1d17 123c d720 343d e341 d93c 96c9 0a3a
00000070: afdb 233e a80d 26be 594a 9b3b 3b9e c7bd
00000080: 2e37 9bbc 308f 68be d5f2 9dbc a93e a8bd
00000090: 25ab bd3d dad1 f23c ff8d 803c f227 643e
000000a0: ea66 c7ba 8d80 0b3e 0ae8 d9bd 2296 94bd
000000b0: d0a9 23be 2e29 76be 497e 153e 2f96 85bd
000000c0: cd64 9e3d f250 153d a004 ccbd d5fb 9c3c
000000d0: 3322 eebd 1bcd 1cbc 480a 4cbe 71bc 1f3e
000000e0: d482 b6bd ddf7 db3d 16b1 a13d 6d26 943d
000000f0: 7a76 37bd e080 203d 6f7e 23bc 7c01 29bd
00000100: ce0d bb3c 4e1e 3ebe 6a76 f8bd 1e1b 6b3c
00000110: 3a8d 0e3b acb6 4fbd 5086 f7bc 1a6f 413e
00000120: 772a 0bbe 6720 d7bd 5c53 153e d526 d8bd
00000130: 6260 8d3d d86c b03d d010 eb3d 1940 e03c
00000140: 9d46 643d fe32 823c abd7 c13d 4355 c7bd
00000150: 00c0 f6bd 51b3 9a3d b01b bcbc 4a89 b33b
00000160: e07b 6ebd fd71 01bd 9f6a af3c 0d40 f2bc
00000170: f8e8 d9bc 512f 903d 8f23 753d 56ed abbd
00000180: 8514 f63d 2a58 b2bd 4eb0 243e 066f 4e3d
00000190: 3e3a 89ba 8a56 36bd 3cec 1fbe 6acb f4bd
000001a0: f077 a33b a057 45be 4cce 02bd 395a e53d
000001b0: ca42 97bd ae12 9b3d 95dd 163d 846d 7d3d
000001c0: fea4 bdbd 0cde 99bc 79a8 2ebd 2202 193c
000001d0: f870 f2bc 4d43 1c3d c3b5 653d 36f5 933d
000001e0: 6f6a bc3d 821b 833b 830d b83d 7a52 333e
000001f0: 97bb 14be bab6 0e3e 7a14 86bc 00d3 18bd
00000200: d1ef 8e3d cc71 823e 116c 37bd aea7 013c
00000210: 2f7e 2cbe 2aac 2b3e f866 5b3e af61 b1bc
00000220: a837 b33d cc62 93bd cf82 073e cff3 233d
00000230: 5c3b 3abe 6799 1cbe 6ab8 1abe 833d 95bc
00000240: ebc0 a23d 4be9 833e daa7 033d 1492 ef3b
00000250: 2f89 163e 2ea6 0abe c3fb 57be e927 b3bd
00000260: 42f5 29be c42a 4cbe c10e 8cbd 09a4 19bd
00000270: ae7b c43d c039 cf3c 766d 463e 14d6 da3c
00000280: 692a 313e 99fa d13c 0690 393e c151 c2bd
00000290: 732f 793c 6be1 6e3d 638f d93d 29d7 1e3e
000002a0: 2f28 f93d e00d 083d d610 b3b9 f464 6fbd
000002b0: fbfb 67be 5efd cc3b 188d 443e fc3f 8a3d
000002c0: ffb6 b8bd c250 ab3c e456 ce3c 10db d63b
000002d0: 0d34 ebbc b7d4 f63b 0a4a c63c 017f 99ba
000002e0: 9f89 113d 1ead 06be def9 163e af79 18bd
000002f0: b109 833e df4d 79bd 5094 cf3d 1c4b ae3c
00000300: 8001 edbd 3d4c eabc abc5 b8bc 7ca3 90bd
00000310: 3635 d93c f98f c13d 39c5 4abd 7b19 83bd
00000320: 4bbb f03d fa0b 0ebd d255 80bd cf5d b43d
00000330: 9382 563e e6e4 b7bd 2a0a fcbd aa75 3a3d
00000340: 9a23 0f3e 252b a63a 4e27 a3bc 8a15 f13b
00000350: c96a aebc 92b9 26bd 3eac 39bc 6be2 eb3c
00000360: 90b5 b33c d123 b8be 802d 343d b4e7 a33d
00000370: 0f90 83bd 41a5 22bc 6343 7c3e b9b1 d5bd
00000380: f003 f13d b6c6 af3a b047 9d3c 4271 d63d
00000390: 6850 e3bd 279d dbbd 6faf 68bd dd84 613e
000003a0: 7945 4dbe 731c b63d 3cbd c4bd 61bc 7d3d
000003b0: 532b 033c bb2b 163e 2516 363d d564 18bd
000003c0: 0a1f 9bbd 51b3 3c3c 9b07 5d3d 2f6c 063d
000003d0: 5ba2 a0be 59c8 d63d 6616 7bbe 36e9 16be
000003e0: c4cc e13d ed96 30be 08f5 0d3e e6a0 543d
000003f0: 7631 b7bd caa9 29bc 2f6e 9a3c 275e c7bd

network_body.linear_encoder.seq_layers.2.bias f4 [128]
0.019316664 0.0128262825 0.027573371 0.021726366 -0.015778676 0.022489278 0.025869546 -0.0125728045
0.0023808097 0.010783132 0.020934595 0.0026937588 0.0279305 0.028814146 0.011172021 0.019730031
0.013760766 -0.031775236 0.016291702 0.02535127 0.028529067 0.032707937 0.03640344 0.009150296
0.021349434 -0.01169247 0.0038170717 0.010658239 0.025089933 0.014035392 0.019022588 0.0049560936
0.030471956 -0.020680312 0.022441423 0.024325265 0.030539421 0.032304782 0.01940729 -0.017101133
0.004323228 0.0025286959 -0.011928717 0.010028346 0.029628921 0.01755022 0.024760813 0.039557766
0.022823969 0.033845395 0.031248558 0.018844793 0.0280979 0.02152299 0.020072222 0.017793
0.025564766 0.03051443 -0.020581875 0.018723572 -0.015448525 0.022007244 0.03110992 -0.028594952
0.025814127 0.019227419 0.028351244 0.012371419 -0.00431617 0.0031238478 0.011240313 0.023060465
0.0020588948 0.0019256279 0.026226731 0.025705362 0.0032998957 0.033624493 0.033707228 0.02344474
-0.0043330775 -0.028872505 0.026313862 0.022136452 0.03173939 0.03238084 0.024525426 0.016150068
-0.01825833 0.02425798 0.016420135 0.026394125 -0.005638896 -0.023274751 0.031388253 0.006378716
0.0293238 0.0140600065 0.0076752133 0.00262142 0.015517538 0.028313346 -0.03742415 0.013673512
0.024103606 0.020992853 0.013036265 0.016798528 0.028494254 0.020067312 0.0215807 0.013806851
0.02931127 0.020173896 0.022801109 0.012053032 0.019246444 0.03680768 0.02325663 -0.022938775
-0.028603334 -0.0071719084 0.013603859 0.027914522 0.031640325 0.016373368 0.02785171 0.020335006
00000000: fb3d 9e3c 5425 523c 8de1 e13c 7efb b13c
00000010: 4842 81bc 6f3b b83c 5fec d33c 2afe 4dbc
00000020: 5c07 1c3b bcab 303c 077f ab3c c689 303b
00000030: 81ce e43c a50b ec3c da0a 373c e0a0 a13c
00000040: d674 613c c026 02bd 2d76 853c 77ad cf3c
00000050: cab5 e93c c2f8 053d c61b 153d 20eb 153c
00000060: 02e5 ae3c c691 3fbc d627 7a3b e59f 2e3c
00000070: 6789 cd3c b3f4 653c 42d5 9b3c ba66 a23b
00000080: 53a0 f93c c269 a9bc 13d7 b73c c745 c73c
00000090: cf2d fa3c 0552 043d 09fc 9e3c ad17 8cbc
000000a0: dda9 8d3b 7ab8 253b aa70 43bc ef4d 243c
000000b0: 5ab8 f23c 7bc5 8f3c 30d7 ca3c 5307 223d
000000c0: 55f9 ba3c 78a1 0a3d fafc ff3c 6560 9a3c
000000d0: 912d e63c fb50 b03c 806e a43c a0c2 913c
000000e0: 336d d13c 66f9 f93c 529b a8bc 2d62 993c
000000f0: cf1b 7dbc 8948 b43c 3bda fe3c f63f eabc
00000100: 2678 d33c d282 9d3c de40 e83c 7eb1 4a3c
00000110: a86e 8dbb 78b9 4c3b 4a29 383c 4de9 bc3c
00000120: 86ee 063b 5a65 fc3a 71d9 d63c 0d94 d23c
00000130: 1043 583b d6b9 093d 9710 0a3d 2f0f c03c
00000140: 7dfc 8dbb 0886 ecbc 2b90 d73c 8157 b53c
00000150: 2a01 023d c6a1 043d 8ce9 c83c 264d 843c
00000160: 7e92 95bc acb8 c63c 8583 863c 7e38 d83c
00000170: 7dc6 b8bb b1aa bebc f890 003d 8c04 d13b
00000180: 7738 f03c f15b 663c 5b80 fb3b 21cc 2b3b
00000190: 463d 7e3c 64f1 e73c 114a 19bd de06 603c
000001a0: ed74 c53c 34f9 ab3c 0f96 553c 119d 893c
000001b0: c86c e93c 3464 a43c 02ca b03c 2136 623c
000001c0: 301e f03c ba43 a53c 64c9 ba3c 157a 453c
000001d0: b8aa 9d3c a6c3 163d b084 be3c 19ea bbbc
000001e0: 8a51 eabc 5402 ebbb b8e2 5e3c ffac e43c
000001f0: 4999 013d 7121 863c 4529 e43c 9995 a63c

action_model._discrete_distribution.branches.0.weight f4 [3, 128]
-0.012425477 0.005316122 -0.012025869 0.013893408 -0.007756107 -0.029045515 -0.025452456 0.018783921
-0.019616215 -0.014253628 -0.0034223676 -0.028675182 0.019923223 -0.010172946 -0.00025649267 -0.004177304
-0.017458161 0.008815348 -0.028087623 -0.015593433 -0.033224195 -0.033141144 -0.0030484262 0.004840369
-0.027197111 0.0070648124 -0.006015726 -0.03999706 -0.0033063455 -0.022741796 0.033686165 -0.01638573
-0.020892888 0.013966904 0.010778111 -0.0046791006 -0.02940806 -0.032860197 0.038393144 0.0038775473
-0.023515794 0.008108707 0.0045333207 -0.02598634 -0.03808971 -0.023591919 0.0024641939 -0.013908127
0.0039014518 -0.02107487 -0.01472824 -0.022295203 -0.006471382 0.0055251494 -0.0073086424 -0.029535161
-0.026349097 -0.009154698 0.009701881 -0.008978673 -0.0010775276 -0.016929556 -0.017062465 0.011003447
-0.02443399 -0.004174567 0.023664607 -0.0010464367 0.0073898626 -0.01057622 -0.0032121923 -0.0014877269
-0.007439062 -0.018929575 0.010542591 -0.018131947 -0.0064032576 -0.008557586 -0.033958327 -0.02293445
0.011711545 0.0007268768 0.00054638874 -0.009190979 -0.02376028 -0.0165574 -0.03564517 -0.00058925955
0.017695958 -0.014518742 0.015649552 0.0124862315 0.039473843 0.01140647 -0.025644565 -0.04208334
0.0016270508 -0.0058903256 -0.03545351 -0.007866826 -0.019196074 0.0074719354 0.020215878 0.0073950468
-0.012430845 -0.02549713 0.020589704 -0.023920452 0.007289699 -0.011232822 -0.0008607595 0.010086535
-0.021565313 -0.036445525 0.03299324 -0.01962897 -0.0048009045 -0.015586841 -0.017533356 0.022247512
0.023922736 -0.04216302 0.0061914744 -0.011400628 -0.017687153 -0.0062268768 0.015835823 -0.011205104
0.028627167 0.03614347 0.06483622 0.012906916 -0.013667135 0.032136142 0.021512546 -0.037940208
0.026752869 0.01788616 0.007957475 -0.021430908 8.644643e-05 0.036533132 -0.014564695 0.015598871
0.03090213 -0.027938612 0.0472296 0.036298525 0.047093753 0.04343239 0.04142912 -0.029989444
0.033417676 -0.0070360634 0.03477385 -0.008687015 -0.013963971 0.0066056186 -0.025299327 0.013189771
0.037426103 -0.035660435 0.028076509 0.028087687 0.028653653 0.042762913 -0.031523544 -0.037901625
0.008663821 -0.030973163 -0.038499597 0.0243322 0.03270551 0.0291737 0.026942996 0.03115242
-0.01791463 0.04149353 0.037769254 0.021786522 0.029586714 0.010890105 0.028748507 0.008372849
0.034668967 0.027885336 -0.039967988 0.010200791 -0.03530612 0.027326627 0.04312388 -0.029122572
0.0354827 0.015896581 0.0265783 -0.007584663 -0.026895482 0.027408311 0.04366201 0.026506064
0.018619996 0.02402912 0.014754596 0.003920712 0.026139732 0.01444612 0.03776416 0.029544305
-0.03237493 -0.043022923 0.017691612 0.02906143 0.01814813 0.026768386 0.030048473 0.02342516
-0.04987254 0.0338108 -0.041582026 -0.023108114 -0.01788823 -0.04995879 0.009484958 0.006323964
-0.0011978052 0.038096458 0.04089787 0.009423985 -0.006250683 0.021887688 -0.03468738 0.012880232
0.03165843 0.031324327 -0.016894232 0.022641895 0.022488084 0.011649943 0.050111167 0.02144128
0.041916564 0.022532023 -0.018850513 0.017222626 0.035838652 0.030378096 0.027434023 -0.044852216
-0.051171765 0.021025196 0.032299526 0.017628372 0.031583585 -0.0056398427 0.034628324 0.03662192
00000000: 3a94 4bbc dd32 ae3b 2708 45bc 2da1 633c
00000010: f126 febb dcf0 edbc ab81 d0bc bde0 993c
00000020: 2fb2 a0bc 0d88 69bc cd49 60bb 37e8 eabc
00000030: 0736 a33c 6eac 26bc dd79 86b9 c4e1 88bb
00000040: 6b04 8fbc 406e 103c 0418 e6bc 997b 7fbc
00000050: 1816 08bd 02bf 07bd 1bc8 47bb f59b 9e3b
00000060: 7acc debc f17f e73b 911f c5bb f5d3 23bd
00000070: 46af 58bb 014d babc 81fa 093d 5e3b 86bc
00000080: 9027 abbc 71d5 643c ad96 303c 2453 99bb
00000090: 2ce9 f0bc 6a98 06bd 2142 1d3d 731e 7e3b
000000a0: 32a4 c0bc 62da 043c 408c 943b 4ee1 d4bc
000000b0: f503 1cbd d743 c1bc 507e 213b eade 63bc
000000c0: 80af 7f3b 35a5 acbc b74e 71bc 6ea4 b6bc
000000d0: e30d d4bb 500c b53b 567d efbb b9f3 f1bc
000000e0: 10da d7bc 96fd 15bc a3f4 1e3c 491b 13bc
000000f0: d43b 8dba daaf 8abc 95c6 8bbc cd47 343c
00000100: ca29 c8bc ceca 88bb 47dc c13c 9728 89ba
00000110: a926 f23b e247 2dbc a583 52bb d5ff c2ba
00000120: 60c3 f3bb 3212 9bbc d5ba 2c3c 7389 94bc
00000130: 6bd2 d1bb 1e35 0cbc e317 0bbd 07e1 bbbc
00000140: c8e1 3f3c e08b 3e3a 873b 0f3a c395 16bc
00000150: eba4 c2bc 62a3 87bc ab00 12bd 8a78 1aba
00000160: 1df7 903c 05e0 6dbc 7d33 803c 0d93 4c3c
00000170: 53af 213d 34e2 3a3c 8d14 d2bc 955f 2cbd
00000180: c442 d53a a203 c1bb b337 11bd dce3 00bc
00000190: 1641 9dbc 23d7 f43b c59b a53c 2652 f23b
000001a0: beaa 4bbc 5bdf d0bc bdab a83c d3f4 c3bc
000001b0: 6dde ee3b df09 38bc 98a4 61ba fe41 253c
000001c0: bda9 b0bc e747 15bd eb23 073d efcc a0bc
000001d0: e850 9dbb f35f 7fbc 1da2 8fbc 6a40 b63c
000001e0: 9df9 c33c 22b3 2cbd dae1 ca3b b3c9 3abc
000001f0: a6e4 90bc d40a ccbb 21ba 813c 9d95 37bc
00000200: 8583 ea3c 2d0b 143d dac8 843d 8877 533c
00000210: 1eec 5fbc 30a1 033d 143b b03c 3167 1bbd
00000220: d528 db3c ff85 923c 1260 023c df8f afbc
00000230: 934a b538 c4a3 153d c2a0 6ebc 6892 7f3c
00000240: 7726 fd3c 84df e4bc d373 413d c3ad 143d
00000250: 61e5 403d 29e6 313d 95b1 293d 6cac f5bc
00000260: f9e0 083d c78e e6bb 066f 0e3d fb53 0ebc
00000270: 24c9 64bc f273 d83b 8940 cfbc e919 583c
00000280: 1d4c 193d ad10 12bd b500 e63c 2618 e63c
00000290: 11bb ea3c 2a28 2f3d d51e 01bd bc3e 1bbd
000002a0: b3f2 0d3c 6ebb fdbc c1b1 1dbd 5254 c73c
000002b0: 36f6 053d affd ee3c 8fb7 dc3c 5c33 ff3c
000002c0: b4c1 92bc 1ff5 293d efb3 1a3d a679 b23c
000002d0: d65f f23c 696c 323c fd81 eb3c 462e 093c
000002e0: 0c01 0e3d ca6f e43c 79b5 23bd 3821 273c
000002f0: 269d 10bd 17dc df3c aaa2 303d 7692 eebc
00000300: 4f56 113d 8c39 823c bcba d93c c488 f8bb
00000310: ea53 dcbc 6587 e03c f0d6 323d 3f23 d93c
00000320: f688 983c b8d8 c43c 43bd 713c 5179 803b
00000330: fe22 d63c 6baf 6c3c 98ae 1a3d e606 f23c
00000340: 939b 04bd ce38 30bd 00ee 903c 3c12 ee3c
00000350: 63ab 943c 6049 db3c 3728 f63c 1fe6 bf3c
00000360: 2647 4cbd 327d 0a3d ea51 2abd 3a4d bdbc
00000370: 568a 92bc 97a1 4cbd cc66 1b3c 4139 cf3b
00000380: acff 9cba 080b 1c3d 8684 273d 0f67 1a3c
00000390: 88d2 ccbb cf4d b33c 5b14 0ebd 9c07 533c
000003a0: 45ac 013d f04d 003d c665 8abc 7f7b b93c
000003b0: ee38 b83c 67df 3e3c 5e41 4d3d a0a5 af3c
000003c0: b4b0 2b3d 1495 b83c 646c 9abc 7716 8d3c
000003d0: 8dcb 123d 7cdb f83c 51bd e03c f5b6 37bd
000003e0: 7c99 51bd 083d ac3c 824c 043d 6069 903c
000003f0: ca5d 013d 6ece b8bb 6ed6 0d3d de00 163d

action_model._discrete_distribution.branches.0.bias f4 [3]
-0.015150561 0.03456463 -0.019774335
00000000: 0f3a 78bc a493 0d3d c9fd a1bc

action_model._discrete_distribution.branches.1.weight f4 [3, 128]
0.022821413 0.0026689416 -0.0034796624 -0.01386797 -0.07573776 0.022246148 -0.0034338583 -0.030822417
0.010263975 -0.040206652 -0.03677737 -0.020764407 0.003964963 0.04594482 0.052096672 -0.053499244
-0.04724523 -0.014830833 -0.0145620275 0.015168189 0.0106102815 0.028557517 0.04421638 -0.030926712
-0.008970845 -0.031242477 -0.01761501 -0.04618289 -0.03299291 -0.030664695 -0.026191967 0.017894858
0.025879458 -0.006338643 -0.010953359 0.042933337 0.0055941683 0.054891735 -0.021987088 -0.0143849775
-0.0046680192 -0.021346368 -0.024561156 0.014727281 0.010803332 0.024218127 0.031342167 0.066784635
-0.028955925 0.032939486 0.040395796 -0.009106041 0.0062066023 -0.037818097 -0.025417661 -0.036323167
0.019356027 0.01205479 -0.013320645 -0.037635908 -0.018229354 0.064071774 -0.039967507 -0.036845114
0.038742695 -0.021441424 -0.026825331 -0.064461045 -0.0085784355 -0.03126506 0.009355836 -0.019118184
0.013724421 -0.056106668 0.008236895 -0.03623499 -0.0027207602 -0.03317679 0.02407941 -0.021403963
-0.027343316 -0.017978618 0.024582151 0.03430228 0.016631661 0.020582736 0.01445035 -0.031905923
-0.01894273 0.0067814044 -0.007620376 -0.016702648 -0.028074224 -0.0119207 0.021426735 -0.0032468622
-0.021268211 -0.006795234 -0.020706395 -0.05093776 0.07349282 -0.034785368 -0.02035124 -0.05895282
-0.064803064 0.042272538 0.032364786 0.034336373 -0.005837118 0.019072862 -0.018950121 -0.014879648
0.055006158 -0.037924703 0.0010987626 -0.05853934 -0.0145660285 -0.008380766 0.024997402 -0.035637937
-0.020019086 -0.039907947 -0.044225205 -0.020221446 0.008770481 -0.046179287 -0.05242565 -0.030145217
-0.029274765 -0.08777603 0.03350073 0.07640759 0.02952482 -0.07672452 -0.08553883 -0.0013017561
0.0023645672 -0.067026414 0.123350166 0.0732192 0.06471799 0.03129134 -0.0042553497 -0.0830063
-0.0871118 -0.0026467608 0.009497639 0.038466163 -0.052498665 -0.05382456 0.030817918 0.05358578
0.10445357 0.0053686267 -0.047831528 -0.028166056 0.073189005 -0.06577842 0.09966197 0.009780121
-0.019454062 0.028173309 -0.089793876 -0.01786322 -0.10093495 -0.062846065 0.09942499 0.0023234487
-0.096851885 0.027084129 0.036260992 -0.06234657 -0.114561886 -0.003981499 -0.066756964 0.0209566
0.089227416 0.029131878 -0.029343322 0.080881454 -0.11125898 -0.10206021 0.0938679 -0.07503004
-0.08361643 0.08030666 -0.0016581115 -0.07781313 -0.0006094104 -0.040288206 0.08712699 0.008566565
-0.029220505 0.11292842 0.10994208 0.105687775 0.007950086 -0.07655902 -0.010015278 -0.1095545
-0.03983086 -0.029128524 0.09204465 0.116871744 0.00883544 0.1027878 -0.105317116 -0.11993838
0.01023298 -0.011339436 0.07885847 -0.04632448 -0.100726604 0.01739998 -0.011180993 -0.110415205
0.01971735 -0.10330222 0.017238086 0.09893026 0.048488937 0.0051296996 -0.14407527 -0.07269192
0.12892118 -0.052451685 -0.029109022 -0.04577803 -0.015014844 -0.09394516 0.01295972 -0.10995663
0.12461449 -0.00035887092 0.013759463 0.015764497 0.10315565 -0.1204961 0.099917896 0.057996087
-0.026137555 -0.08685143 0.103998475 -0.08755511 0.08794375 -0.11038155 -0.047806066 0.00942785
0.00912345 -0.051133074 -0.06361135 0.09491058 0.07140886 0.09315401 0.10006095 0.06319133
00000000: f9f3 ba3c 69e9 2e3b 0c0b 64bb 7b36 63bc
00000010: 661c 9bbd 8e3d b63c 950a 61bb 4b7f fcbc
00000020: 3b2a 283c bbaf 24bd dea3 16bd 1e1a aabc
00000030: 85ec 813b a330 3c3d 5263 553d 0622 5bbd
00000040: 3784 41bd 06fd 72bc 9295 6ebc ff83 783c
00000050: bfd6 2d3c 74f1 e93c 3c1c 353d 045a fdbc
00000060: 73fa 12bc 39f0 ffbc 5a4d 90bc 452a 3dbd
00000070: 9323 07bd 8734 fbbc 8990 d6bc 3d98 923c
00000080: 2801 d43c 64b4 cfbb b875 33bc deda 2f3d
00000090: 494f b73b 28d6 603d 441e b4bc f8ae 6bbc
000000a0: 2ff6 98bb 94de aebc 7a34 c9bc b24a 713c
000000b0: 7500 313c 1865 c63c a560 003d 62c6 883d
000000c0: fa34 edbc 8eeb 063d 1076 253d 8131 15bc
000000d0: c160 cb3b 26e7 1abd b338 d0bc 9ac7 14bd
000000e0: 8890 9e3c 7481 453c d63e 5abc 1c28 1abd
000000f0: ba55 95bc 1038 833d f8b4 23bd e7ea 16bd
00000100: a9b0 1e3d eda5 afbc ccc0 dbbc 2704 84bd
00000110: 918c 0cbc cb0f 00bd 3849 193c bd9d 9cbc
00000120: 65dc 603c 1bd0 65bd 0bf4 063c 246b 14bd
00000130: c84e 32bb 63e4 07bd 2f42 c53c 5d57 afbc
00000140: 17ff dfbc e547 93bc 8260 c93c 8c80 0c3d
00000150: 1f3f 883c 209d a83c 29c1 6c3c c9af 02bd
00000160: c92d 9bbc 8b36 de3b 59b4 f9bb fed3 88bc
00000170: eafb e5bc 0a4f 43bc 1f87 af3c 4fc9 54bb
00000180: ac3a aebc 8eaa debb 75a0 a9bc 1da4 50bd
00000190: 6783 963d 1a7b 0ebd a5b7 a6bc 8378 71bd
000001a0: 78b7 84bd f825 2d3d f090 043d 4ca4 0c3d
000001b0: 4b45 bfbb b13e 9c3c 493d 9bbc c4c9 73bc
000001c0: 234e 613d ef56 1bbd 5b04 903a f2c6 6fbd
000001d0: 5aa6 6ebc 7b4f 09bc 5ac7 cc3c 16f9 11bd
000001e0: 11ff a3bc 8476 23bd 7d25 35bd 72a7 a5bc
000001f0: 10b2 0f3c 7e26 3dbd 47bc 56bd 1af3 f6bc
00000200: a2d1 efbc ebc3 b3bd 1038 093d 957b 9c3d
00000210: 09de f13c bf21 9dbd fb2e afbd b09f aaba
00000220: dbf6 1a3b 2545 89bd 039f fc3d f3f3 953d
00000230: de8a 843d 592b 003d 7670 8bbb 35ff a9bd
00000240: ac67 b2bd 4775 2dbb fc9b 1b3c b28e 1d3d
00000250: d708 57bd 2477 5cbd dc75 fc3c c37c 5b3d
00000260: c1eb d53d 4eeb af3b feea 43bd 80bc e6bc
00000270: 1ee4 953d d6b6 86bd 931b cc3d cd3c 203c
00000280: 205e 9fbc b6cb e63c dae5 b7bd e355 92bc
00000290: fcb6 cebd 70b5 80bd 549f cb3d 0045 183b
000002a0: 485a c6bd 89df dd3c 6886 143d 1e5f 7fbd
000002b0: 6c9f eabd 3c77 82bb e0b7 88bd 2dad ab3c
000002c0: ddbc b63d faa5 ee3c 6861 f0bc 2da5 a53d
000002d0: c0db e3bd f204 d1bd d03d c03d 5aa9 99bd
000002e0: 173f abbd d177 a43d fd54 d9ba 7e5c 9fbd
000002f0: d7c0 1fba 3f05 25bd a36f b23d c75a 0c3c
00000300: d75f efbc 0447 e73d 5029 e13d d572 d83d
00000310: 1441 023c faca 9cbd 1f17 24bc 1c5e e0bd
00000320: af25 23bd f19e eebc e881 bc3d 745a ef3d
00000330: 85c2 103c 6982 d23d 80b0 d7bd 41a2 f5bd
00000340: 3ba8 273c 0bc9 39bc 8d80 a13d bdbe 3dbd
00000350: c049 cebd 678a 8e3c 7c30 37bc 5e21 e2bd
00000360: 4886 a13c 1d90 d3bd e336 8d3c f39b ca3d
00000370: 569c 463d 0a17 a83b 7888 13be 80df 94bd
00000380: ea03 043e 94d7 56bd 0b76 eebc be81 3bbd
00000390: d200 76bc 5266 c0bd 0155 543c f130 e1bd
000003a0: e235 ff3d d726 bcb9 5f6f 613c 8c24 813c
000003b0: 4543 d33d a9c6 f6bd c1a1 cc3d 4e8d 6d3d
000003c0: 6d1e d6bc 2adf b1bd 27fd d43d 1850 b3bd
000003d0: da1b b43d b90f e2bd 4bd0 43bd 4577 1a3c
000003e0: 867a 153c ea70 51bd ab46 82bd 7a60 c23d
000003f0: cf3e 923d 88c7 be3d c1ec cc3d 756a 813d

action_model._discrete_distribution.branches.1.bias f4 [3]
0.009666566 -0.0133485515 0.0023695885
00000000: 8460 1e3c e2b3 5abc 194b 1b3b

critic.network_body.linear_encoder.seq_layers.0.weight f4 [128, 37]
0.12387869 0.20024054 -0.18670116 -0.018299527 -0.12467237 -0.12753361 -0.07319467 0.077567436
0.048699506 0.27849984 0.09456444 -0.13406698 0.3353861 0.0110389795 0.048636932 0.0861899
-0.2464555 0.124071546 -0.22967736 0.15178789 -0.15856025 -0.1762757 -0.11494821 -0.29150778
-0.28645626 -0.12607388 0.3433656 0.007023228 -0.081833296 -0.095270246 -0.15587737 -0.21179894
0.20584439 -0.18779078 0.10896703 -0.08334877 0.27009934 -0.22496152 -0.076641016 -0.25896606
0.014640002 -0.16151664 0.296442 -0.2971133 -0.023181211 -0.30224603 0.0006362153 -0.036476597
-0.1387441 0.11454696 0.25745898 0.17014642 -0.039824344 -0.24542081 0.013752745 -0.16252743
0.08594792 -0.17984499 0.3498733 0.15736575 0.40387374 -0.32941294 0.36951488 0.018575683
0.55613405 -0.19878818 -0.06697581 0.020187387 0.107579365 -0.044776663 0.11040403 0.24480093
0.30068135 -0.44838107 0.046206076 0.24097098 -0.3461734 -0.21973817 -0.06907266 0.2655027
0.08142195 -0.10416635 0.31668907 0.07155878 0.015004637 0.097710185 0.08817843 0.07088688
-0.012617963 -0.29818526 0.022644715 -0.14629582 0.027680539 -0.09276557 0.10349468 0.17836733
-0.10826491 0.07169155 -0.07718358 0.1419304 0.01955824 0.21529463 -0.2040927 0.046209697
-0.096816406 -0.102886476 0.012119384 0.09882416 -0.04473553 0.17275597 0.18570505 0.15120131
0.032194316 -0.10473565 0.08802854 0.016463524 -0.045688417 -0.16579953 0.3764866 0.30982125
0.1877641 0.058702607 0.13223425 -0.029747058 0.14072993 -0.047205135 0.021540824 -0.35688633
0.025088033 -0.031180885 0.12940814 0.14011283 0.47853366 -0.27139524 0.25145516 -0.14739001
0.14382793 0.16395104 0.28808126 0.14341836 -0.0808136 0.034148287 -0.043547336 -0.20457603
0.08204886 0.066051155 -0.03966141 0.11512351 -0.1735598 -0.35192505 -0.14965235 0.34023726
-0.105223656 0.10735349 0.1357741 0.37469518 -0.09183856 -0.3364954 -0.05017476 0.089416735
0.014226367 -0.021429572 0.1979432 -0.31988108 -0.08052671 0.11412555 0.0601311 0.060995545
-0.073695585 0.03393606 -0.09520718 -0.19409403 -0.017421756 0.08806551 0.17412485 -0.1551176
-0.06630276 -0.21747328 0.100887984 0.061295375 0.23172235 0.062568024 -0.19422917 -0.0034718707
0.17186956 0.24585894 -0.033688713 -0.085147 0.17816013 0.0041623367 0.13397183 0.09929231
0.2752598 0.27944082 0.23127611 0.24603233 -0.060467254 -0.14278291 0.21401292 0.1735845
0.058563333 -0.018638201 0.047681723 -0.25704813 -0.013607332 -0.029871099 0.09903636 -0.24697538
-0.16801846 0.077822134 0.32744104 -0.01605366 -0.10640935 0.14879085 0.15366252 0.29186293
-0.14531657 0.0718343 0.1360447 0.05793796 0.026884208 0.033557825 0.25439593 0.03465507
-0.3100851 -0.09083983 0.16466443 0.260839 0.09710037 0.011585234 -0.14180873 0.18912223
0.17430359 0.004738446 0.04687119 0.18568026 0.039596103 -0.20531353 -0.1393656 0.048010264
0.011682821 0.14083633 -0.031432305 0.0059206 0.104038715 -0.1404139 -0.4616805 -0.103596255
-0.33917645 0.08674723 0.10760773 -0.20201813 0.43981117 -0.1492949 -0.15124701 0.0034829648
00000000: 1cb4 fd3d db0b 4d3e 972e 3fbe e4e8 95bc
00000010: 3a54 ffbd 2c98 02be 16e7 95bd addb 9e3d
00000020: 2279 473d 8897 8e3e 00ab c13d db48 09be
00000030: bab7 ab3e d6dc 343c 8537 473d 5584 b03d
00000040: d55e 7cbe 3919 fe3d 8b30 6bbe 496e 1b3e
00000050: 9e5d 22be 9e81 34be f869 ebbd 8240 95be
00000060: 65aa 92be 8319 01be 9ecd af3e 1b23 e63b
00000070: 3798 a7bd 0c1d c3bd 519e 1fbe d2e1 58be
00000080: dfc8 523e 3a4c 40be 1b2a df3d c3b2 aabd
00000090: 764a 8a3e 505c 66be f7f5 9cbd 3397 84be
000000a0: 9edc 6f3c 9e64 25be 3fc7 973e 3c1f 98be
000000b0: 86e6 bdbc febf 9abe b0c7 263a 7c68 15bd
000000c0: ef12 0ebe 9997 ea3d aad1 833e dd3a 2e3e
000000d0: da1e 23bd 984f 7bbe 3253 613c 976d 26be
000000e0: 7705 b03d 4929 38be 9822 b33e 7d24 213e
000000f0: 8ac8 ce3e d0a8 a8be 0e31 bd3e 082c 983c
00000100: cd5e 0e3f 218f 4bbe 9d2a 89bd 0560 a53c
00000110: 9252 dc3d bc67 37bd 821b e23d 18ad 7a3e
00000120: e8f2 993e 3492 e5be 9542 3d3d 19c1 763e
00000130: a43d b1be 0b03 61be f775 8dbd f8ef 873e
00000140: 8dc0 a63d 2b55 d5bd 1225 a23e 698d 923d
00000150: 02d6 753c 471c c83d e596 b43d 242d 913d
00000160: 93bb 4ebc bdab 98be 6981 b93c 92ce 15be
00000170: 4cc2 e23c e0fb bdbd 05f5 d33d eda5 363e
00000180: feb9 ddbd 05d3 923d 6d12 9ebd 3456 113e
00000190: 9a38 a03c 3276 5c3e adfd 50be 6146 3d3d
000001a0: ae47 c6bd 25b6 d2bd 6190 463c 5264 ca3d
000001b0: 9a3c 37bd f1e6 303e 7729 3e3e 84d4 1a3e
000001c0: 30de 033d a57f d6bd 4f48 b43d 83de 863c
000001d0: c723 3bbd 5ac7 29be dac2 c03e e4a0 9e3e
000001e0: 3b45 403e 2572 703d 6a68 073e 1ab0 f3bc
000001f0: 821b 103e 2c5a 41bd 6276 b03c ceb9 b6be
00000200: 6b85 cd3c 0e6f ffbc 9183 043e bd79 0f3e
00000210: 5d02 f53e 51f4 8abe bbbe 803e 68ed 16be
00000220: a147 133e c8e2 273e 637f 933e 43dc 123e
00000230: 9a81 a5bd 13df 0b3d b15e 32bd 617c 51be
00000240: 3c09 a83d d445 873d 0174 22bd e0c5 eb3d
00000250: a9b9 31be 852f b4be 773e 19be 9433 ae3e
00000260: 807f d7bd 26dc db3d 5e08 0b3e 0cd8 bf3e
00000270: db15 bcbd 2049 acbe 0d84 4dbd 1f20 b73d
00000280: b515 693c 128d afbc 9fb1 4a3e 74c7 a3be
00000290: 30eb a4bd a8ba e93d 074c 763d 77d6 793d
000002a0: b6ed 96bd 8a00 0b3d fbfb c2bd 96c0 46be
000002b0: 12b8 8ebc b15b b43d c94d 323e 26d7 1ebe
000002c0: bec9 87bd 51b1 5ebe 5c9e ce3d dc10 7b3d
000002d0: a048 6d3e aa23 803d 03e4 46be 5388 63bb
000002e0: 93fe 2f3e 72c2 7b3e 2dfd 09bd 8d61 aebd
000002f0: 9c6f 363e 3664 883b e92f 093e c459 cb3d
00000300: daee 8c3e de12 8f3e a5d3 6c3e e6ef 7b3e
00000310: 83ac 77bd af35 12be 3426 5b3e 23c0 313e
00000320: 1be0 6f3d 24af 98bc e94d 433d d09b 83be
00000330: 49f1 5ebc 3cb4 f4bc 93d3 ca3d 1de7 7cbe
00000340: 080d 2cbe 3661 9f3d 5aa6 a73e f782 83bc
00000350: 25ed d9bd a15c 183e b559 1d3e 0f6f 953e
00000360: decd 14be dd1d 933d 4d4f 0b3e 5b50 6d3d
00000370: 453c dc3c ee73 093d 2f40 823e 7af2 0d3d
00000380: 79c3 9ebe 3c0a babd cb9d 283e b08c 853e
00000390: 8fdc c63d fecf 3d3c 4f36 11be 42a9 413e
000003a0: a47c 323e f744 9b3b 01fc 3f3d f722 3e3e
000003b0: 862f 223d b63d 52be dbb5 0ebe 69a6 443d
000003c0: 4e69 3f3c 6637 103e 29bf 00bd 9801 c23b
000003d0: 4012 d53d a9c8 0fbe 6361 ecbe 462a d4bd
000003e0: 89a8 adbe 88a8 b13d 7161 dc3d d7dd 4ebe
000003f0: ee2e e13e c3e0 18be 7fe0 1abe 7442 643b

critic.network_body.linear_encoder.seq_layers.0.bias f4 [128]
-0.016677123 0.030710878 0.045142606 0.04197763 -0.0058988184 0.018909445 -0.02423622 0.012229334
-0.028541956 0.06479695 -0.018876374 0.021648431 0.05539835 -0.022152856 0.028511938 -0.018954108
-0.014532165 -0.023038048 -0.023652466 -0.0038320501 -0.006438198 -0.022455247 -0.00876583 0.025395254
0.06770688 0.021169862 -0.02346203 0.037702084 -0.029075542 0.020308949 0.010389789 -0.030510478
-0.015095188 0.022538265 0.0072043696 -0.00807752 -0.008506482 0.026949475 -0.011018809 0.026527973
-0.0068297125 -0.022050107 0.015033675 -0.014076876 0.016606554 -0.009425398 -0.024264447 -0.018242242
0.013032823 0.012496074 -0.004163468 -0.020801833 -0.019583259 0.031997077 -0.011371263 -0.013209857
-0.0012056836 0.02190693 -0.009717477 0.020215046 0.01627825 -0.0045906035 -0.002668012 -0.009736
0.0074676513 -0.015737109 0.0547875 0.021201786 0.1110775 0.01796937 0.054669667 -0.033553146
-0.019329693 0.032547038 -0.026556702 0.026325407 -0.028274765 0.008733297 0.018065568 0.0023285197
-0.010907665 0.026872471 0.021930648 -0.012594628 -0.014130858 -0.0048601795 -0.019168923 0.008651707
0.047604185 0.024724616 0.013957029 0.067848645 0.012775304 -0.018999925 0.015549866 -0.012312267
-0.01946 -0.009648501 0.01925277 0.027347663 -0.0058203978 -0.029749658 0.024963843 -0.017898586
0.0036336114 -0.016329853 -0.018322647 0.036409352 0.013590556 -0.015574242 0.0718408 0.015224282
0.024441715 -0.018709714 -0.009945655 0.0088236565 0.016596427 0.010466276 0.00044127714 0.022276234
0.01617216 -0.015423575 0.020728128 0.02645098 0.021077517 0.01757205 0.035374433 0.029338125
00000000: 769e 88bc 6195 fb3c 74e7 383d bcf0 2b3d
00000010: e04a c1bb fbe7 9a3c 0a8b c6bc 8b5d 483c
00000020: d2d0 e9bc 43b4 843d a0a2 9abc 0d58 b13c
00000030: 61e9 623d e879 b5bc de91 e93c a545 9bbc
00000040: 5118 6ebc 4aba bcbc d1c2 c1bc 2223 7bbb
00000050: 85f7 d2bb 11f4 b7bc 8e9e 0fbc b509 d03c
00000060: e8a9 8a3d 6b6c ad3c 7133 c0bc 806d 1a3d
00000070: d52f eebc f45e a63c ef39 2a3c 1cf1 f9bc
00000080: cf51 77bc 2ba2 b83c a212 ec3b 9357 04bc
00000090: c55e 0bbc 25c5 dc3c 3c88 34bc 3151 d93c
000000a0: c8cb dfbb 6da2 b4bc ce4f 763c b3a2 66bc
000000b0: 780a 883c fc6c 1abc 3cc6 c6bc c170 95bc
000000c0: 9f87 553c 55bc 4c3c b36d 88bb 9b68 aabc
000000d0: 126d a0bc 5e0f 033d 894e 3abc 286e 58bc
000000e0: 0708 9eba 2976 b33c 0d36 1fbc 069a a53c
000000f0: f759 853c c66c 96bb d0d9 2ebb be83 1fbc
00000100: 33b3 f43b 1ceb 80bc dc68 603d 5eaf ad3c
00000110: 9a7c e33d 8034 933c 4ded 5f3d 066f 09bd
00000120: 4e59 9ebc 0b50 053d 718d d9bc 61a8 d73c
00000130: 7ba0 e7bc 1a16 0f3c 3efe 933c 149a 183b
00000140: 10b6 32bc a823 dc3c e7a7 b33c b359 4ebc
00000150: 1d85 67bc 2442 9fbb 2508 9dbc e4bf 0d3c
00000160: 9bfc 423d 478b ca3c 06ac 643c 3bf4 8a3d
00000170: 824f 513c bba5 9bbc ddc4 7e3c 64b9 49bc
00000180: 946a 9fbc bf14 1ebc fcb7 9d3c 3508 e03c
00000190: 09b9 bebb 8eb5 f3bc f980 cc3c 0ea0 92bc
000001a0: e221 6e3b 2fc6 85bc 6019 96bc f921 153d
000001b0: ecaa 5e3c 1b2b 7fbc 4521 933d 446f 793c
000001c0: fe39 c83c 1d45 99bc 1af3 22bc 1991 103c
000001d0: 3bf5 873c be7a 2b3c 375b e739 a67c b63c
000001e0: 7a7b 843c 2ab3 7cbc 09ce a93c baaf d83c
000001f0: c2aa ac3c 43f3 8f3c c8e4 103d 8256 f03c

critic.network_body.linear_encoder.seq_layers.2.weight f4 [128, 128]
-0.0043303473 -0.12845285 -0.0977333 -0.030108806 0.029407956 0.024430966 -0.022411024 0.11716279
0.08698329 0.12264563 0.02468296 0.14817293 0.15711686 0.091257 0.025742887 0.094148815
-0.009755239 -0.06425788 -0.040866967 0.13285814 -0.0694823 0.06245278 0.0068881414 -0.09691509
0.02694238 0.022136508 -0.012593937 0.1330114 0.0594273 -0.053769603 0.052196987 0.1707365
-0.008168348 0.018125089 -0.06761361 0.100550495 -0.10029363 0.006961855 0.11447346 0.109339625
0.021944985 -0.05736739 -0.12965743 -0.13877243 -0.051324517 -0.05845093 0.06296274 0.10861746
0.017659703 -0.09828687 0.13311577 0.17708847 0.04636183 -0.062404983 -0.0629828 0.07514414
-0.051157992 0.026295379 -0.10576297 -0.044836376 -0.027476337 0.028900126 0.07194784 0.05014217
-0.07319147 0.062060427 0.1147733 -0.040661085 0.087045014 0.12452805 -0.07284665 0.13221121
0.0403647 0.0014773413 0.06262965 0.05391305 0.06269679 -0.20273215 -0.10686606 -0.1147502
-0.03396179 -0.18211138 0.050869305 0.0075441594 -0.056890693 0.1430339 0.033711392 0.057704013
-0.05102564 -0.11783934 0.05741021 -0.052054346 -0.009918771 -0.17539209 0.032616027 -0.09235942
-0.09364018 0.046903007 -0.07040567 -0.018290905 0.008027753 -0.07948532 -0.0017819497 0.10672472
0.008941585 0.092273846 -0.013244711 0.010139805 -0.05040709 0.043295212 -0.03735605 0.025079252
-0.10191259 -0.028325865 0.06778968 -0.12100352 -0.03799327 0.019004306 0.019859003 -0.06423201
0.12335712 0.13700941 -0.06789333 -0.053542495 0.030548723 0.11793677 0.0077322377 0.021860834
-0.069227636 -0.04863045 -0.123232536 0.026776135 0.07129615 -0.033855848 -0.06058714 0.034104746
-0.036642905 -0.02685694 -0.0688614 -0.068501614 0.042978987 -0.025321733 0.009460084 -0.15748072
0.083419055 0.14897402 0.025124202 -0.011660085 -0.031230493 -0.07063328 0.12441639 0.080795504
-0.17237262 -0.010254926 -0.032698292 -0.015436618 0.13674107 0.09363369 -0.14095385 -0.10909227
0.12911284 0.03490921 -0.035200253 -0.03277979 -0.016246917 -0.119599365 0.10020293 -0.27673268
-0.14993991 0.19920848 -0.32111177 -0.11237655 0.12173756 -0.1636263 -0.10523364 0.13214706
-0.06610727 0.06835653 -0.029801482 0.02080707 -0.12661579 0.08232612 -0.091713905 0.017839603
0.16658492 -0.036860574 -0.14849742 -0.079014406 0.023732336 0.0138819 0.06409554 -0.052951008
0.21095732 0.12308688 -0.24771602 0.01729343 0.05818918 -0.11857271 0.0668441 0.017088065
0.036988743 0.17465474 -0.13132514 -0.25734714 -0.005499481 -0.14228174 0.16456656 -0.036693063
0.012999377 0.05448436 0.049884234 0.07551162 0.17445382 -0.025099406 -0.031022202 -0.0070878575
0.057670664 -0.09032501 0.002331868 0.068808794 -0.17446315 0.08114322 -0.016960189 -0.12572233
-0.02983014 0.16281354 -0.27998635 -0.17402238 0.06087492 -0.027699055 0.116830796 -0.13682465
-0.14398833 0.06795764 0.06612094 -0.24372067 -0.24110645 0.2661667 0.09794458 -0.09321237
-0.17286336 -0.20250179 0.108099386 -0.1779952 0.031853445 0.025593042 0.09565478 0.018430265
0.13929456 -0.044589393 0.09080901 0.0046076593 0.03931843 -0.1312095 0.015654882 0.11520231
00000000: 96e5 8dbb 2589 03be 6528 c8bd bea6 f6bc
00000010: f4e8 f03c 7323 c83c 5397 b7bc 0bf3 ef3d
00000020: 4c24 b23d a22d fb3d eb33 ca3c a5ba 173e
00000030: 3ee3 203e f3e4 ba3d bfe2 d23c 18d1 c03d
00000040: 70d4 1fbc a399 83bd 1f64 27bd f70b 083e
00000050: bc4c 8ebd 7cce 7f3d ebb5 e13b 6b7b c6bd
00000060: 44b6 dc3c 9f57 b53c cd56 4ebc 2434 083e
00000070: 0a6a 733d 843d 5cbd 82cc 553d 8dd5 2e3e
00000080: 89d4 05bc 117b 943c 0179 8abd 6bed cd3d
00000090: bf66 cdbd 4620 e43b 1071 ea3d 74ed df3d
000000a0: f8c5 b33c 11fa 6abd ebc4 04be 5c1a 0ebe
000000b0: a839 52bd 3e6a 6fbd 9cf2 803d d572 de3d
000000c0: 15ab 903c a04a c9bd 804f 083e ae56 353e
000000d0: e7e5 3d3d 5e9c 7fbd 20fd 80bd 2ce5 993d
000000e0: 0b8b 51bd 6869 d73c 429a d8bd 59a6 37bd
000000f0: 0e16 e1bc f5bf ec3c 6459 933d e061 4d3d
00000100: 69e5 95bd 1333 7e3d 440e eb3d 3d8c 26bd
00000110: a844 b23d 9008 ff3d a030 95bd 6062 073e
00000120: 7555 253d 59a3 c13a f943 803d eed3 5c3d
00000130: 2d67 803d 0499 4fbe 98dc dabd 2702 ebbd
00000140: 851b 0bbd 687b 3abe 555c 503d ff34 f73b
00000150: 3706 69bd 7b77 123e f514 0a3d 0b5b 6c3d
00000160: 4300 51bd c055 f1bd f826 6b3d f036 55bd
00000170: 5782 22bc fc99 33be 6298 053d f026 bdbd
00000180: 6cc6 bfbd 5e1d 403d d930 90bd cfd6 95bc
00000190: d686 033c 33c9 a2bd 4f90 e9ba 7d92 da3d
000001a0: ba7f 123c 12fa bc3d 5800 59bc 6d21 263c
000001b0: aa77 4ebd 5256 313d a802 19bd 0173 cd3c
000001c0: 8cb7 d0bd a50b e8bc 51d5 8a3d b2d0 f7bd
000001d0: d59e 1bbd ebae 9b3c 59af a23c 128c 83bd
000001e0: a8a2 fc3d 324c 0c3e a80b 8bbd 604f 5bbd
000001f0: 5141 fa3c d588 f13d b65e fd3b 7e15 b33c
00000200: 38c7 8dbd b930 47bd 5761 fcbd a059 db3c
00000210: b703 923d 6eac 0abd 392a 78bd 6bb1 0b3d
00000220: df16 16bd 1603 dcbc 3507 8dbd 934a 8cbd
00000230: bc0a 303d 866f cfbc 78fe 1a3c a042 21be
00000240: 9cd7 aa3d a58c 183e 45d1 cd3c f109 3fbc
00000250: 17d7 ffbc 2ea8 90bd 05ce fe3d 1d78 a53d
00000260: 7382 30be 4704 28bc a5ee 05bd dee9 7cbc
00000270: da05 0c3e 05c3 bf3d 3556 10be c56b dfbd
00000280: 2836 043e f6fc 0e3d 242e 10bd 1a44 06bd
00000290: 4118 85bc 83f0 f4bd 3237 cd3d e8af 8dbe
000002a0: d989 19be 4ffd 4b3e c368 a4be ad25 e6bd
000002b0: 8b51 f93d a78d 27be bc84 d7bd 8f51 073e
000002c0: 4063 87bd 82fe 8b3d 3d22 f4bc 9773 aa3c
000002d0: 92a7 01be 999a a83d 80d4 bbbd 5c24 923c
000002e0: 3d95 2a3e 1dfb 16bd b50f 18be 4ed2 a1bd
000002f0: 516a c23c e970 633c 8644 833d 28e3 58bd
00000300: 3205 583e f914 fc3d 45a9 7dbe f4aa 8d3c
00000310: c757 6e3d 40d6 f2bd 8fe5 883d 45fc 8b3c
00000320: 8281 173d b1d8 323e 197a 06be 01c3 83be
00000330: fe34 b4bb 4eb2 11be 2384 283e 774b 16bd
00000340: 57fb 543c fe2a 5f3d 6953 4c3d d6a5 9a3d
00000350: 06a4 323e 459d cdbc 4622 febc 4241 e8bb
00000360: 1338 6c3d 52fc b8bd 41d2 183b a0eb 8c3d
00000370: 78a6 32be 6b2e a63d 18f0 8abc 5bbd 00be
00000380: 565e f4bc 98b8 263e 5f5a 8fbe ec32 32be
00000390: fb57 793d 21e9 e2bc fc44 ef3d c31b 0cbe
000003a0: ad71 13be 602d 8b3d 6a6a 873d e991 79be
000003b0: 9ce4 76be 0047 883e 2b97 c83d 21e6 bebd
000003c0: 1803 31be a15c 4fbe 3663 dd3d 6044 36be
000003d0: c278 023d 80a8 d13c a7e6 c33d 11fb 963c
000003e0: 3ca3 0e3e 5ea3 36bd 13fa b93d d9fb 963b
000003f0: 5d0c 213d c85b 06be ab3e 803c 30ef eb3d
