results/Train6/DriveAroundTrack.onnx (onnx, 91642 bytes, 8 tensors)

action_model._discrete_distribution.branches.0.bias f4 [3]
000000 7a 3f 78 bc 58 82 10 3d 4e 94 ad bc
       -0.015151853 0.035280555 -0.021188881

action_model._discrete_distribution.branches.0.weight f4 [3, 128]
000000 d4 eb 58 bc 36 05 25 3c 6d df ef bb 93 04 ad 3c
       -0.01323982 0.010072043 -0.0073203356 0.021120345
000010 4d 10 c2 3a 79 1c f0 bc c1 32 82 bc 29 f3 ae 3c
       0.0014805883 -0.029310452 -0.015893342 0.021356182
000020 1f f3 92 bc 90 ea 32 3a d8 40 a4 3b 5f e6 49 bc
       -0.017938195 0.00068251137 0.005012613 -0.012322991
000030 6e a1 ae 3c c1 a8 18 bc fa 37 69 bb b9 de 28 3c
       0.02131721 -0.009317578 -0.0035586343 0.0103070075
000040 5b 75 c2 bb b9 a4 14 3c 35 40 aa bc 7c e9 76 bc
       -0.0059344 0.009072476 -0.02078257 -0.015070315
000050 f9 21 f3 bc 61 16 10 bd f7 77 b1 39 6a b5 4c 3c
       -0.029679285 -0.035177592 0.00033849452 0.012494424
000060 25 22 89 bc 82 f0 42 3c e6 a0 6d 3b 28 c8 cf bc
       -0.016739914 0.011898162 0.0036259233 -0.025363997
000070 a7 ed cb 3b 84 e8 06 bc 75 e5 1e 3d 8d d6 42 bc
       0.0062233987 -0.008234147 0.038793046 -0.011891973
000080 0b f9 b8 bc 47 01 6d 3c 4e 8d 8a 3c d2 08 15 bc
       -0.02257969 0.014465637 0.016913082 -0.009096341
000090 6e b2 c4 bc 97 cb 07 bd b4 2c 25 3d c8 59 a3 3b
       -0.024010863 -0.033153143 0.040325835 0.004985068
0000a0 55 df 98 bc e2 69 18 3c 5f e1 be 3b 67 d4 da bc
       -0.01866118 0.009302588 0.005825206 -0.02671261
0000b0 8c 04 0e bd 08 3c b5 bc ff 8d 16 3b 2b 70 3f bc
       -0.034672305 -0.022123352 0.002297282 -0.011684458
0000c0 3e 2b 40 3c f4 f9 a4 bc 41 76 93 bc 2e ec 14 bc
       0.01172906 -0.020138718 -0.018000724 -0.009089513
0000d0 3c f6 f3 ba 39 8a 8f 3c bb b7 3e 3a bd 0d 97 bc
       -0.0018612812 0.017521964 0.0007275303 -0.018439168
0000e0 ad 2e d5 bc ab 6c 4a bb c3 32 21 3c 94 1c c4 3b
       -0.026023233 -0.0030887525 0.009838763 0.005984852
0000f0 67 2a be 39 bf a3 99 bc e3 6f 0a bc e6 2d 8f 3c
       0.00036271216 -0.018754838 -0.008449527 0.01747794
000100 59 f6 f4 bc 9b 00 af 3b d7 ce 02 3d a4 14 04 3c
       -0.029902624 0.0053406483 0.03193554 0.008061562
000110 44 69 9b 3b 3c 01 3c 39 bb 37 10 3a e8 bc 8b 3b
       0.0047427732 0.00017929537 0.00055014685 0.0042644627
000120 60 df 1f bc c6 20 8f bb f8 4e 8b 3c db 98 0a bc
       -0.009757847 -0.0043679206 0.017005429 -0.008459295
000130 bc f6 ac bb 4d a2 0b 3b 54 4b 09 bd 63 6d 9c bc
       -0.0052784365 0.0021306456 -0.033519104 -0.019095128
000140 b6 51 2b 3c da c8 22 3a 95 32 93 3b 63 38 3c bc
       0.010456493 0.0006209739 0.004492114 -0.011488053
000150 78 1c aa bc bf ee 84 bc 63 07 00 bd a2 c6 41 3c
       -0.020765528 -0.016227124 -0.031257045 0.011827143
000160 30 63 8b 3c 07 da 44 bc fd 9d 59 3c b3 c0 91 3c
       0.01701507 -0.012014872 0.013282296 0.017792081
000170 49 cc 31 3d f9 b9 5a 3c 6e a8 c3 bc 33 34 1a bd
       0.043407712 0.013350003 -0.023884024 -0.037647437
000180 18 5b 0e 3c f8 7c ab bb 09 22 dc bc 96 ba 32 3c
       0.008688711 -0.0052334033 -0.026871698 0.010908743
000190 9f 60 c4 bc f1 f1 a5 3c 38 f0 a7 3c 05 20 a0 3c
       -0.023971854 0.020256968 0.020500287 0.019546518
0001a0 24 32 22 bb dd de ca bc bb 9d a3 3c 0d 44 b3 bc
       -0.0024749124 -0.024764473 0.019972673 -0.021883035
0001b0 57 6a 63 3c e0 11 be bb b1 39 e0 3b ba 3f 52 3c
       0.013880334 -0.0058004707 0.006842815 0.012832576
0001c0 09 ab c0 bc 4f 03 d2 bc 0d 61 15 3d f8 93 87 bb
       -0.023519056 -0.025636343 0.036469508 -0.0041375123
0001d0 94 4b 26 3b d4 c8 fc bb 6b 7a b8 bc 3f ea d0 3c
       0.0025374638 -0.0077143703 -0.022519311 0.025502322
0001e0 0b a2 c6 3c 75 b5 ed bc f9 c8 95 3c 9e 76 f5 ba
       0.02424719 -0.02901719 0.018284308 -0.0018727367
0001f0 8a 79 49 bc 70 b7 66 3b 06 86 c9 3c a2 f6 cf ba
       -0.012297044 0.0035204552 0.02460004 -0.0015866349
000200 4f d5 ed 3c 59 3a e9 3c 56 8d 82 3d d3 61 69 3b
       0.029032378 0.028470205 0.06374614 0.0035611286
000210 4b 66 db bc ea 07 e6 3c 81 6c 7f 3c e2 ff 29 bd
       -0.026782176 0.028079946 0.015589834 -0.041503794
000220 2d 15 cc 3c e4 c8 8c bb 53 1d 92 bb e1 ad 20 bd
       0.024912441 -0.004296409 -0.004459062 -0.039228324
000230 fb 5d 86 bb 77 5e 21 3d df c9 80 bb cb 70 85 bb
       -0.004100559 0.03939673 -0.003930315 -0.004072284
000240 84 0b 6e 3c e7 66 ed bc c6 e5 1a 3d 1c 63 05 3d
       0.014529113 -0.028979732 0.037816785 0.03256522
000250 37 4c 3b 3d a9 16 3b 3d 0c d2 39 3d 74 10 30 bd
       0.04572698 0.045675907 0.045366332 -0.04298444
000260 24 6d a9 3c 57 b1 84 bc 80 20 aa 3c 77 46 d6 bc
       0.020681925 -0.016197843 0.02076745 -0.026156647
000270 f2 b8 d2 bc 6a b2 65 bc 1c f8 10 bd c5 08 7c 3c
       -0.025722954 -0.014019588 -0.035392866 0.01538295
000280 15 da 34 3d e5 65 18 bd 7c ae 92 3c 7d 54 13 3d
       0.04415329 -0.03720655 0.017905466 0.035969246
000290 c6 32 ac 3c b5 cd 43 3d a1 cf 14 bd dd 91 20 bd
       0.021020304 0.0478036 -0.036330823 -0.039201606
0002a0 f1 b3 2c 3a b3 f2 17 bd 28 bd 3b bd 02 77 cd 3c
       0.00065880927 -0.03709669 -0.04583469 0.025081161
0002b0 3e eb ed 3c 32 f8 01 3d 76 06 e4 3c 4f 0d 1f 3d
       0.029042836 0.031730838 0.027835112 0.03883105
0002c0 27 8f 08 bd 59 51 41 3d ea d3 41 3d 54 bc 3a 3c
       -0.033339646 0.04719672 0.047321238 0.01139744
0002d0 c5 30 b6 3c 14 8d c3 bb a8 21 89 3c bb f5 c5 bb
       0.022240052 -0.0059677456 0.016739681 -0.0060412562
0002e0 5c 55 0c 3d 21 3a b4 3c bb 52 27 bd ae 62 2c bc
       0.034261093 0.022000374 -0.040850382 -0.010521574
0002f0 4f c6 1d bd 91 24 19 3d 4c 2b 01 3d 82 87 1a bd
       -0.0385192 0.037388388 0.03153543 -0.037726887
000300 ba ff 2a 3d f1 f5 d1 3b 97 5f 94 3c 48 89 a9 bc
       0.041747786 0.0064074923 0.018111987 -0.020695344
000310 18 05 e3 bc 85 7c 37 3c 96 01 0b 3d 40 c9 82 3c
       -0.02771239 0.011199121 0.03393706 0.015965104
000320 53 56 81 3c c7 7f a1 3b 67 f4 0c 3c b4 8b 41 bc
       0.015788233 0.0049285623 0.008603192 -0.011813093
000330 9e 7b bd 3c 79 aa 0f 3b 5d ae 1d 3d 31 9a 93 3c
       0.023130234 0.0021921678 0.038496364 0.01801786
000340 d5 d1 00 bd fa 4d 33 bd 24 0d 81 3c 2c 2d 15 3d
       -0.03145011 -0.043775536 0.015753336 0.036420032
000350 a3 75 49 3c 22 16 dd 3c d3 7b 11 3d 4f 04 e4 3b
       0.012296113 0.026988093 0.03551848 0.0069585214
000360 59 cc 4e bd 7c 20 e6 3c 09 be 29 bd fc 45 0e bd
       -0.05048785 0.028091662 -0.041440997 -0.03473471
000370 34 44 e5 bc b6 a2 58 bd bf f2 5d 3b 24 43 65 3a
       -0.027986623 -0.05288955 0.0033866612 0.00087456615
000380 1f 05 4f bc b4 c3 01 3d 0a c9 02 3d cb c7 3b bc
       -0.012635498 0.031680778 0.031930007 -0.011461209
000390 73 04 f7 3b c0 c9 b0 3b d6 b8 0c bd 9c 32 5c bb
       0.007538372 0.005395144 -0.03435596 -0.0033599501
0003a0 b4 99 a0 3c 86 a2 1a 3d fe 4e bc bb 24 87 e2 3c
       0.019604541 0.03775265 -0.0057467213 0.02765233
0003b0 0d b9 7e 3c 19 25 94 3b 0b 3e 2f 3d 2d 94 6d 3c
       0.015547049 0.004521024 0.04278378 0.01450066
0003c0 21 cd 50 3d 27 66 0c 3c e7 2d db bc 9b 85 d5 3a
       0.050976876 0.008569277 -0.026755286 0.0016290428
0003d0 ce 4c e8 3c 43 29 9c 3c 88 91 04 3d 3e 8a 4b bd
       0.028356936 0.019062644 0.032365352 -0.049692385
0003e0 38 67 52 bd 1e 73 0b 3c 39 e9 57 3c 52 5a a2 3b
       -0.05136797 0.008511333 0.013178163 0.0049546147
0003f0 95 84 db 3c 2f 9b ab bc 0c d0 b0 3c 9e 93 dd 3c
       0.026796618 -0.02094802 0.02158358 0.027047928

action_model._discrete_distribution.branches.1.bias f4 [3]
000000 fd 2c 1d ba 87 33 12 bc a5 63 2b 3c
       -0.00059957785 -0.008923418 0.010460769

action_model._discrete_distribution.branches.1.weight f4 [3, 128]
000000 c4 99 8d 3c 9a a0 e2 39 52 92 06 bc a1 84 ca bc
       0.017285235 0.00043225737 -0.008213596 -0.024721446
000010 e5 71 a0 bd 3a 65 98 3c 2d 64 97 ba 2c 2b a0 bc
       -0.07834224 0.018602956 -0.001155024 -0.019551836
000020 55 2b e9 3b 31 c6 27 bd 66 35 54 bd 1d 2b 98 bc
       0.0071157613 -0.040960494 -0.051808737 -0.018575246
000030 c0 c5 1f bc 73 23 2b 3d 20 c5 58 3d c0 e6 65 bd
       -0.009751737 0.041781854 0.052922368 -0.056128263
000040 f5 b0 5d bd 88 bd 90 bb 4e ea db bc 1e d1 a2 3b
       -0.054123838 -0.004417125 -0.026845124 0.0049687764
000050 18 48 ba 3b 9a 79 bf 3c d4 0b 2f 3d aa a4 fb bc
       0.005684864 0.023373414 0.04273589 -0.030718166
000060 f4 10 a7 bc e2 cb c4 bc a9 f3 cd bc 16 9e 1a bd
       -0.020393826 -0.024023 -0.0251406 -0.03774842
000070 a9 1d 38 bd 69 aa 9a bc 37 ab 2d bd 10 be 4e 3c
       -0.04495016 -0.018880086 -0.04239961 0.012618557
000080 dd a7 b8 3c 86 61 74 3b 76 23 93 bc 8b 8d 19 3d
       0.022540981 0.0037289574 -0.017961245 0.0374885
000090 ce 17 9b 3b da e2 59 3d ff 8d 1d bd 1c 9a 89 bb
       0.0047330623 0.053194858 -0.038465496 -0.0041992795
0000a0 6c 9a 57 bb 25 7c 9c bc 25 81 9a bc 07 50 10 3c
       -0.003289844 -0.019102165 -0.018860409 0.0088081425
0000b0 dd 83 03 3c 17 a1 9d 3c 21 cb fb 3c a1 62 86 3d
       0.008027044 0.019241853 0.030736508 0.06561781
0000c0 f5 1e 1c bd f9 99 f8 3c 7c af 1e 3d 3c f4 2e bc
       -0.03811546 0.030346857 0.038741574 -0.010678347
0000d0 95 86 21 3b 5c 24 35 bd 28 48 14 bd 7c 7f 22 bd
       0.0024646868 -0.044224128 -0.036201626 -0.03967236
0000e0 ff dd 92 3c 03 5c 16 3b d0 c0 40 bb 01 3a 18 bd
       0.017928122 0.0022943027 -0.00294118 -0.03716469
0000f0 df b5 fe bb f7 90 84 3d 2f 5c 4a bd 34 75 eb bc
       -0.0077731456 0.06472962 -0.04940432 -0.02874241
000100 48 fc 0a 3d a9 a1 f1 bc 81 b9 0e bd f9 3b ac bd
       0.033932 -0.02949603 -0.03484488 -0.084098764
000110 59 31 e7 ba 5d 25 05 bd bb b5 06 bb 27 c4 ba bc
       -0.0017638608 -0.032506336 -0.0020555097 -0.02279861
000120 8e 18 36 3c c6 01 6d bd f1 55 44 3a df 4f 48 bd
       0.011114253 -0.05786302 0.0007489613 -0.048904296
000130 e1 f7 b0 bc 83 cf 13 bd e2 54 c4 3c 54 9d b9 bc
       -0.021602573 -0.03608657 0.023966257 -0.022658028
000140 96 6b 91 bc 50 e3 f2 bb e6 09 a2 3c 1d 47 08 3d
       -0.017751496 -0.0074123517 0.01978011 0.033270944
000150 24 93 5a 3c f7 95 24 3c 53 f6 45 3c d8 4f 0d bd
       0.013340745 0.01004552 0.012082654 -0.034499973
000160 c8 7c 0f bc c4 29 91 3b 79 6d e4 3a a0 17 0e bd
       -0.0087577775 0.0044300277 0.0017427645 -0.0346905
000170 fd 96 e6 bc 1d 5e 99 ba 14 7d b3 3c 51 e8 31 3b
       -0.028148169 -0.0011701022 0.021910228 0.0027146528
000180 24 df 0a bd 99 87 86 bc 96 01 c7 bc d0 93 4b bd
       -0.03390421 -0.01642208 -0.024292748 -0.04970151
000190 8d 7f 9a 3d 36 ed 24 bd c4 68 16 bc 38 30 86 bd
       0.0754386 -0.040265284 -0.0091802515 -0.06552166
0001a0 27 2c 9d bd ba f8 29 3d fa f8 13 3d a2 2c f7 3c
       -0.07674437 0.04149697 0.036126114 0.03017265
0001b0 d0 45 4b bc 46 ea 97 3c f8 6e bd bc 16 68 05 bd
       -0.012406781 0.018544327 -0.023124203 -0.032569967
0001c0 b9 8c 5b 3d 0a f9 28 bd b5 fc 39 bc 2a 55 86 bd
       0.053601 -0.041253127 -0.011351754 -0.065592125
0001d0 51 a2 a4 bc 83 4c 0f bc a1 91 9a 3c 1d 4f e8 bc
       -0.02009693 -0.008746269 0.01886827 -0.028358037
0001e0 45 41 1c bc 2c a3 1c bd ae ef 5b bd d0 86 12 bd
       -0.009537046 -0.03824155 -0.053695373 -0.0357731
0001f0 ed 71 87 3b 10 a4 52 bd 71 56 8b bd 33 34 27 bd
       0.004133454 -0.051425993 -0.06803597 -0.040821265
000200 28 a0 c6 bc 56 02 a1 bd 2b 06 0c 3d 0d e1 98 3d
       -0.02424629 -0.07861774 0.03418557 0.074648
000210 23 21 fb 3c 7c 0c 84 bd 07 45 b0 bd 56 5d e4 bb
       0.03065545 -0.06447694 -0.08606916 -0.0069691343
000220 69 75 7f 3b a2 a0 70 bd 63 1d 00 3e 0b 70 87 3d
       0.0038979894 -0.05874694 0.1251121 0.066131674
000230 27 f3 88 3d f0 c7 01 3d f1 4c c5 bb bc 3f 97 bd
       0.06687003 0.031684816 -0.006021135 -0.07385203
000240 13 85 89 bd bb b9 ef bb ee 0e 98 3c 2e ef 35 3d
       -0.06714835 -0.007315842 0.018561807 0.044417553
000250 8a b7 3f bd c8 6c 41 bd 24 21 dc 3c 8d 66 55 3d
       -0.046805896 -0.047222883 0.026871271 0.052099753
000260 88 e0 d6 3d 94 84 07 3b be c7 2a bd 43 68 fb bc
       0.10492045 0.0020678388 -0.041694395 -0.030689364
000270 d3 4a 92 3d a4 22 8a bd f1 67 ce 3d de d0 54 3c
       0.07143178 -0.067448884 0.10078419 0.012989251
000280 14 e8 8d bc ad 4a c1 3c c4 cf a0 bd ba 65 5c bc
       -0.017322578 0.023595178 -0.07852128 -0.013451988
000290 50 fa bb bd f0 1f 80 bd 8d da cd 3d 69 b4 3b bb
       -0.09178603 -0.062560916 0.10051451 -0.0028641468
0002a0 05 51 c1 bd c3 3d da 3c 35 77 07 3d dc 80 5d bd
       -0.094392814 0.026640778 0.03307267 -0.054077968
0002b0 75 4d dc bd 68 a8 b4 ba fe 1c 85 bd da 8d 87 3c
       -0.10756961 -0.0013783099 -0.064996704 0.016547132
0002c0 63 1c bb 3d f2 63 de 3c 9e 78 f8 bc a8 73 9a 3d
       0.09136274 0.027147267 -0.030330952 0.07541591
0002d0 75 b3 ce bd d9 b5 b4 bd 6a df c3 3d 7c ab 73 bd
       -0.100928225 -0.08823747 0.09564097 -0.059489712
0002e0 91 45 9e bd 42 a4 a8 3d 1f e3 dd bb d9 fb 81 bd
       -0.077281125 0.08234455 -0.0067714597 -0.06346864
0002f0 cd f2 ad bb 8b 66 2a bd ac 39 b4 3d 7b 9d 87 3b
       -0.005308485 -0.0416017 0.088000625 0.004138646
000300 24 fb bd bc 6d bd e4 3d c7 dc dc 3d ce ec e4 3d
       -0.023191042 0.111689426 0.107842974 0.111779794
000310 80 a4 cf 3b b5 ee 7a bd 14 3a 3a ba f8 8d ca bd
       0.0063367486 -0.061262805 -0.0007103991 -0.0989036
000320 bf ed 01 bd 72 95 ad bc d8 f3 b9 3d 27 00 f4 3d
       -0.031720873 -0.021189425 0.09079713 0.119140916
000330 37 48 8e 3c 51 24 ca 3d f1 c5 c9 bd a7 af c9 bd
       0.01736842 0.09870208 -0.098522075 -0.09847956
000340 fe 64 95 3b 15 64 86 bc 5f ff 9c 3d 5e 1f 3c bd
       0.0045591583 -0.016405145 0.07665896 -0.04592835
000350 26 53 bb bd 4f 5c a6 3c 89 6e 4a bc e0 a2 be bd
       -0.09146719 0.020307688 -0.012355455 -0.0930841
000360 08 d5 74 3c 53 dd bb bd 5e fa 46 3c 4c 99 d3 3d
       0.014943369 -0.091730736 0.012144653 0.103319734
000370 ab a3 3d 3d cf bb ff 38 9a a5 09 be 65 9b 8c bd
       0.046298664 0.000121943296 -0.13442078 -0.06865577
000380 47 af 05 3e 22 f4 19 bd b4 67 6b bc 77 70 40 bd
       0.13055144 -0.03758634 -0.0143679865 -0.046982255
000390 35 da 89 bc 50 15 a9 bd 22 6c e6 3b 0e f8 c8 bd
       -0.016827682 -0.08256018 0.0070319334 -0.09812938
0003a0 5c 7e ff 3d 8f ff 7c ba 8a e1 85 3b 6c 24 88 3c
       0.12475273 -0.00096511183 0.0040857242 0.01661893
0003b0 a6 57 ca 3d b9 58 ed bd 92 c8 c7 3d 4f 3b 83 3d
       0.09879999 -0.11589188 0.097550526 0.064077966
0003c0 a6 87 d9 bc e2 b0 92 bd 12 0a d7 3d ed cf a1 bd
       -0.02655394 -0.07162644 0.10499968 -0.07900987
0003d0 6a 96 b0 3d 1d 7c ce bd 23 f0 21 bd 0b 04 97 3b
       0.08622439 -0.100822665 -0.039535653 0.0046086363
0003e0 3e b8 70 3b b0 57 33 bd ef f6 34 bd 8b a4 cb 3d
       0.003673091 -0.043784797 -0.044180807 0.099434935
0003f0 11 b8 8c 3d e0 83 c1 3d a7 2a d1 3d 79 3b 82 3d
       0.068710454 0.09448981 0.102132134 0.06359

network_body.linear_encoder.seq_layers.0.bias f4 [128]
000000 3f 13 f2 3c 60 06 fa 3b 63 bf 14 3d ae fb 11 3d
       0.029550193 0.0076301545 0.036315333 0.03564041
000010 97 b6 f5 3c 5f 4a 23 3c 42 45 c2 3c 2d c8 df 3c
       0.029994292 0.009966462 0.023714665 0.027317131
000020 3c 6c 6e 3c 83 8e d8 3c 2b d4 e8 bc 90 8b c3 bc
       0.014552172 0.026435142 -0.028421482 -0.02387026
000030 42 d8 95 bc 30 02 10 3c 49 5f 3c 3c c1 06 ae 3c
       -0.018291596 0.008789584 0.011497327 0.021243455
000040 db ee a2 3b 58 85 dd 3c 4a 28 50 3c 8b 9e a5 3c
       0.0049723214 0.027041122 0.012704918 0.0202172
000050 5a d1 13 bd 0e 64 a4 bb 3d 58 9c 3c 32 f7 5b 3c
       -0.036088325 -0.0050168103 0.019085044 0.013425635
000060 2c d3 32 3d d3 6d 24 3d 75 10 27 3d e4 c0 db bc
       0.04365842 0.0401438 0.04078718 -0.026825376
000070 ed f1 6c 3a 86 ed 18 3d e4 aa db 3b 70 ca ff bc
       0.00090387353 0.037335895 0.0067037214 -0.03122446
000080 85 b5 0d bc f4 51 84 bc 7e 04 f0 bc 5f 03 de 3c
       -0.008649235 -0.01615236 -0.029299017 0.027101217
000090 32 84 d0 3b 94 25 c8 bb 5e a8 c3 3c 32 79 06 3d
       0.006363415 -0.0061079953 0.023883995 0.032830425
0000a0 ce 5f d7 3c e6 6c 5d bc f6 de e6 3b a1 c5 89 3c
       0.0262908 -0.013514733 0.007045622 0.01681787
0000b0 bc 34 0d 3d 64 0c 29 bb 58 6f e7 3c 69 d9 9c 3c
       0.03447412 -0.002579474 0.028251335 0.019146638
0000c0 a7 35 e3 3c 5f 92 3a bd 56 9e 0b 3c 88 a9 8e 3b
       0.027735544 -0.045549747 0.008521637 0.004353706
0000d0 00 9c 8e bc 4e 9e f9 3c 89 cf 4f bb a8 e3 8b 3d
       -0.017408371 0.030470993 -0.0031709394 0.06830531
0000e0 e8 7a ea bc 0d c1 fc 3c 25 ee 1e 3c 11 41 aa 3b
       -0.02862306 0.030853773 0.009700333 0.005195745
0000f0 8e 3b 13 3d 81 76 00 3d bf 72 dd 3c b1 12 10 3d
       0.035945468 0.031363014 0.027032254 0.035174076
000100 43 bb bf bc f4 6f 2e 3c 8d 16 18 bd 95 ba 12 3d
       -0.023404723 0.010646809 -0.03713088 0.03582247
000110 83 c9 d2 3b 9f 54 9c 3c 44 0b 44 3d cd 30 0f bc
       0.0064327135 0.01908332 0.047862306 -0.008739662
000120 93 07 ad bb d6 8d b2 bb 37 9e 57 3c 39 a7 2b 3d
       -0.005280444 -0.005449037 0.01316028 0.041907523
000130 01 94 27 3d 2a 7b d4 3c 4d 24 16 3d 72 56 27 3d
       0.040912632 0.025937635 0.036655713 0.040853925
000140 25 8e f1 3c 26 61 12 ba 6f 56 e9 3c 4e 58 cc 3c
       0.029486725 -0.0005583934 0.028483598 0.02494445
000150 ef 4e e7 bb 45 81 f0 3c 6f 02 f0 bc 08 05 17 3d
       -0.00705897 0.029358516 -0.029298035 0.036870033
000160 8f fc 8a 3d 64 48 35 3c 27 9c 2a 3c b9 c2 7e 3c
       0.06786453 0.011064623 0.010413206 0.015549355
000170 84 4b a6 3c 97 48 2a 3c 6f ce 34 3c 34 92 e7 bb
       0.02029968 0.010393283 0.011035546 -0.0070669893
000180 99 10 44 3a bc 95 c2 bc aa 15 99 3a 57 3b 1a bc
       0.000747928 -0.02375304 0.001167943 -0.009413562
000190 fb 7a 66 bd 2f 70 c5 39 cd 98 55 bd e6 9a 2a 3d
       -0.056269627 0.0003765835 -0.052147675 0.04165163
0001a0 c4 65 a2 3b b0 68 06 3d 3a 2f 09 3b 88 40 52 3c
       0.004955979 0.03281468 0.002093269 0.012832768
0001b0 83 88 cb 3c c3 19 81 3c 49 ce f0 3c b7 c1 46 3d
       0.024845367 0.015759354 0.02939524 0.048524585
0001c0 b2 c4 03 3d 96 a6 0d 3d 67 80 42 3c c5 a7 21 3d
       0.032170005 0.034582697 0.011871434 0.039466638
0001d0 fa 0a 01 3d 77 b3 7d 3c 2f 1e ec 3c dc f9 27 3c
       0.03150461 0.015484682 0.028822986 0.010252442
0001e0 8e 11 98 3c 92 8a bf bc 6b a8 a8 3c 9c d2 ff 3c
       0.018563058 -0.023381505 0.02058812 0.031228356
0001f0 01 42 99 bc 63 88 60 bb b5 56 5a 3c 14 b5 35 3d
       -0.01870823 -0.003426098 0.013326337 0.044362143

network_body.linear_encoder.seq_layers.0.weight f4 [128, 37]
000000 cb fe 4d 3e 6b ef 40 3d 1e ad 82 bd 3c 35 86 3c
       0.20116727 0.047103327 -0.06380676 0.016382806
000010 b3 81 8e 3e 1f 33 d5 bd 67 a3 8a 3e a6 01 c0 3e
       0.27833328 -0.10410141 0.2707779 0.37501258
000020 a7 45 1b 3b b7 71 66 3e 50 3f 89 3e 5c 97 12 3e
       0.002369264 0.22504316 0.26806116 0.14315552
000030 e0 aa e7 3e fd 15 af be 4c 6a 82 3d 90 38 27 be
       0.45247555 -0.34196463 0.06367931 -0.1633017
000040 6f 18 1c be c6 35 9e 3e 49 05 08 be 54 b5 f5 bd
       -0.15243696 0.309004 -0.13283266 -0.11997476
000050 88 da 2a 3e ca 01 c2 3d 10 16 83 3d 83 21 cd bb
       0.16684926 0.094729975 0.064006925 -0.0062600984
000060 40 81 c2 bd 8f 00 00 3d 17 c2 da 3d 29 cd d7 3d
       -0.09497309 0.031250533 0.10681551 0.10537178
000070 3a 40 82 3d 3c b8 85 3e 6c 61 13 be fd a3 05 bc
       0.063599065 0.26117122 -0.14392632 -0.008156774
000080 8a e1 b1 3d bb b8 cd 3d d0 57 81 3e 9c 30 c8 3e
       0.08685596 0.10045 0.25262308 0.39099586
000090 f1 5c 82 be f4 e4 cd 3e 14 cc c4 be aa 4d 8e bd
       -0.25461534 0.4021374 -0.3843695 -0.06948407
0000a0 52 41 08 3d 60 6b 8c 3e 7c 78 46 3e 01 94 8c 3b
       0.03326542 0.2742567 0.19381899 0.0042901044
0000b0 9b b9 64 be 98 4b 1f be 84 ae 01 3e 0b 36 15 3e
       -0.22336428 -0.1555618 0.12664229 0.14571397
0000c0 65 83 b8 3e f7 e8 cf 3d 92 4d 00 bd c1 30 89 3d
       0.36037746 0.101518564 -0.031323977 0.06698752
0000d0 65 97 25 bc db 8c ee 3b c0 d3 13 3e 35 d5 aa 3e
       -0.010106896 0.007279975 0.14436245 0.3336579
0000e0 31 ef b9 bb 3a 11 55 3d dd e9 1e 3e a7 e8 88 3d
       -0.005674266 0.05201838 0.155189 0.06685
0000f0 3d 82 05 be ce 4d 6c 3e a5 58 b9 3e 89 30 94 3e
       -0.13037963 0.23076555 0.36200443 0.2894328
000100 2e df 21 be 9f c1 3e 3c 13 82 ad 3d d6 e6 e5 bd
       -0.15807793 0.011642843 0.08472075 -0.11225669
000110 ae ef d4 3b ff c1 bd 3d 4c f6 02 be eb a2 f7 3d
       0.0064982986 0.092655174 -0.12789267 0.12091621
000120 33 f9 00 bd b0 78 b4 bd b6 b8 98 bd f0 dc 11 be
       -0.031487655 -0.08812082 -0.07457106 -0.14244437
000130 18 64 ff 3c 59 68 80 3e b2 5f 36 bc cb 32 1c 3e
       0.031175658 0.2507961 -0.011131214 0.15253751
000140 da dc 68 bd 1d 69 d0 3c 1c 4a 52 3e 10 5c e4 bd
       -0.056851245 0.025440747 0.20536083 -0.11150372
000150 da 2a 64 be 2d 65 ea bd a3 6c 23 3e 06 70 d1 3a
       -0.22281972 -0.11445079 0.1595941 0.001597882
000160 f1 b5 73 3d f4 95 51 be 7e 1b 5e 3e 0a 35 36 be
       0.059499685 -0.20467359 0.21690175 -0.1779367
000170 b1 c9 20 3e e1 a4 85 3c cd a8 22 3d 8f 41 a3 3d
       0.15701939 0.016313972 0.039711762 0.07971489
000180 fc e4 09 3b 53 2b a6 bd 3e 60 07 be e4 6d a5 be
       0.0021041026 -0.08113732 -0.13220307 -0.32310402
000190 cf fa a1 be 49 3a 22 be d2 9a 15 3e 69 fe df 3d
       -0.31636664 -0.15842547 0.1460984 0.10937197
0001a0 bb e7 1c be dd 61 bd 3e 88 c9 74 bd ae 1d 8f bd
       -0.15322773 0.36988726 -0.059762508 -0.06988083
0001b0 11 85 65 be 3d da 31 be 09 68 b2 bd 3a f9 e4 3e
       -0.22414042 -0.17368408 -0.087112494 0.44721395
0001c0 2f 9c 21 3e b6 19 4d be 8e 1e 22 be 29 de 44 be
       0.15782236 -0.20029339 -0.15831968 -0.19225372
0001d0 e7 ae 9b 3e 70 93 fd 3b 22 13 ce bd 01 38 02 bd
       0.30406877 0.007738523 -0.10062243 -0.03179169
0001e0 68 90 e6 bd ab fc 8f 3d 47 10 24 3b f1 0f 8f bd
       -0.11258012 0.070306145 0.0025034116 -0.069854625
0001f0 c8 31 53 3b be a1 e2 3b d7 d1 63 3e e5 2b a5 bd
       0.0032225717 0.006916254 0.22248016 -0.08065013
000200 4d b1 97 3e 0c 62 7b be ed ef 50 3e 26 26 9d 3e
       0.29627457 -0.2454912 0.20404024 0.30693167
000210 5a 19 41 3e df 72 35 bc 3d 68 e3 3e bd fe 26 3e
       0.18857327 -0.011074751 0.44415465 0.16308112
000220 52 29 82 3d 0f fb dc 3d df 91 e5 3d 0f bc b8 3d
       0.063555375 0.10790073 0.11209463 0.09020244
000230 87 5e a6 3d 90 b7 b2 bd 8d 79 37 be e2 50 0f be
       0.081234984 -0.08726418 -0.17917462 -0.13995698
000240 9e 60 fd 3d d8 fb 11 be ff d1 03 3e 1c 03 bd 3d
       0.12371944 -0.14256227 0.12873076 0.09229109
000250 12 9d 98 3d 02 00 86 bb 49 1c 1a 3e c3 7a 77 3e
       0.07451834 -0.0040893564 0.15049852 0.24167924
000260 d9 45 ab bd 9a 4a ba 3e 63 12 f8 ba f0 f1 b7 3e
       -0.08362932 0.3638504 -0.0018926378 0.3592677
000270 02 ce a2 3d e2 f8 46 3e b0 75 3c 3e 1d df 16 3e
       0.07949449 0.19430879 0.18404269 0.14733548
000280 90 b2 bd 3e db 59 15 3e ef f6 05 be 17 69 95 3e
       0.37050295 0.14585058 -0.13082479 0.2918174
000290 5a 5f 47 3e 16 64 cf bd e9 d9 a2 3d 7b cb c4 bd
       0.19469967 -0.10126512 0.07951719 -0.09609123
0002a0 7e 03 0d 3e e8 8f 17 be 73 a7 1d 3e 3b ff 87 3d
       0.13770863 -0.1480099 0.15395908 0.06640478
0002b0 49 bb 59 3b d2 2b cc 3d f0 9b 9a 3e 7e a9 cc bd
       0.0033223203 0.099692956 0.30197096 -0.099932656
0002c0 a3 cf 44 bd d4 d1 bd 3c 37 5c 59 be 9e 14 9b 3d
       -0.04804958 0.023171343 -0.21226583 0.07572292
0002d0 c4 9c 00 be 5b d7 7c 3e 83 4f 96 bb 34 81 89 bc
       -0.12559801 0.24691527 -0.0045871153 -0.016785242
0002e0 fe fd 9b 3e 39 d5 8d 3e 49 13 cc 3e b1 50 21 be
       0.30467218 0.27701738 0.39858463 -0.15753438
0002f0 d8 8f bf bd 22 7d a2 3e 7a 6f 19 bd 61 37 b4 3d
       -0.09353608 0.31736094 -0.037459828 0.08799625
000300 d5 75 9b 3d 18 35 0c be 34 bf 01 3e 21 a8 72 be
       0.07590834 -0.13692129 0.12670594 -0.23696949
000310 7d 11 6b bc 17 b4 30 3e 39 f8 8c bd 4e 5d d8 3d
       -0.014347431 0.17256199 -0.06883282 0.105646715
000320 57 49 1e 3e e3 8e 31 be 02 9c 5f bd 66 56 28 be
       0.15457664 -0.17339663 -0.05459214 -0.16439208
000330 1e 88 7d bd 31 89 b0 bb 6e 54 56 3d 03 c8 a0 3d
       -0.06189739 -0.0053874482 0.052326612 0.07850649
000340 30 58 66 bd 47 ab 83 be 83 18 2c bd e6 88 64 bd
       -0.056236446 -0.25716612 -0.042015564 -0.05579462
000350 8e af cf 3c d5 a3 d1 3d b7 70 fd bc 24 21 bf 3d
       0.025352266 0.102363266 -0.030937536 0.09332493
000360 19 51 da 3d d2 2c bd be 5c 78 e2 3e 2e 9a 6e 3e
       0.106599994 -0.36948258 0.44232452 0.23301002
000370 b8 65 08 3d 77 84 b8 3d fb 48 92 bd ff 70 1c 3e
       0.03330013 0.09009641 -0.07142826 0.1527748
000380 bf 4a 74 3d c8 00 47 3e 23 8c 4b 3e 8a 34 b4 bd
       0.059641596 0.19433892 0.19877677 -0.087990835
000390 08 3d 88 be d1 af eb bd d7 25 9f be 69 e3 d8 3d
       -0.26609063 -0.11508144 -0.31083557 0.1059025
0003a0 92 6b 9d bb 08 dc b4 3c 8b 4a 73 3d 96 58 da bd
       -0.004804083 0.022077575 0.05939726 -0.10661428
0003b0 51 71 7d be 84 e1 d0 3e 98 62 fb 3c 5e aa 86 3d
       -0.24750258 0.40797055 0.030686662 0.06575464
0003c0 aa 8b 14 3e 91 7d 1c 3e 11 6c c3 3d 80 1d ab be
       0.14506403 0.15282275 0.095420964 -0.33420944
0003d0 40 ff 96 3d 3e c1 8e 3e 03 b4 46 bd a6 33 a7 bd
       0.07372904 0.27881807 -0.048511516 -0.08164148
0003e0 d4 8e d3 3d 81 e5 17 3e ef be 6f 3d 25 98 0f 3d
       0.10329977 0.14833643 0.058531698 0.035057206
0003f0 3e 98 4f bd 7b 04 86 be c6 e1 96 3d 71 3f 13 bd
       -0.0506823 -0.26175293 0.073672816 -0.035949174

network_body.linear_encoder.seq_layers.2.bias f4 [128]
000000 1b 22 9a 3c 57 1a 82 3c d7 7e fe 3c 04 b2 a9 3c
       0.01881509 0.0158817 0.031066341 0.020714767
000010 3b ec 06 3b 94 2b c4 3c ed 41 fa 3c 44 ee 19 bc
       0.0020587582 0.02394656 0.030549014 -0.009395186
000020 eb 22 0d 3b 8a fb 89 3c 0b 3d be 3c 57 d1 bc 3a
       0.0021535705 0.016843576 0.023222467 0.001440565
000030 17 f3 ac 3c d0 63 cf 3c 13 30 a1 3b dd cf d1 3c
       0.021112008 0.025316149 0.004919061 0.025611812
000040 a8 0d 9c 3c 8b a0 23 bd a7 e4 ab 3c 86 ab cf 3c
       0.01904948 -0.039948028 0.020983053 0.025350343
000050 b0 07 05 3d 14 72 04 3d 00 47 02 3d 34 a2 7e 3c
       0.032478034 0.032335356 0.031805992 0.015541602
000060 58 ba aa 3c 61 50 94 ba aa de 3d 3c 64 23 8c 3c
       0.020840809 -0.0011315459 0.011588732 0.01710672
000070 6b ac d8 3c ed de 84 3c 67 f6 ad 3c 88 7a 65 3b
       0.026449403 0.01621958 0.021235658 0.0035015661
000080 c0 0e ef 3c fc 0a a9 bc de 62 dc 3c d1 8e a3 3c
       0.029181838 -0.02063512 0.026902612 0.019965561
000090 9e 0f 0a 3d 45 c8 ec 3c bc 7a 77 3c e4 54 5b bc
       0.0337063 0.02890409 0.015104946 -0.013386939
0000a0 ab f7 b1 3b a3 a4 0e 3c 61 77 99 bb 03 52 39 3c
       0.0054311357 0.008706245 -0.0046834205 0.011311057
0000b0 e0 92 ff 3c 0d 99 83 3c cd 8c c3 3c 64 45 0b 3d
       0.031197965 0.016064191 0.02387085 0.034001723
0000c0 97 9f e0 3c 97 37 01 3d 1f 44 eb 3c 44 52 7b 3c
       0.027419848 0.031547155 0.028719006 0.015339438
0000d0 f0 28 fd 3c 14 f6 d3 3c a9 06 a2 3c fb 1e be 3c
       0.03090331 0.025874175 0.019778566 0.023208132
0000e0 00 21 dd 3c 36 9e de 3c 61 b4 c3 bc e9 5d bb 3c
       0.026993275 0.02717505 -0.023889722 0.022871928
0000f0 d9 1f 09 bc ed d6 98 3c 29 16 10 3d a1 6b 5b bc
       -0.0083694095 0.018657172 0.035177384 -0.01339236
000100 7b a2 c5 3c fb 9a 7f 3c 7d 30 d9 3c ee 15 ac 3c
       0.024125328 0.015600915 0.026512379 0.02100655
000110 49 77 d3 bb 75 de e7 3b 5c ea 6c 3c b2 78 e2 3c
       -0.006453429 0.0070760795 0.0144601725 0.027645443
000120 16 b0 a8 3b f0 8b 29 3c d0 ba ab 3c 2c a0 df 3c
       0.005147944 0.010348305 0.020963103 0.027298056
000130 41 8e d6 3b be 7b 01 3d e4 76 0b 3d 13 6e ce 3c
       0.0065477197 0.03161215 0.03404893 0.025198972
000140 33 74 6f 3b cc 55 fc bc 27 e8 ac 3c 57 0a 9c 3c
       0.0036537766 -0.03080263 0.021106793 0.0190479
000150 60 0d 04 3d 7a 01 f4 3c 19 ff c3 3c e7 1f 9b 3c
       0.032239318 0.02978586 0.023925351 0.01893611
000160 39 b7 62 bc a5 21 da 3c 4f 55 03 3c 40 0e ea 3c
       -0.013837629 0.026627371 0.008015945 0.028571248
000170 b7 41 44 ba f6 fe aa bc 69 b4 fd 3c 28 7b fe 3b
       -0.0007486599 -0.020873528 0.030969815 0.007766146
000180 e1 f7 e0 3c 62 00 9d 3c b7 f1 36 3c 75 32 28 3c
       0.027461948 0.019165222 0.011166028 0.010265936
000190 1b 07 2e 3c c8 dc 07 3d fb f6 09 bd a5 57 a0 3c
       0.010621811 0.033169538 -0.033682805 0.019573042
0001a0 47 49 d9 3c 69 c5 97 3c d7 3f e1 3b 62 d1 69 3c
       0.0265242 0.01852675 0.0068740654 0.014271112
0001b0 73 7d d1 3c 7e 04 af 3c 72 a4 b8 3c 6d fc 82 3c
       0.025572514 0.021364447 0.022539351 0.015989507
0001c0 12 3c cc 3c dd d7 d0 3c f1 bb 97 3c 5f 57 9d 3c
       0.024930988 0.025493557 0.018522235 0.0192067
0001d0 94 42 94 3c c5 84 24 3d f5 cd ae 3c 05 f0 0c bc
       0.018098153 0.04016568 0.021338442 -0.008602147
0001e0 c7 b1 c7 bc 96 ff 7e ba b2 bc 9b 3c ec 37 e6 3c
       -0.024376763 -0.00097274163 0.019010875 0.028102838
0001f0 b8 f0 f1 3c 90 22 ad 3c 81 fb fb 3c 22 bc c7 3c
       0.029533729 0.021134645 0.030759575 0.0243817

network_body.linear_encoder.seq_layers.2.weight f4 [128, 128]
000000 87 21 9d 3c 5e fc 5c 3e 9c 71 37 bd 72 47 9d 3d
       0.019181026 0.21580645 -0.04478608 0.07679643
000010 fb be 4d 3d f2 0e 2a bd a4 4e cc 3d 8e a0 53 3d
       0.05023096 -0.04151816 0.09975937 0.05166679
000020 36 24 ea 3d 51 ec 67 3d 87 94 3c 3e 34 01 09 bd
       0.11432688 0.056621853 0.18416034 -0.033448413
000030 3d b3 9d 3d a9 18 39 bd 04 c0 a9 3c 44 d9 27 3e
       0.077002026 -0.045189533 0.020721443 0.16391474
000040 19 71 2a 3c e1 45 59 3d 29 21 b5 bd 20 32 c7 bc
       0.010402941 0.053045157 -0.088442154 -0.024315894
000050 1f ad 66 3d ff 07 0f be af 0f d6 bd 52 45 8c bd
       0.056317445 -0.13967894 -0.1045221 -0.06849159
000060 dc 35 8d 3b 13 19 25 3d 9c 5e e0 3c 38 92 d0 ba
       0.004309399 0.040307116 0.027388863 -0.0015912717
000070 ee cf 22 3e bc 14 24 be 2a 5a ca 3b 6a d1 b3 bd
       0.15899631 -0.16023535 0.006175299 -0.08780177
000080 3a 63 29 bd 99 d1 66 be c6 14 42 bc df 01 7f bd
       -0.041354395 -0.22540893 -0.011845773 -0.062257644
000090 57 be c4 3d 7e c5 f0 3c e2 d8 74 3c d9 a1 62 3e
       0.09606617 0.029391047 0.014944287 0.22132052
0000a0 6a 4a 91 bb d0 da 1e 3e 24 b9 c6 bd cc 12 8c bd
       -0.0044339197 0.15513158 -0.097032815 -0.06839523
0000b0 f7 6e 18 be 30 e1 6f be 0c 9c 0b 3e cc 4b 89 bd
       -0.1488608 -0.23425746 0.13633746 -0.0670391
0000c0 97 cc aa 3d 03 7a 14 3d 7e 5e dd bd 80 39 40 3c
       0.08339804 0.036249172 -0.108090386 0.011732459
0000d0 ae 07 f1 bd 3e 4d 24 bc 79 e6 41 be 12 bc 1f 3e
       -0.11769043 -0.010028182 -0.18935575 0.15599087
0000e0 ac 5e b6 bd e6 6f ce 3d e8 f2 ba 3d 97 07 95 3d
       -0.08904776 0.10079937 0.09128362 0.07276838
0000f0 a1 8c 25 bd 6b f3 cf 3c 2c 60 93 bc 06 41 32 bd
       -0.040417317 0.025384625 -0.017990194 -0.043519042
000100 96 e7 86 3c 4c ef 3f be ce 00 f3 bd c2 0c 1d 3c
       0.01646785 -0.18743628 -0.11865388 0.009585561
000110 ee c2 5e 3c f8 53 67 bd 79 36 20 bd 81 86 3c 3e
       0.01359628 -0.056476563 -0.03911445 0.18410684
000120 b1 66 10 be 98 e5 d1 bd 54 97 13 3e c2 f8 c9 bd
       -0.14101674 -0.1024887 0.14413196 -0.098619
000130 35 dc a0 3d 4b 05 bc 3d 14 09 f0 3d 62 ed 20 3d
       0.07854501 0.09180697 0.117204815 0.039288886
000140 0b 07 52 3d d0 76 9d 3c aa e8 cf 3d e1 e3 b4 bd
       0.051276248 0.019221693 0.10151799 -0.08832527
000150 c3 5b fb bd b2 51 ad 3d d4 32 99 bc dc ba f7 3b
       -0.122733615 0.08462848 -0.018700995 0.007560117
000160 63 68 73 bd 2a f2 4b bd e2 0e c4 3c f2 5c 3b bd
       -0.059425723 -0.049791493 0.023932878 -0.045742936
000170 b6 29 b9 bb 19 ae c8 3d 5b 93 55 3d d7 52 a3 bd
       -0.0056507243 0.097988315 0.052142482 -0.07974785
000180 3d db f8 3d f5 e8 ab bd 05 5f 2a 3e a3 b6 20 3d
       0.121511914 -0.083940424 0.1663781 0.039236676
000190 67 3a 89 ba 83 ef 92 bd eb bd 1e be 2b 03 f1 bd
       -0.0010469676 -0.071745895 -0.15502135 -0.11768182
0001a0 20 29 d7 3b 60 d1 4c be c2 c5 19 bd eb 5b da 3d
       0.006566182 -0.20001745 -0.037542112 0.10662063
0001b0 ea dc 93 bd e3 a1 9f 3d 08 93 ca 3c 9d 85 9f 3d
       -0.072198704 0.07794549 0.024728313 0.077891566
0001c0 75 2a a8 bd 96 0e c5 bc 26 18 52 bd 44 06 6a 3c
       -0.08211223 -0.024054807 -0.05129256 0.01428372
0001d0 81 cb eb bc 68 75 0f 3d 79 b7 5a 3d 76 06 89 3d
       -0.028783562 0.035024077 0.05339763 0.066906855
0001e0 c8 c7 db 3d af a9 95 3b aa eb bf 3d c9 72 20 3e
       0.107314646 0.004567347 0.09371121 0.15668787
0001f0 ca 94 14 be f8 8f fb 3d be 94 e7 bc bb c9 0f bd
       -0.14509884 0.12283319 -0.028269168 -0.035104495
000200 d0 08 8f 3d 16 b5 81 3e f6 e5 7f bc 20 05 04 bb
       0.06984103 0.2533347 -0.015618792 -0.0020144656
000210 27 c5 23 be a0 2c 2d 3e 7e 45 57 3e 63 33 a6 bc
       -0.15993176 0.16911554 0.21022603 -0.020288175
000220 a8 9b b1 3d 13 58 84 bd 65 2f 06 3e 96 a4 05 3d
       0.08672267 -0.06462111 0.13104017 0.032627665
000230 87 cf 39 be bd 03 0b be 0f 80 20 be 9d 24 ca bb
       -0.18145572 -0.13575645 -0.1567385 -0.0061689154
000240 c8 a6 b2 3d 70 22 81 3e 97 c1 b2 3c 38 60 04 3c
       0.08723217 0.25221586 0.021820826 0.008079581
000250 55 21 10 3e b9 ff ff bd 2d 58 3f be c9 66 ae bd
       0.14075215 -0.12499947 -0.1868598 -0.085156985
000260 f2 a3 15 be 08 fa 4c be 03 02 70 bd 36 e9 1f bd
       -0.14613321 -0.20017254 -0.05859567 -0.039040767
000270 2a 5e be 3d 57 6d ea 3c a0 d9 44 3e db 17 fe 3c
       0.09295304 0.02861659 0.19223642 0.031017235
000280 3c d7 10 3e c5 ab c4 3c 15 6a 3b 3e 90 c0 99 bd
       0.14144605 0.024007687 0.18302186 -0.075074315
000290 da 14 9d 3c c9 d0 66 3d 53 da e1 3d 04 67 19 3e
       0.019174982 0.056351457 0.1102797 0.14980704
0002a0 bc f3 ff 3d f8 23 30 3d 24 b6 b9 3b 62 05 5b bd
       0.124976605 0.043003052 0.005667465 -0.05347193
0002b0 4a 99 53 be 64 cf 50 3c 20 ed 43 3e 44 ba 81 3d
       -0.20663944 0.012744758 0.19133425 0.063343555
0002c0 06 cb ac bd 7e b5 92 3c e3 3f b9 3c bd 7f 43 bc
       -0.08437161 0.017908808 0.022613471 -0.011932311
0002d0 95 83 da bc 36 3e 8b 3c 59 db 97 3c 41 92 11 3d
       -0.026674071 0.016997438 0.01853721 0.03553987
0002e0 8e bc fa 3c 2c 56 00 be fd a2 19 3e 2c ab 16 bd
       0.030607488 -0.12532872 0.15003581 -0.036784336
0002f0 db b0 87 3e 11 34 84 bd 6a 9f bf 3d d2 ec 96 3c
       0.26502118 -0.064552434 0.09356578 0.018423472
000300 c1 9e e7 bd 96 5b f2 bc fb 1b d6 bc f0 e4 89 bd
       -0.11309577 -0.029584687 -0.026136389 -0.067331195
000310 8c 93 21 3d 5d b3 b0 3d 4b 19 61 bd dc 5a 86 bd
       0.039447352 0.08627961 -0.054955762 -0.06560299
000320 ec c6 de 3d 19 ae f8 bc fd c1 87 bd 67 1c ce 3d
       0.10877785 -0.030356454 -0.06628797 0.10064011
000330 56 a1 55 3e ad c9 93 bd 73 3c d1 bd 72 0f 8b 3d
       0.20862326 -0.07216201 -0.10216608 0.06790055
000340 65 e9 08 3e 90 3e 39 3c 1f d2 c4 bc 97 32 5c 3c
       0.13370283 0.01130642 -0.024025975 0.013439796
000350 43 ba de bc cc 21 05 bd f2 76 25 bc 0d 0e 26 3d
       -0.027188426 -0.032502934 -0.01009916 0.040540744
000360 47 4a 4c 3d c0 0e bc be 02 5a 50 3d 17 41 7b 3d
       0.049875524 -0.36730003 0.05086709 0.06134137
000370 0b b3 66 bd d2 83 26 3c 9d 16 6f 3e c5 b2 bd bd
       -0.056323092 0.010163264 0.2334847 -0.09262613
000380 d5 90 f6 3d 61 a1 ab 3a 1e dc ba 3c 8d e4 cb 3d
       0.12039343 0.0013094359 0.022810038 0.09955702
000390 cd 01 e5 bd 85 33 ff bd 2f 12 75 bd f2 81 69 3e
       -0.11181984 -0.124609984 -0.059831794 0.22803476
0003a0 20 d6 49 be 0f d1 cc 3d 3b d4 d5 bd 6f 4a 82 3d
       -0.19710588 0.10000812 -0.104408704 0.06361853
0003b0 53 94 8c 3c 34 a9 17 3e d5 ab d6 3c a9 a6 2a bc
       0.01716057 0.1481064 0.026204983 -0.010415711
0003c0 7b d7 54 bd 43 ef e6 3b 8c 9f 24 3d 56 e8 15 3d
       -0.05196331 0.007047565 0.04019122 0.036598526
0003d0 85 13 99 be f8 c0 c1 3d d4 6f 67 be fd 7c 1c be
       -0.29897705 0.09460634 -0.22601253 -0.15282054
0003e0 45 f1 01 3e 77 af 2f be 6e 29 05 3e 41 f8 f7 3c
       0.12689693 -0.17156778 0.13004085 0.030269744
0003f0 75 53 bd bd ea 76 b7 bc a7 b8 1a 3b 98 02 8e bd
       -0.09244434 -0.02239557 0.0023608597 -0.069340885
