results/Train3/DriveAroundTrack/DriveAroundTrack-347108.pt (torch, 541687 bytes, 39 tensors)

network_body.linear_encoder.seq_layers.0.weight f4 [128, 37]
0.20576943 0.03916584 -0.07121489 0.01176015 0.24998626 -0.10070562 0.2639536 0.35894877
0.004340029 0.21692799 0.26830667 0.14947169 0.43700382 -0.33716547 0.04244842 -0.1884729
-0.13867956 0.29071346 -0.1234334 -0.10981552 0.13347733 0.12956557 0.064067446 -0.030545807
-0.07985752 -0.0099156955 0.115185305 0.11953144 0.05476173 0.27096078 -0.14392632 -0.025255144
0.08083712 0.09916898 0.25656804 0.3924068 -0.24828821 0.37028867 -0.3827626 -0.06364776
0.03424048 0.2451608 0.19977798 0.013685138 -0.21952401 -0.12611291 0.110084385 0.16387282
0.36977136 0.10456612 -0.042902593 0.07924842 -0.012024952 0.043881 0.11295751 0.3449156
-0.0053210715 0.04834185 0.14477211 0.06717093 -0.13821222 0.24702357 0.32449535 0.29468575
-0.15648434 0.0068448405 0.07324066 -0.11225669 -0.00232824 0.08874057 -0.14006765 0.1254361
-0.029677281 -0.08921288 -0.08604632 -0.14848694 0.034720737 0.23760106 0.007791522 0.13188805
-0.052596804 0.023261832 0.19461763 -0.11872482 -0.22264628 -0.13858518 0.153939 -0.010305655
0.084339656 -0.20029591 0.19284077 -0.1646756 0.14575213 -0.012177633 0.05358664 0.034092564
0.0022439798 -0.07435145 -0.1580165 -0.28550655 -0.32762352 -0.19250026 0.1456057 0.0735167
-0.15322773 0.37655643 -0.06978248 -0.07739489 -0.22745241 -0.1998499 -0.075028405 0.41402227
0.15491052 -0.20105357 -0.18319383 -0.20657296 0.289833 0.011261006 -0.11595353 -0.050478905
-0.12185384 0.091924354 -0.010972924 -0.08304504 -0.009661549 0.030702362 0.21594681 -0.094966054
0.28555208 -0.24300091 0.1850295 0.31977868 0.14290668 -0.011736069 0.4391643 0.14818263
0.052733965 0.11459145 0.09040352 0.08851502 0.02524227 -0.08726418 -0.1859151 -0.14758201
0.09168624 -0.14601606 0.11222106 0.10153528 0.05605846 -0.01245494 0.15058003 0.21510263
-0.078905225 0.34412223 -0.001106365 0.34172362 0.059123717 0.18894094 0.19064547 0.1181226
0.347648 0.14379486 -0.10973189 0.28071284 0.16488525 -0.09093072 0.075142235 -0.12393973
0.13418616 -0.17520975 0.15395302 0.058611117 -0.021079445 0.11006245 0.3021133 -0.12709527
-0.047014266 -0.025818456 -0.21226583 0.07291753 -0.13684148 0.23220377 -0.0089518605 -0.038847297
0.3221452 0.27949086 0.39316028 -0.16322291 -0.09287225 0.29779363 -0.032041185 0.08262426
0.060989723 -0.122329675 0.11655828 -0.24438907 0.000509808 0.16519947 -0.06804399 0.07901326
0.12458823 -0.15894972 -0.072221555 -0.15882577 -0.046948142 -0.040761866 0.0928838 0.074381754
-0.08793253 -0.23071648 -0.094296016 -0.04741955 0.047666695 0.09253202 -0.014398034 0.09332493
0.08436122 -0.37484914 0.44227684 0.23812206 0.037367977 0.09095493 -0.063945845 0.14494942
0.052863162 0.19196053 0.17265914 -0.08534504 -0.27499846 -0.1327921 -0.31216654 0.09974212
-0.012592608 0.03198755 0.04790114 -0.10419323 -0.27236164 0.37699598 0.041442048 0.046240773
0.15349412 0.16831249 0.059645966 -0.27903125 0.07387075 0.24911973 -0.039802328 -0.117151015
0.111140564 0.16845676 0.045060396 0.060917784 -0.0506823 -0.2854809 0.067514434 -0.03484627
00000000: 39b5 523e 5c6c 203d 1dd9 91bd a5ad 403c
00000010: 66fc 7f3e c03e cebd ed24 873e 22c8 b73e
00000020: cd36 8e3b 5f22 5e3e 7e5f 893e 1b0f 193e
00000030: f7be df3e f4a0 acbe 65de 2d3d 0aff 40be
00000040: 0402 0ebe 65d8 943e a7ca fcbd f6e6 e0bd
00000050: 48ae 083e d6ac 043e cb35 833d 333b fabc
00000060: 578c a3bd 7175 22bc 46e6 eb3d e6cc f43d
00000070: d64d 603d 5fbb 8a3e 6c61 13be e0e3 cebc
00000080: ef8d a53d 1b19 cb3d e35c 833e 8be9 c83e
00000090: 443f 7ebe 7a96 bd3e 76f9 c3be c259 82bd
000000a0: bf3f 0c3d 6f0b 7b3e 9992 4c3e a137 603c
000000b0: e7ca 60be be23 01be ec73 e13d 47ce 273e
000000c0: ac52 bd3e c326 d63d a1ba 2fbd ff4c a23d
000000d0: 4e04 45bc 90bc 333d 4456 e73d c798 b03e
000000e0: 625c aebb 1b02 463d 243f 143e ea90 893d
000000f0: 8187 0dbe bff3 7c3e 4124 a63e 0de1 963e
00000100: 6e3d 20be af4a e03b 33ff 953d d6e6 e5bd
00000110: 6395 18bb 9ebd b53d e56d 0fbe 5272 003e
00000120: c51d f3bc 3eb5 b6bd 0e39 b0bd f60c 18be
00000130: 5537 0e3d b14d 733e 0650 ff3b a90d 073e
00000140: bf6f 57bd 998f be3c d849 473e 0026 f3bd
00000150: 63fd 63be 46e9 0dbe 2fa2 1d3e 0dd9 28bc
00000160: 45ba ac3d 5f1a 4dbe 0d78 453e b8a0 28be
00000170: 0c40 153e b284 47bc aa7d 5b3d a5a4 0b3d
00000180: bc0f 133b 9345 98bd 14cf 21be ea2d 92be
00000190: 45be a7be ca1e 45be a919 153e ec8f 963d
000001a0: bbe7 1cbe 01cc c03e 1eea 8ebd 3681 9ebd
000001b0: 49e9 68be 74a5 4cbe 7ea8 99bd bafa d33e
000001c0: dda0 1e3e fde0 4dbe 2a97 3bbe dd87 53be
000001d0: fe64 943e 1580 383c 0b79 edbd f8c2 4ebd
000001e0: 828e f9bd d642 bc3d c7c7 33bc 8513 aabd
000001f0: 794b 1ebc 8583 fb3c 2921 5d3e 907d c2bd
00000200: e233 923e 3bd5 78be 6078 3d3e 08ba a33e
00000210: 2156 123e a448 40bc 25da e03e 30bd 173e
00000220: 92ff 573d ecae ea3d 7b25 b93d 5d47 b53d
00000230: e1c8 ce3c 90b7 b2bd 8760 3ebe bd1f 17be
00000240: ffc5 bb3d 3c85 15be 28d4 e53d bbf1 cf3d
00000250: 8e9d 653d ce0f 4cbc a731 1a3e dd43 5c3e
00000260: 1099 a1bd ca30 b03e 7303 91ba 66f6 ae3e
00000270: b62b 723d bc79 413e 9138 433e 43ea f13d
00000280: ebfe b13e f63e 133e 1dbb e0bd 98b9 8f3e
00000290: aed7 283e e339 babd 2ce4 993d 1dd4 fdbd
000002a0: 1968 093e 2f6a 33be dca5 1d3e 3612 703d
000002b0: cdae acbc 6c68 e13d 98ae 9a3e 4325 02be
000002c0: 0892 40bd 3a81 d3bc 375c 59be c955 953d
000002d0: 2c20 0cbe d3c6 6d3e d3aa 12bc 581e 1fbd
000002e0: 37f0 a43e 6d19 8f3e 4e4c c93e e823 27be
000002f0: ce33 bebd 6878 983e 9e3d 03bd e836 a93d
00000300: 5cd0 793d fb87 fabd 1cb6 ee3d 2141 7abe
00000310: a3a4 053a 0d2a 293e a65a 8bbd b4d1 a13d
00000320: 1d28 ff3d b7c3 22be e5e8 93bd 39a3 22be
00000330: b24c 40bd eaf5 26bd dd39 be3d 7655 983d
00000340: f815 b4bd f140 6cbe 451e c1bd 013b 42bd
00000350: 273e 433d 6d81 bd3d bbe5 6bbc 2421 bf3d
00000360: 93c5 ac3d 3aec bfbe 1c72 e23e 45d6 733e
00000370: 2a0f 193d 9446 ba3d 0af6 82bd 9f6d 143e
00000380: 0b87 583d 4d91 443e 8fcd 303e 61c9 aebd
00000390: 99cc 8cbe a7fa 07be 4bd4 9fbe 9945 cc3d
000003a0: 3a51 4ebc 6105 033d fc33 443d 4363 d5bd
000003b0: fc72 8bbe 9e05 c13e 23bf 293d f766 3d3d
000003c0: 902d 1d3e 1c5a 2c3e 544f 743d 2fdd 8ebe
000003d0: 8c49 973d 3e19 7f3e c407 23bd dfec efbd
000003e0: aa9d e33d ee7f 2c3e 4091 383d ed84 793d
000003f0: 3e98 4fbd 8d2a 92be 0245 8a3d f6ba 0ebd

network_body.linear_encoder.seq_layers.0.bias f4 [128]
0.023577722 0.00020853736 0.02417477 0.018618533 0.013567185 0.005668803 0.018124847 0.0141708255
0.0048763966 0.02039122 -0.007927011 -0.013465054 -0.0034808207 0.0055259094 0.007844036 0.0031788535
-0.005090902 0.015456988 -0.0020110023 0.014838554 -0.020718371 -0.003741126 0.003373966 0.004232502
0.026615875 0.03495336 0.0101599 -0.014161337 -0.0005482382 0.024434706 0.0016933635 -0.021234976
0.0011293694 -0.0023155739 -0.02380073 0.018496858 0.014556337 -0.00051363336 0.022825038 0.026538976
0.025039598 -0.014705643 0.004883566 0.009083454 0.013401995 -0.0035153027 0.020527324 0.019587206
0.013606398 -0.005297053 -0.0043009375 0.011656148 -0.004962731 0.020896405 0.005545381 0.039896924
-0.013517167 0.013251168 0.008079409 0.0010866883 0.010510522 0.018822331 0.0081655625 0.021391015
-0.022172514 0.005846322 -0.017940056 0.004729672 0.0009876669 0.0013861345 0.04083441 -0.002835551
0.0074133123 0.0039574793 0.011612761 0.020974897 0.023621112 0.015802307 0.024068423 0.022461459
0.019300643 0.0037804388 0.00958202 0.011189712 -0.009756351 0.01963196 -0.013185567 0.0129870605
0.051097963 0.009005276 0.005636799 0.008919109 0.015909934 -0.00754546 0.010342262 -0.007463057
-0.0035997631 -0.021292856 -0.0056588394 -0.014138944 -0.016338496 0.00056950835 -0.031577427 0.04004125
0.007160036 0.023992311 0.010768589 0.009696669 0.018047247 0.0073114624 0.011310158 0.019398324
0.015142915 0.024951376 0.018514378 0.028308026 0.009388855 0.0065914905 0.01864216 0.017187834
0.0055535715 -0.017329106 0.014634272 0.026095372 -0.011855656 -0.00019555315 0.001242722 0.02628385
00000000: 1126 c13c d2aa 5a39 2b0a c63c e585 983c
00000010: e648 5e3c 5ec1 b93b 8f7a 943c c02c 683c
00000020: 2eca 9f3b 7d0b a73c 4be0 01bc 889c 5cbc
00000030: 7b1e 64bb b012 b53b 4684 003c 5054 503b
00000040: 95d1 a6bb 4e3f 7d3c 05cb 03bb 681d 733c
00000050: 93b9 a9bc ae2d 75bb c21d 5d3b cdb0 8a3b
00000060: 8909 da3c 412b 0f3d b675 263c f404 68bc
00000070: a5b7 0fba 4b2b c83c daf3 dd3a f9f4 adbc
00000080: 5907 943a e2c0 17bb c0f9 c2bc b986 973c
00000090: b47d 6e3c 5aa5 06ba 93fb ba3c 4468 d93c
000000a0: d81f cd3c f0ef 70bc 5206 a03b c4d2 143c
000000b0: 0b94 5b3c fe60 66bb eb28 a83c 5975 a03c
000000c0: 5fed 5e3c e792 adbb e1ee 8cbb 6ef9 3e3c
000000d0: 689e a2bb f02e ab3c 07b6 b53b f56a 233d
000000e0: 1c77 5dbc 6d1b 593c 7f5f 043c 356f 8e3a
000000f0: 5334 2c3c 4a31 9a3c dac8 053c 363c af3c
00000100: 22a3 b5bc 8192 bf3b 06f7 92bc 5dfb 9a3b
00000110: 9a74 813a f5ae b53a fb41 273d a7d4 39bb
00000120: 5feb f23b bead 813b 7343 3e3c 8cd3 ab3c
00000130: 1081 c13c d773 813c 242b c53c 1801 b83c
00000140: 621c 9e3c 3dc1 773b e8fd 1c3c 0e55 373c
00000150: 1ad9 1fbc 34d3 a03c 4708 58bc aec7 543c
00000160: 194c 513d dd8a 133c e6b4 b83b 7421 123c
00000170: 8d55 823c e83f f7bb 9772 293c a98c f4bb
00000180: 01ea 6bbb 5b6e aebc c96d b9bb 08a7 67bc
00000190: 4fd8 85bc 0f4b 153a 5557 01bd 4b02 243d
000001a0: bc9e ea3b 868b c43c bc6e 303c c7de 1e3c
000001b0: d2d7 933c fe94 ef3b 3e4e 393c 3ce9 9e3c
000001c0: fd19 783c d466 cc3c 77ab 973c 3ce6 e73c
000001d0: b6d3 193c 6efd d73b 71b7 983c 80cd 8c3c
000001e0: bcfa b53b c5f5 8dbc 96c4 6f3c f6c5 d53c
000001f0: 3a3e 42bc 660d 4db9 d5e2 a23a 3b51 d73c

network_body.linear_encoder.seq_layers.2.weight f4 [128, 128]
0.00042308026 0.20756534 -0.05780632 0.07753941 0.034346767 -0.053247515 0.08897858 0.08249408
0.11239792 0.053518437 0.18898894 -0.028638877 0.08208533 -0.041018225 0.012617551 0.1601361
0.010415497 0.055603515 -0.0695002 -0.019170057 0.060559038 -0.14995821 -0.09782561 -0.057472803
0.013661587 0.016688926 0.024896596 0.011664191 0.16308345 -0.17508863 -0.016614977 -0.086934574
-0.030342575 -0.22196335 -0.004330131 -0.07687705 0.08708758 0.03608604 0.015693786 0.21444139
-0.02770427 0.15102203 -0.115136325 -0.06976883 -0.13782434 -0.22059378 0.12792945 -0.06866036
0.07054039 0.040635154 -0.089018606 0.0042739003 -0.12064948 -0.0004950597 -0.1861336 0.17132418
-0.08712787 0.10807783 0.073154256 0.071809165 -0.036379896 0.022695052 -0.01099768 -0.05418229
0.028312009 -0.18924868 -0.1214547 0.03647272 0.006041539 -0.07181788 -0.037163038 0.19354796
-0.14574015 -0.121118665 0.14654545 -0.11060241 0.057451922 0.09372812 0.117884666 0.020808276
0.047727253 0.022217387 0.086006664 -0.09219205 -0.12592988 0.08113908 -0.0115297055 -0.0042630136
-0.04693825 -0.022514096 0.008597796 -0.04715866 -0.008593619 0.07138176 0.035040993 -0.06889017
0.112781905 -0.08004372 0.15364248 0.059019867 0.00049413013 -0.055473156 -0.148929 -0.12903784
0.015742637 -0.19084005 -0.00033567197 0.09726382 -0.076606855 0.074437074 0.0284797 0.052122463
-0.08834972 -0.039520707 -0.054823622 0.0056054955 -0.021244666 0.033891883 0.054538198 0.06587344
0.10128083 0.012284087 0.08810867 0.15107465 -0.13660808 0.12962857 -0.014901636 -0.021152744
0.047697566 0.23611844 0.0017784296 -0.012136194 -0.16985472 0.14277177 0.18935175 0.007974656
0.08024144 -0.06668754 0.13841593 0.033705343 -0.17975755 -0.12134428 -0.1898867 0.01178707
0.09555235 0.23969775 0.046671584 0.009207545 0.13975944 -0.122361235 -0.16428731 -0.078533225
-0.10478941 -0.22010808 -0.04397226 -0.039301403 0.08567449 0.00070107874 0.16225371 0.041106038
0.14236696 0.030603534 0.20213403 -0.07513548 0.015376212 0.064509384 0.107902855 0.12548435
0.10366843 0.05040482 0.0060486584 -0.0665863 -0.17753178 0.025993664 0.15751316 0.049289025
-0.08275444 0.026027322 0.040333625 -0.026868189 -0.033679973 0.028332977 0.03640067 0.07220313
0.037282664 -0.10285937 0.14477113 -0.04144739 0.26024336 -0.09051926 0.113526344 0.009636111
-0.1035078 -0.042045187 -0.034258846 -0.03325065 0.02877891 0.027639156 -0.053710423 -0.07268964
0.10751297 -0.040148705 -0.07329154 0.09513212 0.18501939 -0.06685923 -0.08515507 0.07142462
0.13100314 0.005644621 -0.043514516 0.014795371 -0.046497423 -0.033016793 -0.0030539283 0.04227189
0.08281663 -0.36391503 0.025043033 0.03953881 -0.03819838 0.029217372 0.2150971 -0.07864403
0.1141939 0.010515493 -0.0026644382 0.11418273 -0.104399554 -0.1163206 -0.055172257 0.21884789
-0.1962921 0.082079254 -0.10133047 0.039853185 0.013841392 0.13964738 -0.009478992 0.0062461216
-0.04794558 -0.026122427 0.021239128 0.026376855 -0.26980364 0.091788344 -0.1948366 -0.15039523
0.13996649 -0.1582279 0.11866382 0.0072791423 -0.085151665 -0.04149345 0.010918945 -0.026155941
00000000: dfd0 dd39 028c 543e 52c6 6cbd fbcc 9e3d
00000010: 32af 0c3d 111a 5abd 673a b63d a8f2 a83d
00000020: e130 e63d 2636 5b3d 5186 413e 149c eabc
00000030: 5a1c a83d ba02 28bd d8b9 4e3c b8fa 233e
00000040: c3a5 2a3c 83c0 633d 1f56 8ebd 860a 9dbc
00000050: c10c 783d a58e 19be cb58 c8bd 9a68 6bbd
00000060: d9d4 5f3c 37b7 883c f2f3 cb3c 2a1b 3f3c
00000070: 59ff 263e 6f4a 33be 221c 88bc c10a b2bd
00000080: fe90 f8bc 5c4a 63be c6e3 8dbb b771 9dbd
00000090: f95a b23d f5ce 133d 4190 803c 8696 5b3e
000000a0: 11f4 e2bc 85a5 1a3e 98cc ebbd f6e2 8ebd
000000b0: d321 0dbe 56e3 61be f0ff 023e ce9d 8cbd
000000c0: 7b77 903d 0c71 263d 634f b6bd 130c 8c3b
000000d0: 1317 f7bd e5c6 01ba ce99 3ebe 9b6f 2f3e
000000e0: 1970 b2bd e957 dd3d e6d1 953d af10 933d
000000f0: 1603 15bd f9ea b93c 9d2f 34bc 40ee 5dbd
00000100: 96ee e73c 68ca 41be 3ebd f8bd 6b64 153d
00000110: 1af8 c53b 4115 93bd 4538 18bd 7031 463e
00000120: e83c 15be 100d f8bd 0310 163e 8483 e2bd
00000130: b552 6b3d 87f4 bf3d 846d f13d 1e76 aa3c
00000140: a77d 433d 3d01 b63c 4324 b03d 2fcf bcbd
00000150: c3f3 00be 3f2c a63d 17e7 3cbc c0b0 8bbb
00000160: 5342 40bd 7b6f b8bc c5dd 0c3c 7029 41bd
00000170: 40cc 0cbc 9a30 923d 2587 0f3d 4a16 8dbd
00000180: 33fa e63d f6ed a3bd 7454 1d3e d1be 713d
00000190: 8388 013a d237 63bd d880 18be 7f22 04be
000001a0: b4f6 803c 936b 43be 21fd afb9 4132 c73d
000001b0: 0ee4 9cbd 7772 983d 434e e93c 5d7e 553d
000001c0: b3f0 b4bd 77e0 21bd bc8e 60bd 4eae b73b
000001d0: 4b09 aebc 37d2 0a3d 7263 5f3d a7e8 863d
000001e0: 536c cf3d 3243 493c 5272 b43d 50b3 1a3e
000001f0: fde2 0bbe 5abd 043e fe25 74bc 8548 adbc
00000200: 865e 433d 08c9 713e 321a e93a e3d6 46bc
00000210: 65ee 2dbe c332 123e 6de5 413e 22a8 023c
00000220: a055 a43d 7a93 88bd e8bc 0d3e 9d0e 0a3d
00000230: 5d12 38be 5a83 f8bd a971 42be 8e1e 413c
00000240: f3b0 c33d 5473 753e b42a 3f3d 3edb 163c
00000250: 191d 0f3e 8798 fabd ef3a 28be 07d6 a0bd
00000260: d59b d6bd 0364 61be 421c 34bd 82fa 20bd
00000270: 1b76 af3d 99c8 373a d625 263e ce5e 283d
00000280: a5c8 113e 43b4 fa3c 39fc 4e3e a1e0 99bd
00000290: 82ec 7b3c 7f1d 843d 2cfc dc3d f87e 003e
000002a0: 1d50 d43d 4975 4e3d d333 c63b 665e 88bd
000002b0: e4ca 35be aaf0 d43c 214b 213e 4ae3 493d
000002c0: 297b a9bd 4037 d53c df34 253d ad1a dcbc
000002d0: 03f4 09bd 8f1a e83c de18 153d 3cdf 933d
000002e0: b5b5 183d efa7 d2bd e23e 143e bdc4 29bd
000002f0: 9e3e 853e 2962 b9bd 8080 e83d c7e0 1d3c
00000300: e6fb d3bd 9337 2cbd 0153 0cbd d531 08bd
00000310: c0c1 eb3c 836b e23c 76ff 5bbd 4ede 94bd
00000320: c32f dc3d f872 24bd e019 96bd a1d4 c23d
00000330: b975 3d3e 7eed 88bd c865 aebd 1247 923d
00000340: b025 063e 83f6 b83b 473c 32bd 4968 723c
00000350: 1574 3ebd 9e3c 07bd 6a24 48bb 4a25 2d3d
00000360: c49b a93d 1253 babe 0c27 cd3c 72f3 213d
00000370: e875 1cbd 4559 ef3c 6a42 5c3e 1f10 a1bd
00000380: 7ede e93d 2d49 2c3c db9d 2ebb a3d8 e93d
00000390: 6fcf d5bd 7f39 eebd 4efc 61bd a919 603e
000003a0: cc00 49be 2b19 a83d 5986 cfbd 183d 233d
000003b0: 01c7 623c b9ff 0e3e c64d 1bbc 44ac cc3b
000003c0: 9662 44bd b3fe d5bc aefd ad3c 4614 d83c
000003d0: b423 8abe 87fb bb3d 3f83 47be 3501 1abe
000003e0: 6053 0f3e 7f06 22be 0406 f33d df85 ee3b
000003f0: ff63 aebd 09f5 29bd 60e5 323c fc44 d6bc

network_body.linear_encoder.seq_layers.2.bias f4 [128]
0.012831429 0.0070433305 0.02429495 0.0086201355 -0.0033493612 0.0129026165 0.019429183 0.00012027343
-0.00075270253 0.011179057 0.011538417 -0.009544411 -0.0023990935 0.011431205 -0.008970416 0.016291399
0.0092254765 -0.014070821 0.018166576 0.018284844 0.02363958 0.021294631 0.013078487 0.0023144835
0.011058311 0.0010636537 0.00675815 0.011312394 0.004562085 0.010110078 0.0025991595 0.0013271733
0.020996418 -0.010684837 0.021809306 0.012175658 0.018550422 0.014987792 -0.0019342088 0.0021413178
0.00081669947 0.0039171223 -0.009526351 0.005863106 0.01924882 0.008960583 0.013370127 0.017234797
0.010879404 0.017046921 0.017087787 0.0037010387 0.021548966 0.019893384 0.0060738185 0.016128285
0.013875443 0.012701744 -0.008218277 0.010852586 0.0026409389 0.005621261 0.029865598 -0.009436257
0.016555775 0.00063592347 0.009148547 0.00542924 0.0017604773 0.0030547488 0.009916908 0.019128961
0.008243784 -0.00028041983 0.005243402 0.009882577 0.0031329284 0.018367471 0.018394263 0.016704297
0.01133496 -0.013236126 0.003453049 0.009589055 0.023778945 0.019756762 0.013604463 0.009309817
-0.00909395 0.014701952 -0.007751484 0.005524249 -0.0058950796 -0.009194926 0.018755972 -0.00039389307
0.01199706 0.01536912 0.008470637 0.0059935935 -0.0019454702 0.02600537 -0.021671947 0.0128553435
0.015643131 0.007037773 -0.0049035824 0.0006506301 0.008897428 0.008837003 0.011551475 0.0057329214
0.01530839 0.015889073 -0.0014660194 0.009385033 0.0058948305 0.02738928 0.015210412 -0.0016293371
-0.0118484935 -0.0055211396 0.013222431 0.00852031 0.017404716 0.0047130645 0.017870229 0.01847462
00000000: ea3a 523c bdcb e63b 3406 c73c 783b 0d3c
00000010: f580 5bbb 7f65 533c f329 9f3c 4e3b fc38
00000020: 0351 45ba 5d28 373c a10b 3d3c 2960 1cbc
00000030: 1c3a 1dbb f349 3b3c a7f8 12bc 8a75 853c
00000040: 7426 173c 4d89 66bc 12d2 943c 19ca 953c
00000050: cba7 c13c 1472 ae3c 2647 563c 97ae 173b
00000060: eb2d 353c 4c6a 8b3a 7973 dd3b 9f57 393c
00000070: 8b7d 953b bea4 253c a956 2a3b 8cf4 ad3a
00000080: ae00 ac3c 740f 2fbc 6ea9 b23c 697c 473c
00000090: 0ef7 973c 5b8f 753c 4785 fdba 5a55 0c3b
000000a0: c617 563a 345b 803b 6914 1cbc 4c1f c03b
000000b0: b4af 9d3c 69cf 123c 610e 5b3c fd2f 8d3c
000000c0: 873f 323c fca5 8b3c b0fb 8b3c 208d 723b
000000d0: 7587 b03c 73f7 a23c e206 c73b 771f 843c
000000e0: d355 633c fa1a 503c f4a5 06bc 0bcf 313c
000000f0: 9a13 2d3b 8e32 b83b b3a8 f43c 889a 1abc
00000100: fa9f 873c 1ab4 263a cae3 153c c4e7 b13b
00000110: d1bf e63a 2e32 483b 877a 223c 57b4 9c3c
00000120: f010 073c 5005 93b9 d8d0 ab3b 88ea 213c
00000130: d151 4d3b 6177 963c 91af 963c 73d7 883c
00000140: 45b6 393c 56dc 58bc 8d4c 623b 691b 1d3c
00000150: 10cc c23c efd8 a13c 41e5 5e3c 3488 183c
00000160: cafe 14bc 75e0 703c 2900 febb c204 b53b
00000170: 832b c1bb 51a6 16bc 20a6 993c 6f83 ceb9
00000180: 518f 443c c3ce 7b3c 6dc8 0a3c e865 c43b
00000190: 26ff feba 3709 d53c 5e89 b1bc 389f 523c
000001a0: 0626 803c 1e9d e63b 3bae a0bb 0c8f 2a3a
000001b0: 85c6 113c 14c9 103c 6642 3d3c 3bdb bb3b
000001c0: 0bd0 7a3c cd29 823c 7327 c0ba aec3 193c
000001d0: 6c29 c13b 7c5f e03c 1835 793c 7b8f d5ba
000001e0: 2f20 42bc adea b4bb e5a2 583c c598 0b3c
000001f0: 5694 8e3c 0d70 9a3b 9664 923c 1658 973c

action_model._discrete_distribution.branches.0.weight f4 [3, 128]
-0.007242883 0.016745232 0.0021074787 0.019168673 0.010473668 -0.021888591 -0.0056859883 0.014090096
-0.014974733 0.0063442704 0.010379351 -0.012513573 0.016344486 -0.006390176 -0.011223921 0.015161648
0.0011477898 0.0047215954 -0.017850194 -0.017501622 -0.02229113 -0.027442044 0.00786541 0.011526998
-0.016146827 0.012546304 0.010878015 -0.011250586 0.010818023 0.0039125807 0.031079143 -0.0155963525
-0.019005634 0.010456864 0.0229687 -0.0062660873 -0.010820754 -0.021156432 0.030094363 0.0005034499
-0.009516685 0.0029362615 0.0018796413 -0.016874462 -0.023455929 -0.018049307 0.010569567 -0.006204847
0.009268254 -0.013469902 -0.011704497 0.000381482 0.0065888707 0.022379316 0.008658355 -0.015515175
-0.013327418 0.0019071401 0.0046954695 0.0134203965 -0.0032412007 -0.0065591047 -0.0037030152 0.015295457
-0.023912229 0.014228767 0.03931356 0.012253629 -0.0059916093 0.0069903308 0.003989871 0.013727787
0.00018279484 0.007850236 0.019249076 -0.00019700348 -0.005148272 0.010361321 -0.018385481 -0.008568952
0.0046452093 -0.000305653 0.010188508 -0.0054768506 -0.010084238 -0.018814472 -0.021443628 0.01905013
0.012066321 -0.0021131167 0.002455983 0.013719823 0.040325552 0.011506912 -0.013754292 -0.014584768
0.013472782 -8.599423e-05 -0.014482232 0.013399763 -0.02944478 0.028840777 0.014818075 0.024868518
0.004824791 -0.01670525 0.016298296 -0.016024604 0.0172145 0.006749618 0.01553376 0.011875067
-0.015900396 -0.01958641 0.029992694 0.0059560966 0.007843112 -0.00044007404 -0.015656814 0.022604434
0.018337848 -0.011033619 0.022948962 0.0038952595 -0.009348964 0.01412695 0.0298846 0.004388758
0.02242579 0.018842896 0.056979127 0.0055784234 -0.036154747 0.01464905 0.014813057 -0.032540318
0.0253184 -0.0074710017 -0.0078420965 -0.033645723 -0.010913561 0.033480365 0.0004440359 -0.012235537
0.0035804887 -0.01861572 0.037845854 0.036914527 0.038992845 0.03170144 0.034298874 -0.03643687
0.020314671 -0.019599143 0.013392007 -0.035642773 -0.03228319 -0.025890917 -0.033830382 0.020003933
0.0401099 -0.027136913 0.0047987443 0.031993505 0.011192883 0.029329676 -0.030945182 -0.030045973
-0.014038058 -0.026064204 -0.037765164 0.01531234 0.013092087 0.027328262 0.015753444 0.028463949
-0.028902106 0.0368327 0.03781623 0.0056727533 0.008413248 -0.016929312 0.008633524 0.00045554602
0.021442533 0.014917317 -0.028549934 -0.011659822 -0.03066572 0.021662105 0.031744417 -0.037702553
0.034718297 -0.0027856426 0.009259961 -0.022882672 -0.012734083 -0.003275312 0.028096408 0.00470582
0.020165408 -0.008181285 0.0059852907 -0.018042646 0.020876838 -0.0021812958 0.02172017 0.009403142
-0.023784611 -0.03816265 0.008931904 0.025273997 -0.008401866 0.023486663 0.023840368 -0.0013060413
-0.040604487 0.02137408 -0.025674175 -0.033558648 -0.021446522 -0.04292282 -0.007973825 -0.017792372
-0.015581373 0.025860025 0.027165024 -0.022385444 0.007673077 -0.008062707 -0.021605667 -0.016055679
0.014038588 0.03051361 -0.013988295 0.014775296 0.010317953 -0.010213276 0.034531713 0.011893891
0.042438757 -0.0012545509 -0.021345314 -0.014558998 0.023438202 0.011294094 0.024495358 -0.053690173
-0.04073727 0.002536237 -0.0012152591 -0.00355639 0.02363968 -0.026005145 0.017233282 0.024333064
00000000: b555 edbb 4c2d 893c a01d 0a3b 9f07 9d3c
00000010: bf99 2b3c b44f b3bc 8751 babb 25da 663c
00000020: 9558 75bc 99e3 cf3b 270e 2a3c bb05 4dbc
00000030: dfe4 853c ae64 d1bb 89e4 37bc 9068 783c
00000040: 6f71 963a 9db7 9a3b 923a 92bc 905f 8fbc
00000050: e39b b6bc 23ce e0bc ecdd 003c bcdb 3c3c
00000060: 5a46 84bc 038f 4d3c b439 323c 6154 38bc
00000070: 143e 313c 1b35 803b b099 fe3c d887 7fbc
00000080: b4b1 9bbc 4453 2b3c db28 bc3c c053 cdbb
00000090: 8849 31bc 4150 adbc 7488 f63c f3f9 033a
000000a0: dfeb 1bbc 4b6e 403b 4c5e f63a 503c 8abc
000000b0: a626 c0bc 24dc 93bc fa2b 2d3c 0752 cbbb
000000c0: e0d9 173c ddb0 5cbc 38c4 3fbc a601 c839
000000d0: 74e7 d73b d454 b73c c6db 0d3c 5c33 7ebc
000000e0: 3e5b 5abc 01f9 f93a 74dc 993b 39e1 5b3c
000000f0: 536a 54bb c2ed d6bb 49ae 72bb cc99 7a3c
00000100: 94e3 c3bc c61f 693c 4107 213d 72c3 483c
00000110: 4355 c4bb 250f e53b 77bd 823b 83ea 603c
00000120: 9eac 3f39 479e 003c 3db0 9d3c b892 4eb9
00000130: d6b2 a8bb 88c2 293c 269d 96bc ca64 0cbc
00000140: d736 983b 0d40 a0b9 b3ed 263c 2777 b3bb
00000150: 5c38 25bc cf20 9abc 8caa afbc 050f 9c3c
00000160: d2b1 453c 377c 0abb 8ff4 203b 1cc9 603c
00000170: 682c 253d 7d87 3c3c af59 61bc f3f4 6ebc
00000180: f2bc 5c3c cd57 b4b8 e246 6dbc ae8a 5b3c
00000190: 2e36 f1bc 7e43 ec3c 83c7 723c 10b9 cb3c
000001a0: 4819 9e3b 73d9 88bc 0184 853c 0846 83bc
000001b0: 6c05 8d3c e62b dd3b 5081 7e3c a48f 423c
000001c0: 8c41 82bc ae73 a0bc 3db3 f53c 5c2b c33b
000001d0: 6580 003c bdb9 e6b9 b842 80bc ef2c b93c
000001e0: 4139 963c 5ac6 34bc 76ff bb3c 9c47 7f3b
000001f0: 662c 19bc b974 673c 8cd0 f43c 92cf 8f3b
00000200: 4ab6 b73c 6b5c 9a3c f262 693d 35cb b63b
00000210: 0017 14bd 9202 703c 77b2 723c ff48 05bd
00000220: 8868 cf3c 4ecf f4bb 237c 00bc 19d0 09bd
00000230: cbce 32bc b522 093d 7dcd e839 9077 48bc
00000240: a2a6 6a3b ff7f 98bc 4104 1b3d b033 173d
00000250: f6b6 1f3d 5fd9 013d fa7c 0c3d d43e 15bd
00000260: f46a a63c 628e a0bc 266a 5b3c 28fe 11bd
00000270: 613b 04bd 3019 d4bc ba91 0abd 4adf a33c
00000280: 474a 243d 3b4e debc c93e 9d3b 9f0b 033d
00000290: 5b62 373c ca44 f03c c080 fdbc f922 f6bc
000002a0: e2ff 65bc 9984 d5bc a5af 1abd 9ce0 7a3c
000002b0: 3180 563c 85df df3c 5e0d 813c 3a2d e93c
000002c0: 1cc4 ecbc e3dd 163d 31e5 1a3d 81e2 b93b
000002d0: b8d7 093c 57af 8abc a073 0d3c 5ad6 ee39
000002e0: 40a8 af3c c367 743c 8de1 e9bc d708 3fbc
000002f0: ad36 fbbc ba74 b13c 6f06 023d fe6d 1abd
00000300: c634 0e3d 548f 36bb 17b7 173c 7174 bbbc
00000310: 9ea2 50bc 9ea6 56bb 702a e63c 4833 9a3b
00000320: ed31 a53c cc0a 06bc 4220 c43b 2cce 93bc
00000330: e705 ab3c 12f4 0ebb 7fee b13c a30f 1a3c
00000340: f2d7 c2bc 7050 1cbd 1f57 123c 6a0b cf3c
00000350: fba7 09bc 1a67 c03c e04c c33c 792f abba
00000360: e450 26bd b218 af3c a652 d2bc cb74 09bd
00000370: 9eb0 afbc d7cf 2fbd a5a4 02bc 4fc1 91bc
00000380: 0449 7fbc 67d8 d33c 2f89 de3c ae61 b7bc
00000390: 6f6e fb3b 7219 04bc 5efe b0bc 3387 83bc
000003a0: 1b02 663c aef7 f93c 292f 65bc 1514 723c
000003b0: a20c 293c 9655 27bc 2071 0d3d 98de 423c
000003c0: 43d4 2d3d be6f a4ba 5edc aebc dd88 6ebc
000003d0: 7901 c03c dd0a 393c 7daa c83c 3aea 5bbd
000003e0: 20dc 26bd ff36 263b 5449 9fba 5312 69bb
000003f0: 01a8 c13c be08 d5bc d02c 8d3c 2256 c73c

action_model._discrete_distribution.branches.0.bias f4 [3]
-0.009098108 0.022678882 -0.012073295
00000000: 3b10 15bc 10c9 b93c 12cf 45bc

action_model._discrete_distribution.branches.1.weight f4 [3, 128]
0.0068523968 -0.0012823978 -0.020726366 -0.017102811 -0.038301647 0.010316313 -0.00048498053 -0.011474922
-0.012218519 -0.007062356 -0.0270554 -0.006122688 -0.01009631 0.018955193 0.014599477 -0.020522814
-0.0232048 -0.0013202917 -0.021680402 -0.005642627 0.003129106 0.00536502 0.012321295 -0.016596114
-0.011065167 -0.0052150036 -0.011841914 -0.008439655 -0.020084238 -0.003256029 -0.009085338 0.0070374385
0.0018793277 0.0070747174 -0.0095845135 0.021128142 0.00062476494 0.028801352 -0.018633902 0.003301615
0.002596361 -0.00645284 -0.008379654 0.00716514 0.0034599982 0.0040554013 0.015007929 0.034583256
-0.013283322 0.005611874 0.0108965635 -0.009876472 0.003982332 -0.018822184 -0.029291311 -0.012656254
0.0049155317 0.00012125382 2.8405102e-05 -0.0053764614 0.0012389361 0.032981955 -0.043293647 -0.008717782
0.019119285 -0.016745957 -0.028180927 -0.040784135 0.0033706473 -0.009868974 -0.0040557375 -0.013505307
0.0031351265 -0.0138122495 0.00037834537 -0.026272215 -0.015663547 -0.027937979 0.006969353 -0.01351676
-0.009558976 0.00068437203 0.0023028553 0.013510678 0.016644761 0.0015023816 -0.0073725735 -0.014735664
-0.0062033148 0.0021128356 0.00076367985 -0.0045835827 -0.017715933 0.0038179685 0.017025728 0.008701657
-0.017098626 -0.010722896 -0.014732659 -0.009295864 0.03192492 -0.015012173 -0.0059804274 -0.028381154
-0.05951477 0.014299796 0.015565963 0.009091348 -0.012898621 0.015629614 -0.028234223 -0.027167927
0.027666708 -0.016379481 0.0008524092 -0.028834332 -0.023112908 -0.011752786 0.00954596 -0.0054476173
-0.0036872241 -0.006474444 -0.016536344 -0.015064279 -0.0056925616 -0.025076056 -0.044324204 -0.026775116
-0.014075329 -0.04551934 0.0359556 0.042567387 0.011932921 -0.034244984 -0.037481416 -0.007841682
0.013786658 -0.030865565 0.08379283 0.03785633 0.01703895 0.030404963 0.0019455218 -0.042291917
-0.041715764 -0.00971337 0.016483322 0.03783432 -0.023691986 -0.027200453 0.025203813 0.025717428
0.07237476 -0.0021669057 -0.020374345 -0.022304501 0.015000439 -0.03933583 0.03263662 0.008446831
-0.0026060222 0.019106852 -0.061489023 -0.005970925 -0.039997283 -0.038810078 0.040952317 -0.0030518086
-0.061623078 0.009121905 0.01618581 -0.031603556 -0.073228575 0.006117083 -0.037356574 0.019321186
0.037148587 0.028213155 -0.010110613 0.048405744 -0.070271075 -0.06507582 0.06190576 -0.022314606
-0.043021902 0.057009403 -0.006450104 -0.024326598 -0.006197355 -0.016250154 0.06759516 0.0026124662
-0.006062527 0.066770814 0.070365205 0.04428391 0.002756645 -0.04609293 0.0066523035 -0.06626574
-0.00070704665 -0.007846767 0.059548605 0.061074454 0.006901493 0.06820076 -0.05250378 -0.058150146
0.0015282857 -0.017545486 0.0599117 -0.030458422 -0.066298746 0.009385707 -0.0044194306 -0.050334647
0.01178819 -0.047254838 0.0046758773 0.031693388 0.020944456 0.0016449182 -0.08788159 -0.02797698
0.08432402 -0.025111508 0.0036107237 -0.040587567 -0.00095225545 -0.053965155 0.007938324 -0.07367877
0.089682676 0.010161035 -0.0073617697 0.010765007 0.065344684 -0.066956244 0.08068181 0.039118964
-0.008249454 -0.042286932 0.044636983 -0.05396129 0.0659552 -0.053404327 -0.025763463 -0.007040502
0.0032749472 -0.006749517 -0.037845105 0.041992202 0.055260677 0.04306909 0.05953168 0.041991413
00000000: 128a e03b 2116 a8ba 57ca a9bc 321b 8cbc
00000010: 30e2 1cbd c105 293c fc44 feb9 5001 3cbc
00000020: 2f30 48bc 566b e7bb 49a3 ddbc d4a0 c8bb
00000030: fe6a 25bc ec47 9b3c a532 6f3c 761f a8bc
00000040: fe17 bebc a30d adba 199b b1bc c9e5 b8bb
00000050: b011 4d3b 0dcd af3b 42df 493c 93f4 87bc
00000060: ad4a 35bc 9fe2 aabb 9604 42bc 7b46 0abc
00000070: b387 a4bc 1a63 55bb abda 14bc 509a e63b
00000080: c653 f63a 08d3 e73b 5d08 1dbc ed14 ad3c
00000090: 44c7 233a d0f0 eb3c 20a6 98bc e85f 583b
000000a0: b627 2a3b 5872 d3bb d14a 09bc 8dc9 ea3b
000000b0: 23c1 623b 2ce3 843b d1e3 753c 2ca7 0d3d
000000c0: 4aa2 59bc d0e3 b73b 8087 323c edd0 21bc
000000d0: 397e 823b fb30 9abc 55f4 efbc 2d5c 4fbc
000000e0: 7812 a13b a649 fe38 7e47 ee37 072d b0bb
000000f0: cc63 a23a 1618 073d ae54 31bd 07d5 0ebc
00000100: 0ca0 9c3c d12e 89bc b0db e6bc 440d 27bd
00000110: 14e6 5c3b 7ab1 21bc fee5 84bb 5d45 5dbc
00000120: b276 4d3b c64c 62bc a85c c639 d438 d7bc
00000130: d750 80bc 30de e4bc 2c5f e43b 6775 5dbc
00000140: 409d 1cbc 6e67 333a 80eb 163b e45b 5d3c
00000150: 985a 883c 90eb c43a a195 f1bb db6d 71bc
00000160: 2d45 cbbb 8077 0a3b b031 483a e131 96bb
00000170: 0121 91bc e236 7a3b 8a79 8b3c 6591 0e3c
00000180: 6b12 8cbc 16af 2fbc 4061 71bc ae4d 18bc
00000190: b4c3 023d 9ef5 75bc 76f7 c3bb 987f e8bc
000001a0: c2c5 73bd b149 6a3c 6208 7f3c e1f3 143c
000001b0: bd54 53bc ad09 803c 754b e7bc 468f debc
000001c0: 4ba5 e23c 432e 86bc 3774 5f3a fa35 ecbc
000001d0: 4857 bdbc c28e 40bc a966 1c3c ed81 b2bb
000001e0: 5ba5 71bb 9327 d4bb 3a77 87bc 2ad0 76bc
000001f0: ab88 babb 4d6c cdbc 4c8d 35bd 7d57 dbbc
00000200: 359c 66bc 7d72 3abd 2e46 133d 245b 2e3d
00000210: 4c82 433c 7844 0cbd 1d86 19bd 667a 00bc
00000220: 6fe1 613c c8d9 fcbc 939b ab3d 3d0f 1b3d
00000230: 4595 8b3c d413 f93c e100 ff3a 4a3a 2dbd
00000240: 26de 2abd d424 1fbc 0808 873c 29f8 1a3d
00000250: b215 c2bc 7cd3 debc 3a78 ce3c 5bad d23c
00000260: 3839 943d a502 0ebb 19e8 a6bc eeb7 b6bc
00000270: 67c4 753c 9b1e 21bd faad 053d 9464 0a3c
00000280: ccc9 2abb f985 9c3c eadb 7bbd c0a7 c3bb
00000290: 31d4 23bd 51f7 1ebd 9ebd 273d da00 48bb
000002a0: 7b68 7cbd 0b74 153c 1b98 843c bb72 01bd
000002b0: ddf8 95bd d071 c83b 3503 19bd 7747 9e3c
000002c0: 1e29 183d 461f e73c fca6 25bc 1a45 463d
000002d0: 48ea 8fbd 7946 85bd e590 7d3d 1fcd b6bc
000002e0: bc37 30bd b182 693d 655b d3bb 9348 c7bc
000002f0: 2f13 cbbb 0b1f 85bc 556f 8a3d e935 2b3b
00000300: 2aa8 c6bb 23bf 883d a21b 903d 0c63 353d
00000310: d4a8 343b f1cb 3cbd 91fb d93b 55b6 87bd
00000320: 1959 39ba ba8f 00bc 3de9 733d 3529 7a3d
00000330: eb25 e23b d7ac 8b3d 340e 57bd d92e 6ebd
00000340: c250 c83a 8dbb 8fbc f965 753d f183 f9bc
00000350: a3c7 87bd 82c6 193c dfd0 90bb b42b 4ebd
00000360: 4123 413c 4a8e 41bd 1a38 993b edd0 013d
00000370: b593 ab3c 4c9a d73a 43fb b3bd fb2f e5bc
00000380: 12b2 ac3d a6b6 cdbc e4a1 6c3b 263f 26bd
00000390: c8a0 79ba 910a 5dbd be0f 023c e5e4 96bd
000003a0: 8dab b73d 787a 263c 003b f1bb b65f 303c
000003b0: 6fd3 853d 5b20 89bd 813c a53d 353b 203d
000003c0: b828 07bc 1035 2dbd 45d5 363d 8306 5dbd
000003d0: 8513 873d 7fbe 5abd e60d d3bc 03b4 e6bb
000003e0: 7fa0 563b 0d2b ddbb 7803 1bbd 0400 2c3d
000003f0: 0559 623d 3769 303d 7ed7 733d 30ff 2b3d

action_model._discrete_distribution.branches.1.bias f4 [3]
-0.000879089 -0.008088196 0.010082326
00000000: aa72 66ba 5a84 04bc 5730 253c

critic.network_body.linear_encoder.seq_layers.0.weight f4 [128, 37]
0.13651843 0.21328312 -0.18793048 0.0013989335 -0.06625327 -0.13850848 -0.068783484 0.14197364
0.052737985 0.29230243 0.08066247 -0.14111349 0.35489228 0.0060638604 0.028157342 0.111510925
-0.23371878 0.13498317 -0.23385692 0.120406955 -0.15568225 -0.12229186 -0.113611296 -0.25471413
-0.2760245 -0.12873791 0.32942364 -0.0010659365 -0.07436469 -0.06737879 -0.15587737 -0.19721468
0.21096133 -0.12889582 0.10817796 -0.09104701 0.27448124 -0.23056641 -0.085083425 -0.28867078
0.013586908 -0.15403391 0.28559795 -0.30899888 -0.03517597 -0.29338065 -0.01369471 -0.03872091
-0.13423623 0.14066744 0.22182903 0.17092825 -0.03683469 -0.2407098 -0.009436041 -0.16020514
0.076790534 -0.17530139 0.30660257 0.15650465 0.4149584 -0.33736593 0.35153037 0.02825035
0.53755236 -0.21597053 -0.020468995 0.020187387 0.1162502 -0.05262274 0.08502992 0.24647287
0.24676761 -0.46212888 0.10688365 0.20393912 -0.3898112 -0.25292218 -0.044122387 0.22899334
0.07717993 -0.13844843 0.2852055 0.052435473 0.020105418 0.03325764 0.08478224 0.022758361
-0.0051911613 -0.29390606 -0.006937996 -0.15883172 0.027673105 -0.11255905 0.07141255 0.18300891
-0.10935585 0.0654893 -0.10868484 0.1379719 0.025664521 0.19097221 -0.22815762 0.020078987
-0.096816406 -0.11721916 -0.024890952 0.12839825 -0.04501561 0.09217313 0.16536489 0.12035835
0.016093308 -0.1461535 0.06858447 -0.039458767 -0.05085826 -0.19521224 0.329302 0.30665344
0.16185814 0.04025132 0.114246316 -0.033940483 0.11025456 -0.050488178 0.0078219455 -0.3600369
-0.011164556 -0.025783742 0.11410808 0.13881686 0.41609016 -0.2726195 0.24639922 -0.16602887
0.12275748 0.17684652 0.2853768 0.12102423 -0.08561538 0.034148287 -0.052183002 -0.22757837
0.08091215 0.0677437 -0.10711147 0.09357142 -0.08541495 -0.34746543 -0.1182343 0.3683318
-0.06719979 0.11998978 0.15980715 0.39538732 -0.07898877 -0.31713793 -0.03265667 0.13459788
0.0154638365 0.014803396 0.20373748 -0.3231271 -0.05932553 0.1278327 0.05455556 0.07403222
-0.07204826 0.096349 -0.09464551 -0.19218986 -0.0038825537 0.12707083 0.16027273 -0.14421983
-0.044803772 -0.22202381 0.100887984 0.06569529 0.2608894 0.0058614537 -0.19501437 0.050967243
0.18054682 0.19422439 -0.04156112 -0.122533634 0.17995423 -0.035763633 0.13037746 0.07469802
0.2531737 0.27613187 0.21489292 0.2328194 -0.0655996 -0.14222103 0.18817389 0.17515548
0.067512244 -0.017361427 0.016472993 -0.2516694 -0.0061394675 -0.030781414 0.050370917 -0.24740802
-0.15859544 0.071618855 0.28952897 -0.0037323232 -0.10564024 0.13428493 0.1519248 0.29186293
-0.1501073 0.053583253 0.1469014 0.06057652 -0.025370272 0.00784495 0.2527056 0.045517866
-0.28781617 -0.04989195 0.18387926 0.26154655 0.10800353 0.08356825 -0.12120435 0.19759089
0.16518593 -0.017263556 0.05576637 0.19205587 0.043391354 -0.17220221 -0.12639762 0.053392805
0.003387739 0.11435747 -0.024267174 0.033999532 0.105315536 -0.13333721 -0.45341888 -0.089108
-0.35541555 0.100345895 0.11796829 -0.1900124 0.43981117 -0.13389577 -0.14424399 0.031154348
00000000: 7dcb 0b3e e466 5a3e d970 40be 6b5c b73a
00000010: cbaf 87bd 2bd5 0dbe 5bde 8cbd 8a61 113e
00000020: c903 583d aaa8 953e 5d32 a53d 0e80 10be
00000030: 71b4 b53e 59b3 c63b 3aaa e63c d75f e43d
00000040: fa53 6fbe 0739 0a3e 3078 6fbe ec97 f63d
00000050: 2b6b 1fbe 2874 fabd 0aad e8bd e469 82be
00000060: 1553 8dbe dfd3 03be 37aa a83e e5b6 8bba
00000070: 844c 98bd e4fd 89bd 519e 1fbe a5f2 49be
00000080: 3f06 583e 44fd 03be 688c dd3d db76 babd
00000090: ce88 8c3e 9a19 6cbe 3840 aebd a8cc 93be
000000a0: 9f9b 5e3c 11bb 1dbe e539 923e 1a35 9ebe
000000b0: ae14 10bd fd35 96be c75f 60bc d199 1ebd
000000c0: 3975 09be 200b 103e 2627 633e d107 2f3e
000000d0: f9df 16bd a17c 76be a099 1abc d10c 24be
000000e0: 5b44 9d3d 3582 33be 03fb 9c3e c142 203e
000000f0: 6d75 d43e 3abb acbe cafb b33e 476d e73c
00000100: 089d 093f 6127 5dbe 98ae a7bc 0560 a53c
00000110: 9614 ee3d f18a 57bd 2b24 ae3d 6263 7c3e
00000120: a6b0 7c3e 289c ecbe d1e5 da3d 6bd5 503e
00000130: 5595 c7be 047f 81be adb9 34bd 3b7d 6a3e
00000140: 8310 9e3d 6dc5 0dbe 7506 923e 94c6 563d
00000150: 1eb4 a43c 2a39 083d 50a2 ad3d be6f ba3c
00000160: 9e1a aabb db7a 96be 2158 e3bb c8a4 22be
00000170: b5b2 e23c 5c85 e6bd be40 923d b066 3b3e
00000180: f6f5 dfbd 411f 863d 2896 debd 8148 0d3e
00000190: 673e d23c 388e 433e 27a2 69be b07c a43c
000001a0: ae47 c6bd 9910 f0bd 1ce8 cbbc d57a 033e
000001b0: 4a62 38bd 44c5 bc3d 6a55 293e 707e f63d
000001c0: 1dd6 833c 43a9 15be 0476 8c3d 849f 21bd
000001d0: c050 50bd b8e5 47be 469a a83e ae01 9d3e
000001e0: 24be 253e 91de 243d f9f9 e93d 2d05 0bbd
000001f0: 25cd e13d b1cc 4ebd 9e27 003c c256 b8be
00000200: 8beb 36bc 6d38 d3bc 7fb1 e93d 0226 0e3e
00000210: c509 d53e c894 8bbe 1450 7c3e 7903 2abe
00000220: 4668 fb3d 4117 353e e81c 923e 8ddb f73d
00000230: 1e57 afbd 13df 0b3d d8bd 55bd 4e0a 69be
00000240: 45b5 a53d 36bd 8a3d 425d dbbd 5fa2 bf3d
00000250: 09ee aebd fde6 b1be d324 f2bd fc95 bc3e
00000260: 0ba0 89bd 34bd f53d 7ca4 233e 3570 ca3e
00000270: ddc4 a1bd e75f a2be 00c3 05bd 07d4 093e
00000280: 085c 7d3c f189 723c 8fa0 503e ea70 a5be
00000290: 54ff 72bd 93e6 023e a775 5f3d 349e 973d
000002a0: 0a8e 93bd a052 c53d 81d5 c1bd 6bcd 44be
000002b0: 7172 7ebb db1e 023e 891e 243e 5dae 13be
000002c0: 2984 37bd 365a 63be 5c9e ce3d 418b 863d
000002d0: 4c93 853e 7011 c03b d9b1 47be 07c3 503d
000002e0: 44e1 383e c2e2 463e fe3b 2abd eaf2 fabd
000002f0: ec45 383e e37c 12bd ab81 053e 47fb 983d
00000300: fc9f 813e 2861 8d3e e40c 5c3e 3568 6e3e
00000310: 1559 86bd 64a2 11be a8b0 403e f55b 333e
00000320: dc43 8a3d 8d39 8ebc 5ff2 863c d0da 80be
00000330: 962d c9bb 4e29 fcbc bc51 4e3d 8758 7dbe
00000340: d866 22be e8ac 923d 243d 943e fe99 74bb
00000350: e959 d8bd fd81 093e 2d92 1b3e 0f6f 953e
00000360: bab5 19be 1d7a 5b3d 526d 163e 161f 783d
00000370: 51d5 cfbc 1b88 003c a162 813e f170 3a3d
00000380: a45c 93be 805b 4cbd d84a 3c3e 6ee9 853e
00000390: f430 dd3d d525 ab3d fc39 f8bd 4455 4a3e
000003a0: 8026 293e 4d6c 8dbc 476b 643d 4baa 443e
000003b0: 22bb 313d c755 30be 616e 01be 6ab2 5a3d
000003c0: d404 5e3b 4034 ea3d f4cb c6bc 1843 0b3d
000003d0: acaf d73d 8d89 08be 8526 e8be 417e b6bd
000003e0: 07f9 b5be 2682 cd3d 5c99 f13d 9c92 42be
000003f0: ee2e e13e f91b 09be b2b4 13be 6737 ff3c

critic.network_body.linear_encoder.seq_layers.0.bias f4 [128]
-0.003928868 0.020643694 0.01817886 0.021319823 0.013623888 0.0051846406 -0.013430451 -0.005826104
-0.002716478 0.05413946 8.159339e-06 -0.003750679 0.016237436 -0.0030973246 0.017210873 -0.0051653604
-0.0037156441 -0.009373518 -0.008163193 0.008118903 -0.0070931166 -0.009842083 0.000969093 0.020512935
0.016086558 0.015556447 -0.008825388 0.013096613 -0.0063438737 0.010486882 -0.006532087 -0.004411212
-0.0015750781 0.011029366 -0.0010286289 -0.0050149676 0.0011106504 0.019603563 -0.0006224658 0.008375037
-0.015028591 -0.0070308177 -0.0065126726 -0.005112207 0.011757701 -0.0010542735 -0.010277921 -0.006657577
0.0074384823 0.02309201 0.005310226 -0.004685482 -0.007788085 0.02399754 -0.0014316246 0.0019746895
-0.006508487 0.01422868 -0.00029692467 0.012817139 0.004729669 -0.0020376027 0.006766866 -0.0087783
0.011786896 -0.0037627358 0.0019093638 0.013275633 0.052446507 0.00882021 0.02533902 -0.008239374
-0.005132047 0.020584201 -0.009223078 0.012162839 -0.0020070204 -0.004844227 0.009131136 -0.011238751
-0.002940572 0.014818015 0.008325023 -0.019858766 0.0029598095 8.2282095e-05 -1.774212e-05 0.0074236877
0.020876441 0.0076493137 0.023026438 0.040916722 0.00022391246 0.004435378 0.002335521 -0.0069300947
-0.0015843341 -0.0033775251 0.00564349 0.010125326 -0.0075222417 -0.012053957 0.01884169 -0.003888663
0.013233674 -0.008094256 -0.0007077224 0.011821111 0.01185675 -0.005756491 0.024540925 -0.0051573855
0.008952529 -0.008610463 0.009547925 -0.004887357 0.011153008 0.0021686128 0.0014650209 0.01079863
0.005063614 0.00096508843 0.009635927 0.010948454 0.002452232 0.009409247 0.02525956 0.0139110135
00000000: bcbd 80bb f71c a93c d5eb 943c e9a6 ae3c
00000010: ba36 5f3c ebe3 a93b 650b 5cbc e7e8 bebb
00000020: f006 32bb 57c1 5d3d 18e4 0837 f4cd 75bb
00000030: 5f04 853c 7cfc 4abb d1fd 8c3c 2f42 a9bb
00000040: 2a82 73bb 6293 19bc eabe 05bc 2605 053c
00000050: 606d e8bb b040 21bc bb0a 7e3a be0a a83c
00000060: f5c7 833c 78e0 7e3c 5c98 10bc 2d93 563c
00000070: 45e0 cfbb 2cd1 2b3c 1e0b d6bb ee8b 90bb
00000080: da72 ceba 84b4 343c 0fd3 86ba 9954 a4bb
00000090: 3e93 913a a797 a03c f92c 23ba 7437 093c
000000a0: 7b3a 76bc c662 e6bb 4268 d5bb 4d84 a7bb
000000b0: 5fa3 403c 8c2f 8aba ba64 28bc ce27 dabb
000000c0: 83be f33b 742b bd3c 6801 ae3b ac88 99bb
000000d0: 3133 ffbb 7d96 c43c 5aa5 bbba cb69 013b
000000e0: 2545 d5bb 691f 693c 8eac 9bb9 fafe 513c
000000f0: 57fb 9a3b 4d89 05bb 96bc dd3b dcd2 0fbc
00000100: d31d 413c 3b98 76bb 9e43 fa3a 0a82 593c
00000110: 26d2 563d a482 103c c793 cf3c 70fe 06bc
00000120: bb2a a8bb 33a0 a83c 651c 17bc a546 473c
00000130: 3788 03bb 52bc 9ebb c39a 153c bd22 38bc
00000140: 9db6 40bb 42c7 723c ad65 083c daae a2bc
00000150: 5df9 413b dd8e ac38 ead4 94b7 6842 f33b
00000160: 1205 ab3c 18a7 fa3b f1a1 bc3c 4b98 273d
00000170: 0bca 6a39 a656 913b 8a0f 193b d915 e3bb
00000180: 6ea9 cfba 7859 5dbb 06ed b83b b2e4 253c
00000190: 237d f6bb f67d 45bc e359 9a3c f0d8 7ebb
000001a0: 0dd2 583c c59d 04bc 7286 39ba 55ad 413c
000001b0: d042 423c f2a0 bcbb 0d0a c93c 49ff a8bb
000001c0: a1ad 123c e612 0dbc e66e 1c3c 1f26 a0bb
000001d0: 1bbb 363c 491f 0e3b f205 c03a bdec 303c
000001e0: acec a53b fdfd 7c3a 02e0 1d3c 2561 333c
000001f0: a0b5 203b 3e29 1a3c 23ed ce3c 05eb 633c

critic.network_body.linear_encoder.seq_layers.2.weight f4 [128, 128]
0.0036818413 -0.120601945 -0.07214727 0.033665888 0.049461637 0.062987894 -0.015661608 0.056376304
0.07228992 0.09769564 -0.0099319685 0.10939658 0.10304257 0.070040196 -0.017209802 0.086644866
-0.020398319 -0.055512324 -0.029387403 0.089782335 -0.121838376 0.036525007 0.029955484 -0.10196349
0.06705563 -0.0055745444 -0.030976461 0.16713 0.07956871 -0.0367858 0.08109908 0.12795548
-0.008842253 0.035488438 -0.054386068 0.06707223 -0.098405235 0.009320869 0.07369702 0.10558438
0.024316758 -0.0633898 -0.1682774 -0.13901024 -0.039536316 -0.09595328 0.052394252 0.08508217
0.008722411 -0.13303094 0.08231615 0.17034367 0.02289682 -0.06107897 -0.0815435 0.04826216
-0.05400795 0.028897423 -0.1259093 -0.046244927 -0.017215878 0.0045952224 0.05351313 0.057718635
-0.072674364 0.04026057 0.11477253 -0.04947835 0.12822418 0.13478498 -0.02077934 0.103342235
0.043019272 -0.022295414 0.024291998 0.05906921 0.04545382 -0.17436051 -0.0924015 -0.11197998
0.016811585 -0.20115049 0.069682695 -0.0067051724 -0.074490726 0.12229009 0.022345027 0.07843036
-0.074804544 -0.1327736 0.023129059 -0.06279961 0.0009614047 -0.1873009 0.051956397 -0.114064164
-0.08738232 0.023314206 -0.108568355 0.0028656933 0.0117689 -0.114025526 -0.014952444 0.08039598
-0.004183331 0.104811914 -0.02186299 0.037424706 -0.08668198 0.038261734 -0.027785465 0.008871663
-0.10869824 -0.048518796 0.033964578 -0.08440731 -0.0576424 0.018042235 0.024310675 -0.04757617
0.13311101 0.12782618 -0.0896011 -0.04126376 0.023322867 0.12835445 0.0014628575 -0.016044108
-0.07408548 -0.03550107 0.009941528 0.030582542 0.079714954 -0.031535238 -0.04180104 0.029246181
-0.032549202 -0.0186711 -0.035779145 -0.0731738 0.10617918 -0.030040596 0.087310836 -0.10792971
0.02015127 0.1455221 0.010062074 0.0110536115 -0.032465633 -0.08207017 0.13770415 0.050607037
-0.16637446 -0.0064548715 -0.00020994096 0.01522298 0.14974219 0.05583896 -0.028717626 -0.07851145
0.0977341 0.019363932 -0.035023123 -0.04673253 -0.009690968 -0.116101354 0.071266934 -0.21572694
-0.13564526 0.15428859 -0.18475837 -0.09496517 0.11248074 -0.14746633 -0.08669573 0.14132136
-0.057891656 0.0514447 -0.022686876 0.042316128 -0.1335332 0.08308791 -0.096563466 0.02683819
0.12745237 -0.04102918 -0.11971221 -0.09086228 0.03909102 0.0018831722 0.08155232 -0.059801716
0.19080344 0.1167165 -0.19819458 -0.031221673 0.09610609 -0.123635575 0.04024026 0.013526417
0.02256441 0.105083 -0.09508027 -0.21607132 -0.0038178815 -0.14990944 0.14781886 -0.029153368
-0.0050228713 -0.028489143 -0.056968175 0.05907761 0.13276453 -0.032876134 0.024666432 0.024855949
0.11334522 -0.08857159 0.000109456625 0.079103656 -0.1461907 0.09386312 -0.008464834 -0.12511118
-0.008697389 0.15271965 -0.1498041 -0.14543572 0.03697179 -0.02628905 0.11843931 -0.12229936
-0.11760217 0.08690516 0.06436235 -0.20737176 -0.24269238 0.20805621 0.05379647 -0.14865227
-0.16105756 -0.12755476 0.021702817 -0.16469285 0.0053787534 0.037094057 0.018811723 -0.013624438
0.11656874 -0.05437075 0.038989402 0.06742532 0.04958752 -0.1351131 0.01463931 0.07393875
00000000: 0c4b 713b 27fe f6bd f3c1 93bd 3ee5 093d
00000010: 4998 4a3d ccff 803d c64c 80bc d7ea 663d
00000020: bd0c 943d a714 c83d b2b9 22bc 500b e03d
00000030: fc07 d33d 3c71 8f3d 92fb 8cbc dd72 b13d
00000040: 601a a7bc e460 63bd dabd f0bc cddf b73d
00000050: 6686 f9bd 3f9b 153d 3465 f53c 3cd2 d0bd
00000060: 7654 893d abaa b6bb 59c2 fdbc 2024 2b3e
00000070: ebf4 a23d b5ac 16bd 4617 a63d c306 033e
00000080: 19df 10bc 535c 113d edc3 5ebd 2a5d 893d
00000090: af88 c9bd 8fb6 183c 77ee 963d a03c d83d
000000a0: f033 c73c 83d2 81bd e950 2cbe b358 0ebe
000000b0: d5f0 21bd 2783 c4bd 5b9b 563d 903f ae3d
000000c0: 71e8 0e3c 4339 08be 5f95 a83d 926e 2e3e
000000d0: 1d92 bb3c f12d 7abd 4700 a7bd 8bae 453d
000000e0: 7137 5dbd 4aba ec3c 5eee 00be 526b 3dbd
000000f0: 5008 8dbc 8593 963b 9530 5b3d 606a 6c3d
00000100: 4cd6 94bd 44e8 243d dc0d eb3d cfa9 4abd
00000110: 334d 033e 1305 0a3e 6f39 aabc 18a5 d33d
00000120: fa34 303d dfa4 b6bc 0300 c73c 8ef2 713d
00000130: c92d 3a3d 908b 32be ff3c bdbd c255 e5bd
00000140: 73b8 893c 65fa 4dbe cdb5 8e3d 10b7 dbbb
00000150: 988e 98bd 3a73 fa3d eb0c b73c 19a0 a03d
00000160: 2033 99bd cdf5 07be 2779 bd3c 159d 80bd
00000170: c706 7c3a cfcb 3fbe 3bd0 543d 799a e9bd
00000180: 80f5 b2bd 6ffd be3c 1659 debd 5bce 3b3b
00000190: 58d2 403c 3786 e9bd 18fb 74bc a6a6 a43d
000001a0: 5314 89bb a1a7 d63d 031a b3bc a64a 193d
000001b0: 5286 b1bd 56b8 1c3d 589e e3bc 745a 113c
000001c0: 2f9d debd a5bb 46bd 711e 0b3d bddd acbd
000001d0: 701a 6cbd 4fcd 933c 2e27 c73c 3bdf 42bd
000001e0: 414e 083e dee4 023e c880 b7bd 3004 29bd
000001f0: 990f bf3c 596f 033e 5abd bf3a ef6e 83bc
00000200: 21ba 97bd 9269 11bd cae1 223c 3d88 fa3c
00000210: 9841 a33d 182b 01bd 9137 2bbd b095 ef3c
00000220: 5052 05bd 22f4 98bc 278d 12bd 25dc 95bd
00000230: 7874 d93d b217 f6bc 06d0 b23d 400a ddbd
00000240: 4714 a53c bf03 153e 66db 243c 351a 353c
00000250: affa 04bd 6814 a8bd 5102 0d3e 5349 4f3d
00000260: 115e 2abe 6383 d3bb 9923 5cb9 ce69 793c
00000270: 0456 193e 65b7 643d 3a41 ebbc 9cca a0bd
00000280: d128 c83d 1ca1 9e3c 6874 0fbd 9c6a 3fbd
00000290: dec6 1ebc 8cc6 edbd 66f4 913d 86e7 5cbe
000002a0: 97e6 0abe d4fd 1d3e 4c31 3dbe 197d c2bd
000002b0: 4d5c e63d 6a01 17be 888d b1bd 8cb6 103e
000002c0: cd1f 6dbd aeb7 523d d4d9 b9bc ad53 2d3d
000002d0: edbc 08be ff29 aa3d 11c3 c5bd c4db db3c
000002e0: e082 023e 370e 28bd ad2b f5bd 0116 babd
000002f0: e81d 203d c6d4 f63a e704 a73d a5f2 74bd
00000300: fa61 433e 0f09 ef3d 85f3 4abe 98c4 ffbc
00000310: 45d3 c43d a634 fdbd f9d2 243d e89d 5d3c
00000320: ffd8 b83c c235 d73d 72b9 c2bd cd41 5dbe
00000330: 6c35 7abb dc81 19be d45d 173e 0bd3 eebc
00000340: e696 a4bb 1062 e9bc 7657 69bd 5dfb 713d
00000350: 6df3 073e 20a9 06bd 4211 ca3c b49e cb3c
00000360: 8a21 e83d 0665 b5bd 148c e538 1901 a23d
00000370: 04b3 15be 4f3b c03d 16b0 0abc 251d 00be
00000380: 7e7f 0ebc 8a62 1c3e 3f66 19be 1aed 14be
00000390: bb6f 173d 225c d7bc 4f90 f23d 1678 fabd
000003a0: 68d9 f0bd 55fb b13d 68d0 833d 4359 54be
000003b0: 5a84 78be b00c 553e b059 5c3d 4d38 18be
000003c0: 46ec 24be b79d 02be 1bca b13c 3ea5 28be
000003d0: 4140 b03b f0ef 173d 0b1b 9a3c 0939 5fbc
000003e0: 97bb ee3d ddb3 5ebd 5ab3 1f3d 4916 8a3d
000003f0: 491c 4b3d 175b 0abe b7d9 6f3c 336d 973d
