results/Train2/DriveAroundTrack.onnx (onnx, 91642 bytes, 8 tensors)

action_model._discrete_distribution.branches.0.bias f4 [3]
-0.009627875 0.017249772 -0.00592894
00000000: 3cbe 1dbc 654f 8d3c 8e47 c2bb

action_model._discrete_distribution.branches.0.weight f4 [3, 128]
-0.012340928 0.010082674 -0.0068586688 0.006950144 0.006818788 -0.018984957 -0.013495121 0.017567832
-0.018039856 0.008276918 -0.0059521073 -0.0096452655 0.014923515 -0.0103716655 -0.012550234 0.00771508
-0.0058112754 0.0064893314 -0.02559334 -0.016221095 -0.02559672 -0.02454211 -0.00059402647 0.008882173
-0.007349628 0.015230658 -0.0011243244 -0.004006465 0.005519264 0.006527287 0.022364337 -0.01755479
-0.019837296 0.011517929 0.015155628 -0.0065141553 -0.014887495 -0.018395193 0.025776723 0.004441363
-0.001453 0.0021204243 0.0012299812 -0.016287057 -0.020802684 -0.018973166 0.004287525 -0.0077831685
0.0051286845 -0.01757032 -0.014523407 -0.0031811367 0.0034235269 0.013885149 0.0011139035 -0.019230172
-0.013188399 -0.0044026077 0.0062421192 0.01266742 0.0011534212 -0.0070744436 -0.0078410385 0.015020767
-0.022003567 0.003102143 0.022082552 0.012462985 0.0017059023 0.0074845497 -0.005909136 0.009326065
-0.0065456983 0.014496424 0.012743341 -0.0012955249 -0.007296346 -0.0019437567 -0.0137438895 -0.0019782356
0.008439581 0.0018040318 0.004771016 -0.006002149 -0.0017214307 -0.01718945 -0.026665235 0.008023241
0.0118930945 -0.0019108093 0.0044190595 0.0107374545 0.036945663 0.012553325 -0.013607921 0.0006107048
0.003802366 -0.0015965375 -0.020427223 0.009086346 -0.019600257 0.020959662 0.017222857 0.021471325
-0.008957433 -0.018977707 0.019605227 -0.01555629 0.0040689395 6.715897e-05 0.0014537739 0.00639751
-0.017537573 -0.017597808 0.027933514 0.0067540775 -0.004418849 -0.009039178 -0.013927852 0.010240131
0.019806141 -0.018112144 0.020819457 0.0069211572 -0.017063621 0.0053158044 0.027427288 -0.009182808
0.01830959 0.013271374 0.047014862 -0.00048104892 -0.0285459 0.0074875182 0.012177024 -0.031241475
0.016927801 -0.008817253 -0.009418081 -0.031177873 -0.012005435 0.026364941 0.003304431 -0.013561074
0.0014381877 -0.013022666 0.03193981 0.02629587 0.033602763 0.021990115 0.021908449 -0.027921958
0.0056374725 -0.018843655 0.010349049 -0.032081973 -0.02885163 -0.029537406 -0.018977145 0.017728297
0.03207851 -0.021778874 0.00018570178 0.030624319 0.011494067 0.017943246 -0.023901016 -0.025255647
-0.018394897 -0.018785372 -0.03117594 0.0116649475 0.0058636274 0.019335909 0.009271426 0.0177033
-0.018899199 0.02713327 0.031823188 -0.00070361386 0.0030816772 -0.022404937 -0.00029886913 0.0030575434
0.014031027 0.008533125 -0.021214085 -0.012838066 -0.026435519 0.016492901 0.017586984 -0.034129072
0.029078681 -0.0030924752 0.00198773 -0.016683156 -0.007517024 -0.006054216 0.020211974 0.004045706
0.022862978 -0.01295699 0.00011487411 -0.018227613 0.017988766 -0.00839014 0.016928336 0.01112659
-0.01735149 -0.031096831 0.00013742753 0.018947676 -0.0132513875 0.015252801 0.018368986 -0.0047913203
-0.034655843 0.02164712 -0.02067476 -0.022524947 -0.012563195 -0.036908153 -0.012936523 -0.017446427
-0.01666846 0.023492191 0.023560775 -0.025700048 0.007295143 -0.010913203 -0.016056735 -0.018528307
0.004544742 0.020780902 -0.012975827 0.008996714 0.004931007 -0.015363293 0.023690417 0.0072346674
0.036625914 -0.0027164882 -0.013970427 -0.016161414 0.018025972 0.003277478 0.020492172 -0.04417134
-0.03512071 0.0012060292 -0.00845791 -0.0052563753 0.01141023 -0.019649453 0.009122713 0.020747462
00000000: 9b31 4abc cd31 253c afbe e0bb 09be e33b
00000010: 2470 df3b 5786 9bbc a41a 5dbc 6aea 8f3c
00000020: 52c8 93bc e99b 073c e509 c3bb 2d07 1ebc
00000030: c281 743c ebed 29bc 7f9f 4dbc c8ce fc3b
00000040: 836c bebb 75a4 d43b 20a9 d1bc 1ae2 84bc
00000050: 36b0 d1bc 890c c9bc 71b8 1bba 8986 113c
00000060: 26d5 f0bb 038a 793c 115e 93ba aa48 83bb
00000070: f1da b43b dae2 d53b 6a35 b73c 10cf 8fbc
00000080: d381 a2bc b2b5 3c3c 504f 783c b274 d5bb
00000090: aeea 73bc 84b1 96bc b529 d33c da88 913b
000000a0: 9772 beba d1f6 0a3b 5237 a13a 6f6c 85bc
000000b0: 646a aabc 9d6d 9bbc 5e7e 8c3b f309 ffbb
000000c0: 860e a83b a2ef 8fbc 96f3 6dbc 9e7a 50bb
000000d0: 405d 603b 897e 633c 6600 923a 9888 9dbc
000000e0: 2814 58bc c043 90bb b18a cc3b 038b 4f3c
000000f0: 652e 973a bcd0 e7bb b377 00bc aa19 763c
00000100: d340 b4bc 534d 4b3b 78e6 b43c 8c31 4c3c
00000110: 9598 df3a f440 f53b 6da1 c1bb 5acc 183c
00000120: 4c7d d6bb 6982 6d3c 72c9 503c 9ace a9ba
00000130: 3016 efbb a7c5 feba 0d2e 61bc 49a5 01bb
00000140: 2b46 0a3c 4375 ec3a 2f56 9c3b adad c4bb
00000150: a1a1 e1ba e4d0 8cbc 0d71 dabc e973 033c
00000160: 41db 423c 1f74 faba c2cd 903b 26ec 2f3c
00000170: 5654 173d 76ac 4d3c c2f3 5ebc b517 203a
00000180: 1e31 793b e942 d1ba fe56 a7bc e6de 143c
00000190: b890 a0bc 99b3 ab3c f316 8d3c a2e4 af3c
000001a0: 32c2 12bc 2377 9bbc 249b a03c cfdf 7ebc
000001b0: bd54 853b b3d7 8c38 8f8c be3a 34a2 d13b
000001c0: f5aa 8fbc 4729 90bc d3d4 e43c 4f51 dd3b
000001d0: fecb 90bb 0f19 14bc a531 64bc 39c6 273c
000001e0: 7d40 a23c eb5f 94bc 918d aa3c e0ca e23b
000001f0: 02c9 8bbc 3330 ae3b 31af e03c 7d73 16bc
00000200: fefd 953c 2d70 593c a892 403d 4b35 fcb9
00000210: 17d9 e9bc db59 f53b 2482 473c 1fee ffbc
00000220: 2cac 8a3c 3d76 10bc 4b4e 1abc bd68 ffbc
00000230: 72b2 44bc 4afb d73c 278f 583b 442f 5ebc
00000240: 9281 bc3a 055d 55bc 51d3 023d 706a d73c
00000250: 0da3 093d 9d24 b43c 5979 b33c 97bc e4bc
00000260: 8cba b83b 025e 9abc 0f8f 293c 6368 03bd
00000270: 415a ecbc 6ef8 f1bc f575 9bbc ef3a 913c
00000280: c164 033d 9c69 b2bc f1b8 4239 dadf fa3c
00000290: 9c51 3c3c b7fd 923c 10cc c3bc eee4 cebc
000002a0: e5b0 96bc c8e3 99bc af64 ffbc 561e 3f3c
000002b0: ac23 c03b 5766 9e3c 2ee7 173c 8306 913c
000002c0: 7ed2 9abc 9746 de3c 0859 023d ba72 38ba
000002d0: f7f5 493b 8f8a b7bc 89b1 9cb9 1161 483b
000002e0: 65e2 653c 85ce 0b3c 29c9 adbc c056 52bc
000002f0: 4d8f d8bc 1f1c 873c 9412 903c edca 0bbd
00000300: 6a36 ee3c 20ab 4abb 9344 023b 1dab 88bc
00000310: 5e51 f6bb 7262 c6bb 9593 a53c d791 843b
00000320: 244b bb3c 8e49 54bc 91e8 f038 1352 95bc
00000330: 2d5d 933c cc76 09bc 4bad 8a3c 4d4c 363c
00000340: b624 8ebc c8be febc 6c1a 1039 2838 9b3c
00000350: 591c 59bc e2e6 793c 8e7a 963c 8200 9dbb
00000360: 49f3 0dbd 4d55 b13c 1d5e a9bc 3d86 b8bc
00000370: dcd5 4dbc 012d 17bd b6f3 53bc cfeb 8ebc
00000380: 4b8c 88bc b272 c03c 8702 c13c e888 d2bc
00000390: 180c ef3b 4acd 32bc 6a89 83bc adc8 97bc
000003a0: 0fec 943b b63c aa3c 9098 54bc f466 133c
000003b0: 4994 a13b 52b6 7bbc 6812 c23c ca10 ed3b
000003c0: 0e05 163d 1c07 32bb 38e4 64bc f164 84bc
000003d0: 34ab 933c f5ca 563b 33df a73c 02ed 34bd
000003e0: bcda 0fbd a013 9e3a 0c93 0abc ac3d acbb
000003f0: f9f1 3a3c e4f7 a0bc 6e77 153c 95f6 a93c

action_model._discrete_distribution.branches.1.bias f4 [3]
0.0023040834 -0.008415907 0.0071261227
00000000: 1b00 173b dfe2 09bc 4082 e93b

action_model._discrete_distribution.branches.1.weight f4 [3, 128]
0.010096599 0.00057992403 -0.0051145293 -0.0035727373 -0.027368145 0.007180631 -0.0021124266 -0.011705357
-0.008236245 -0.006138306 0.004950754 -0.0052072885 -0.0044050864 0.021116791 0.0032675315 -0.011102095
-0.011275433 -0.0034114118 -0.011930218 0.0017299004 0.0042305365 0.0012807723 0.017023792 -0.012799446
0.0066118147 -0.0014961668 -0.0036217682 -0.00614201 -0.0065641613 0.00060318975 -0.0033306158 0.007976439
0.0015187963 0.0048865275 -0.0055033346 0.017830785 -0.0012044456 0.026707655 -0.012398405 0.0017413034
0.005603417 -0.006505182 -0.0041188784 0.0058299107 0.0051341793 0.006259046 0.018532647 0.029399982
-0.0062589683 0.009483691 0.006892456 0.008416865 0.0065771737 -0.010092895 -0.004184584 -0.018831069
0.0059738294 0.0142726945 -0.0029393306 0.0005641626 0.0010865708 0.022719055 -0.0178453 -0.001903927
0.015680293 0.006027221 0.000697667 -0.021428356 -0.0035638567 -0.013611022 0.003854769 -0.010814509
-0.0039815926 -0.00044930133 0.015236536 -0.0024146014 -0.0102980295 0.0016322602 0.00046562028 -0.017131578
-0.009156521 0.00050192757 0.012237158 0.010959701 0.020864027 0.0018445523 -0.0052866703 -0.008731328
-0.005954362 -0.0043165106 -0.0036147824 0.0025515791 -0.015056146 0.0032866818 0.020056082 -2.628176e-07
0.008598254 -0.010768104 -0.006934476 -0.0011001088 0.010205227 -0.0062975828 -0.0084013175 -0.014050466
-0.026405362 0.018566195 0.011616113 0.0065460196 0.0057372535 0.022085078 -0.0044986396 -0.016298208
0.023112135 -0.012000275 0.007063038 -0.023818124 -0.0038117266 -0.007217757 0.005556275 0.004593107
-0.0024341424 -0.002884241 -0.007413376 -0.00050985574 0.009479404 -0.0059842165 -0.013529996 -0.0048556356
-0.01718612 -0.027221251 0.016478822 0.011555703 0.0071996525 -0.012408815 -0.033784147 -0.0008065901
0.007769727 -0.017678637 0.04170544 0.030400332 0.003989809 0.020478534 -0.0028462498 -0.021071259
-0.024787785 -0.0057101636 0.0023349435 0.020769106 -0.0194699 -0.012449015 0.0119719505 0.016935604
0.03735201 0.0035057506 -0.01671122 -0.012980712 -0.0019831783 -0.023858596 0.020896625 0.00040022374
-0.0048215725 0.017718775 -0.044269234 -0.0061894557 -0.020603422 -0.027613698 0.016833847 0.001455689
-0.04139416 0.0037632182 0.011639585 -0.024049643 -0.049343213 0.00050145265 -0.022970032 0.011191506
0.021437664 0.016403202 -0.006616423 0.018356644 -0.044420928 -0.04297484 0.027268596 -0.01517619
-0.023394056 0.028951498 -0.0031268403 -0.01152186 -0.0006780275 -0.0060172863 0.0251999 0.009725686
-0.0007799179 0.026461419 0.030840077 0.015544913 0.004752866 -0.026093723 0.004080282 -0.038991254
-7.674213e-05 0.0020590338 0.027164944 0.023146728 -0.00072751695 0.022631705 -0.024325034 -0.027435206
0.003603445 -0.007402943 0.035008013 -0.025412835 -0.030246934 5.6259578e-05 -0.009203246 -0.027914766
0.011149973 -0.023176614 0.00363083 0.014018062 0.014318024 0.0047737267 -0.053295333 -0.003551868
0.041670345 -0.019780628 0.002293796 -0.028629404 0.009324 -0.03153636 0.009566452 -0.04539075
0.039823323 0.0015827883 -0.0043334146 0.006333794 0.033289608 -0.03843992 0.048511203 0.019173775
-0.0062677315 -0.02315698 0.025015784 -0.03452118 0.039976098 -0.03062043 -0.01977311 -0.0040397947
0.008712764 -0.008019961 -0.02030444 0.015048036 0.02621359 0.017517412 0.013634175 0.009300654
00000000: 356c 253c 0b06 183a c897 a7bb 9624 6abb
00000010: 2933 e0bc 804b eb3b a370 0abb d3c7 3fbc
00000020: 51f1 06bc d823 c9bb ef39 a23b e7a1 aabb
00000030: 8b58 90bb 1ffd ac3c 1524 563b 90e5 35bc
00000040: 98bc 38bc fe91 5fbb f676 43bc d3bd e23a
00000050: 50a0 8a3b 96df a73a 7b75 8b3c c4b4 51bc
00000060: eca7 d83b 071b c4ba 305b 6dbb ea42 c9bb
00000070: 2d18 d7bb 611f 1e3a 7646 5abb 9caf 023c
00000080: 5912 c73a 2a1f a03b 5155 b4bb de11 923c
00000090: 7dde 9dba 03ca da3c ae22 4bbc 723c e43a
000000a0: de9c b73b 6c29 d5bb a8f7 86bb d608 bf3b
000000b0: 9e3c a83b af18 cd3b c7d1 973c 3bd8 f03c
000000c0: 0818 cdbb 7c61 1b3c 1dda e13b e4e6 093c
000000d0: 5585 d73b ab5c 25bc d61e 89bb 9d43 9abc
000000e0: 1dc0 c33b 05d8 693c c9a1 40bb 50e4 133a
000000f0: 446b 8e3a 501d ba3c 4e30 92bc 308d f9ba
00000100: f573 803c ff7f c53b a4e3 363a 858a afbc
00000110: 988f 69bb c400 5fbc 4ba0 7c3b 572f 31bc
00000120: 0578 82bb 3490 ebb9 aaa2 793c 4a3e 1ebb
00000130: 11b9 28bc 90f1 d53a 7f1e f439 8657 8cbc
00000140: 3c05 16bc ca93 033a 5c7e 483c 5190 333c
00000150: 09eb aa3c e8c4 f13a ce3b adbb d80d 0fbc
00000160: cf1c c3bb 8471 8dbb fce5 6cbb 6538 273b
00000170: 0eae 76bc 5f65 573b a74c a43c 6019 8db4
00000180: b1df 0c3c b46c 30bc 9a3a e3bb 8731 90ba
00000190: d333 273c f45b cebb aea5 09bc ed33 66bc
000001a0: 0f50 d8bc 2218 983c 8251 3e3c fe7f d63b
000001b0: 92ff bb3b c4eb b43c 5369 93bb d283 85bc
000001c0: a955 bd3c cd9c 44bc 0f71 e73b 3a1e c3bc
000001d0: 29ce 79bb ef82 ecbb 6a11 b63b c681 963b
000001e0: 2286 1fbb 8905 3dbb e8eb f2bb d7a7 05ba
000001f0: 814f 1b3c 3f17 c4bb ebac 5dbc 061c 9fbb
00000200: e8c9 8cbc 1aff debc 98fe 863c 2254 3d3c
00000210: 10eb eb3b 584e 4bbc 3f61 0abd 5871 53ba
00000220: 3299 fe3b cad2 90bc 53d3 2a3d 1e0a f93c
00000230: f2bc 823b 99c2 a73c 2688 3abb a29d acbc
00000240: c10f cbbc 531c bbbb da05 193b f923 aa3c
00000250: 577f 9fbc f4f6 4bbc 0026 443c 89bc 8a3c
00000260: 6cfe 183d bcc0 653b f8e5 88bc 0dad 54bc
00000270: 36f8 01bb 1a73 c3bc 662f ab3c 1fd5 d139
00000280: 48fe 9dbb f726 913c a853 35bd ebd0 cabb
00000290: 82c8 a8bc 1f36 e2bc 23e7 893c d1cc be3a
000002a0: ec8c 29bd 53a0 763b f5b3 3e3c c203 c5bc
000002b0: 1c1c 4abd eb73 033a a62b bcbc 945c 373c
000002c0: 0a9e af3c 0260 863c 94ce d8bb ac60 963c
000002d0: b8f2 35bd 6306 30bd 6462 df3c 8ea5 78bc
000002e0: e4a4 bfbc b12b ed3c adeb 4cbb 2fc6 3cbc
000002f0: a8bd 31ba a82c c5bb 0570 ce3c 7c58 1f3c
00000300: 6773 4cba 9ec5 d83c 54a4 fc3c 17b0 7e3c
00000310: eebd 9b3b 81c2 d5bc e3b3 853b 4bb5 1fbd
00000320: 9ef0 a0b8 dbf0 063b 0489 de3c 359e bd3c
00000330: d6b6 3eba 2066 b93c 4b45 c7bc ccbf e0bc
00000340: c627 6c3b 6394 f2bb 9064 0f3d 942e d0bc
00000350: 6bc8 f7bc 43f8 6b38 36c9 16bc 82ad e4bc
00000360: 60ae 363c e2dc bdbc 38f3 6d3b 03ac 653c
00000370: 2596 6a3c ec6c 9c3b 354c 5abd 75c6 68bb
00000380: 86ae 2a3d fc0a a2bc 8353 163b 3688 eabc
00000390: b1c3 183c 452c 01bd 9cbc 1c3c a7eb 39bd
000003a0: c81d 233d 9075 cf3a 51ff 8dbb b78b cf3b
000003b0: af5a 083d 2d73 1dbd afb3 463d 5212 9d3c
000003c0: 8b61 cdbb b5b3 bdbc e7ed cc3c 1566 0dbd
000003d0: fabd 233d b2d7 fabc 38fb a1bc 4160 84bb
000003e0: fbbf 0e3c 2866 03bc 7f55 a6bc 0a8c 763c
000003f0: e2bd d63c ad80 8f3c e061 5f3c c561 183c

network_body.linear_encoder.seq_layers.0.bias f4 [128]
0.0139205 -0.0015008756 0.017294303 0.0141900405 0.008718749 -0.002133081 0.0125334365 -0.0050713336
0.006178469 0.012335656 -0.005052694 -0.013498989 -0.0008422637 0.0060835714 0.006913178 0.00265969
0.0051647876 0.012857386 -0.0063708434 -0.0029281178 -0.020135779 -0.004395926 -0.010854208 -0.0017635627
0.007966942 0.022509977 0.0033866758 -0.013928334 -0.0006586747 0.017980453 -0.005967041 -0.01462757
0.0073012817 0.0002052006 -0.016494906 0.012683256 -0.0020183648 -0.006218179 0.017814014 0.020777902
0.014136079 -0.010594099 0.008149069 0.0054472773 0.0074722883 -0.005653363 0.015617079 0.014391942
0.008697687 0.004329774 -0.0051651704 0.009981029 -0.003292559 0.007987235 0.0051452615 0.014615511
-0.013216205 -0.0021167141 0.0014682645 -0.004598728 0.0075939447 0.014935643 0.011418094 0.014441523
-0.007231904 0.004587899 -0.0131204175 0.0026995707 -0.0021552471 0.0052989256 0.018781189 0.008854684
-0.0011654762 -0.004294959 0.010403454 0.011633324 0.011637459 0.0024599677 0.013770609 0.0134315975
0.014342048 0.0027429545 0.0035316863 0.010356319 -0.0065253573 0.016491104 -0.010522439 -0.0018003008
0.024657484 -8.7316344e-05 0.004723964 0.0037016356 0.016266337 -0.011520699 0.003802449 -0.0024830112
-0.0014988652 -0.013593999 -0.0029081316 -0.007511233 -0.014983671 0.00016445525 -0.019998249 0.030710785
0.011204295 -0.0014271894 0.013571313 0.007846476 0.01108146 0.010652845 0.0056384834 0.014924571
-0.004184552 0.016709497 0.016391281 0.021264594 -0.0037093519 -0.0024613445 0.0007121456 0.008040001
0.0035675026 -0.014707711 0.017191125 0.021658543 -0.011189379 0.0022593199 -0.004945735 0.00984076
00000000: cf12 643c 07b9 c4ba c8ac 8d3c 587d 683c
00000010: 15d9 0e3c 29cb 0bbb 0b59 4d3c 6e2d a6bb
00000020: c174 ca3b 7e1b 4a3c 1291 a5bb dd2a 5dbc
00000030: 5ccb 5cba b258 c73b f187 e23b 324e 2e3b
00000040: 613d a93b c9a7 523c 82c2 d0bb aae5 3fbb
00000050: caf3 a4bc b30b 90bb d9d5 31bc 5827 e7ba
00000060: c787 023c d866 b83c fef2 5d3b ab33 64bc
00000070: e9aa 2cba be4b 933c 2b87 c3bb 7aa8 6fbc
00000080: 973f ef3b 1e2b 5739 5320 87bc 6ecd 4f3c
00000090: 8b46 04bb dec1 cbbb b2ee 913c 6b36 aa3c
000000a0: 039b 673c df92 2dbc ac83 053c 137f b23b
000000b0: 19da f43b d93f b9bb c7de 7f3c 2ecc 6b3c
000000c0: be80 0e3c c7e0 8d3b 9740 a9bb 7887 233c
000000d0: f9c7 57bb e4dc 023c 9599 a83b e575 6f3c
000000e0: c888 58bc 92b8 0abb c872 c03a edb0 96bb
000000f0: a0d6 f83b a1b4 743c f512 3b3c 239c 6c3c
00000100: 9cf9 ecbb 1656 963b 05f7 56bc 48eb 303b
00000110: 0c3f 0dbb 9ca2 ad3b 02db 993c 3d13 113c
00000120: e4c2 98ba babc 8cbb 4073 2a3c b399 3e3c
00000130: 0aab 3e3c 6937 213b 1f9e 613c 3410 5c3c
00000140: e9fa 6a3c 24c3 333b dd73 673b 8dad 293c
00000150: aad2 d5bb 5a18 873c 4f66 2cbc 12f8 ebba
00000160: 7efe c93c 9b1d b7b8 7bcb 9a3b 2497 723b
00000170: fb40 853c 50c1 3cbc 8232 793b 04ba 22bb
00000180: 9275 c4ba 5db9 5ebc 5a96 3ebb ca20 f6bb
00000190: 127e 75bc 9f71 2c39 5ed3 a3bc 2f95 fb3c
000001a0: 3892 373c 8810 bbba 365a 5e3c 818e 003c
000001b0: 038f 353c 4589 2e3c 07c3 b83b 3086 743c
000001c0: 911e 89bb 5be2 883c 0247 863c 1633 ae3c
000001d0: 9918 73bb 824e 21bb 48af 3a3a 35ba 033c
000001e0: c3cc 693b 9cf8 70bc 67d4 8c3c 426d b13c
000001f0: a853 37bc 1911 143b d50f a2bb 243b 213c

network_body.linear_encoder.seq_layers.0.weight f4 [128, 37]
0.20981313 0.027462022 -0.060606383 -0.0032233892 0.21971805 -0.0952117 0.24195357 0.33892766
0.007061537 0.205697 0.26134485 0.13888218 0.40416673 -0.3193271 0.032327462 -0.20512667
-0.12393029 0.2697566 -0.14708407 -0.12530777 0.116909854 0.14019859 0.038335882 -0.038185973
-0.086987846 -0.019071242 0.1020312 0.113737494 0.05734421 0.22708581 -0.14392632 -0.026619337
0.07249836 0.09084544 0.25849116 0.38679367 -0.2364156 0.36243927 -0.38117245 -0.055658303
0.03672243 0.21757062 0.21382849 -0.0076025273 -0.22256438 -0.13025351 0.10999733 0.15857519
0.3736789 0.085795835 -0.030041197 0.081810825 -0.020125458 0.06262812 0.09904267 0.31948465
-0.007710135 0.043261264 0.14980142 0.060522906 -0.14095706 0.24999498 0.31640288 0.28248504
-0.15182695 0.013237228 0.042356383 -0.11225669 -0.00081029726 0.08715342 -0.14343975 0.12716152
-0.028042529 -0.08831538 -0.1320187 -0.13661486 0.021106798 0.23200406 0.032159857 0.11368473
-0.030596806 0.021745816 0.17703131 -0.11598999 -0.21712336 -0.1441285 0.18018323 -0.046586048
0.09334628 -0.20949277 0.16808538 -0.14371493 0.16953883 -0.015900992 0.052915916 0.020121844
0.023527723 -0.08646652 -0.16719043 -0.27988216 -0.3155957 -0.20197581 0.12783462 0.11015171
-0.15322773 0.36605865 -0.07602945 -0.07988669 -0.21990165 -0.20846124 -0.073683135 0.37624466
0.16423708 -0.18990387 -0.20562248 -0.2010143 0.28273782 0.023450857 -0.1367456 -0.06302633
-0.121872485 0.10265167 -0.028969731 -0.08088379 -0.01755097 0.026475556 0.20104621 -0.11572552
0.29203346 -0.24039635 0.16822629 0.31205872 0.14726734 -0.013071702 0.42838535 0.13611564
0.0610959 0.1211038 0.082351 0.08516511 0.018127687 -0.08726418 -0.18702501 -0.15190805
0.091268905 -0.13484609 0.11024142 0.10387134 0.020610377 -0.0043021846 0.1530599 0.20307036
-0.054207966 0.32871082 0.017538013 0.33315822 0.048181955 0.18898308 0.19261849 0.10702297
0.36536908 0.12118714 -0.10888822 0.27237964 0.1398798 -0.07352651 0.09760015 -0.13193922
0.13173532 -0.18155329 0.15994503 0.048822705 -0.030996399 0.11686555 0.31260338 -0.13605994
-0.057358716 -0.0061074034 -0.21226583 0.06769415 -0.14209844 0.23264918 -0.0016863274 -0.043050278
0.32406786 0.29518878 0.3776105 -0.15483838 -0.09499892 0.27729 -0.027990425 0.06876586
0.051547453 -0.12126816 0.107406676 -0.24583474 0.00225185 0.14504102 -0.0598492 0.06731875
0.11321787 -0.14159374 -0.091123134 -0.18706611 -0.053420346 -0.046097074 0.08270622 0.058719736
-0.09190207 -0.23555282 -0.1029188 -0.06478049 0.04651707 0.09637085 -0.05585665 0.09332493
0.08114564 -0.37738082 0.4301374 0.22073622 0.036187716 0.100158684 -0.042069204 0.13238983
0.0644649 0.18517274 0.15241535 -0.08215242 -0.29540062 -0.14546888 -0.2943992 0.087408714
-0.01874401 0.030137463 0.019176802 -0.085772805 -0.2816605 0.3675632 0.06387611 0.021642301
0.13070019 0.16134755 0.04907392 -0.26883355 0.049025875 0.2466874 -0.04502129 -0.12142995
0.098603725 0.16662136 0.048768047 0.0236592 -0.0506823 -0.2855675 0.061922546 -0.037729498
00000000: 41d9 563e 09f8 e03c 663e 78bd 7f3f 53bb
00000010: c5fd 603e 5afe c2bd adc2 773e ed87 ad3e
00000020: 7764 e73b 3ca2 523e fece 853e 2137 0e3e
00000030: f1ee ce3e d77e a3be cd69 043d ba0c 52be
00000040: 2acf fdbd 891d 8a3e 359d 16be ae50 00be
00000050: 6f6e ef3d 3890 0f3e 1606 1d3d e568 1cbd
00000060: af26 b2bd 4b3b 9cbc bcf5 d03d 34ef e83d
00000070: c3e1 6a3d 2f89 683e 6c61 13be cc10 dabc
00000080: 057a 943d 2d0d ba3d f458 843e d209 c63e
00000090: ee16 72be a491 b93e 0929 c3be f6f9 63bd
000000a0: 426a 163d d5ca 5e3e dbf5 5a3e 9f1e f9bb
000000b0: ebe7 63be 2d61 05be 4846 e13d 8961 223e
000000c0: d752 bf3e bab5 af3d f518 f6bc 6f8c a73d
000000d0: 25de a4bc 2c43 803d e2d6 ca3d 7e93 a33e
000000e0: 4da5 fcbb b932 313d 8b65 193e dee6 773d
000000f0: 0c57 10be affe 7f3e 8fff a13e e1a1 903e
00000100: 8678 1bbe f5e0 583c e37d 2d3d d6e6 e5bd
00000110: 216a 54ba 7e7d b23d dfe1 12be a136 023e
00000120: 72b9 e5bc b2de b4bd e92f 07be c4e4 0bbe
00000130: 2ae8 ac3c 7992 6d3e 0eba 033d 8ad3 e83d
00000140: 27a6 fabc 4824 b23c b247 353e 298c edbd
00000150: 9655 5ebe 6c96 13be f481 383e 03d1 3ebd
00000160: 562c bf3d 4685 56be 931e 2c3e 022a 13be
00000170: 969b 2d3e cc42 82bc 5cbe 583d 91d6 a43c
00000180: 36bd c03c 5c15 b1bd f833 2bbe b74c 8fbe
00000190: c295 a1be bfd2 4ebe 14e7 023e 3897 e13d
000001a0: bbe7 1cbe 0a6c bb3e 54b5 9bbd a29b a3bd
000001b0: e62d 61be dd76 55be 2fe7 96bd 24a3 c03e
000001c0: c42d 283e 2976 42be b38e 52be b1d6 4dbe
000001d0: 03c3 903e 031c c03c 0a07 0cbe f313 81bd
000001e0: 4898 f9bd 0a3b d23d ee51 edbc 67a6 a5bd
000001f0: 0dc7 8fbc 44e3 d83c 0fdf 4d3e 8001 edbd
00000200: 6985 953e 762a 76be 8343 2c3e 29c6 9f3e
00000210: 40cd 163e b12a 56bc 5355 db3e e661 0b3e
00000220: b23f 7a3d 4505 f83d a4a7 a83d 0c6b ae3d
00000230: 8480 943c 90b7 b2bd 7c83 3fbe c98d 1bbe
00000240: 31eb ba3d 1815 0abe 41c6 e13d 7fba d43d
00000250: 18d7 a83c 57f9 8cbb bcbb 1c3e adf1 4f3e
00000260: 2c09 5ebd c94c a83e e1ab 8f3c b793 aa3e
00000270: 715a 453d c884 413e c83d 453e dc2e db3d
00000280: a811 bb3e f730 f83d c900 dfbd 5875 8b3e
00000290: a63c 0f3e 1195 96bd 96e2 c73d 131b 07be
000002a0: a0e5 063e 1be9 39be a1c8 233e 51fa 473d
000002b0: 29ec fdbc 3557 ef3d 8d0d a03e 4c53 0bbe
000002c0: f9f0 6abd 9d20 c8bb 375c 59be 3ba3 8a3d
000002d0: 4182 11be 963b 6e3e c207 ddba 7d55 30bd
000002e0: 39ec a53e fc22 973e 2a56 c13e f48d 1ebe
000002f0: cb8e c2bd f4f8 8d3e 2d4c e5bc 1dd5 8c3d
00000300: 6c23 533d 715b f8bd 08f8 db3d 1abc 7bbe
00000310: c693 133b a285 143e 6f24 75bd 6ade 893d
00000320: c5de e73d f3fd 10be c49e babd 428e 3fbe
00000330: 4bcf 5abd 49d0 3cbd e161 a93d 1b84 703d
00000340: 2737 bcbd c234 71be 18c7 d2bd a2ab 84bd
00000350: af88 3e3d 155e c53d f1c9 64bd 2421 bf3d
00000360: af2f a63d 0f38 c1be f83a dc3e ad08 623e
00000370: 9239 143d ff1f cd3d c250 2cbd 3391 073e
00000380: 2c06 843d ec9d 3d3e c512 1c3e 873f a8bd
00000390: c03e 97be cbf5 14be 7ebb 96be 5703 b33d
000003a0: 0a8d 99bc d7e2 f63c ab18 9d3c a7a9 afbd
000003b0: ce35 90be 3e31 bc3e 7ad1 823d 324b b13c
000003c0: 45d6 053e 4b38 253e bc01 493d 8da4 89be
000003d0: 5bcf 483d 9f9b 7c3e 3f68 38bd 44b0 f8bd
000003e0: c0f0 c93d ca9e 2a3e 01c1 473d f0d0 c13c
000003f0: 3e98 4fbd e735 92be 7fa2 7d3d 3f8a 1abd

network_body.linear_encoder.seq_layers.2.bias f4 [128]
0.012856979 0.0009117496 0.01659518 -0.0021147258 -0.006736386 0.0059666587 0.018684808 -0.0022054117
-0.0024712295 0.0084272055 0.002816381 -0.0129133025 -0.0028790985 0.007060044 -0.0062960167 0.0071203555
0.005121914 -0.0076505053 0.014605032 0.010931667 0.020563979 0.015180192 0.0066781724 -0.0086091
0.00081811805 -0.0020186414 0.00491613 0.004787194 -0.0034881376 0.0020938183 -0.0033046345 0.0029441526
0.018446 -0.0074812905 0.014225679 0.012294545 0.010955995 0.011487429 -0.0062821154 -4.6173976e-05
-0.00211464 0.0017828831 -0.008373406 0.0070064915 0.012309579 0.0060557546 0.009103463 0.012049811
-0.00075476896 0.011200886 0.01563756 -0.002714747 0.011109206 0.010167341 -0.0030825746 0.016985659
0.007939363 0.006706574 -0.008076714 0.0026358822 0.00073181506 0.0062340572 0.016186558 -0.013684593
0.015410599 -0.0048197145 -0.0031358667 -0.0054158205 0.0004087933 -0.00042849698 0.0049560815 0.010182218
0.010986804 -0.0076531954 -0.002352312 -0.002625669 0.0025149526 0.003748545 0.010560943 0.0094397385
0.00506371 -0.010009516 -0.005285867 0.008939905 0.012362434 0.016294211 0.0127246985 0.0023039142
-0.010276368 0.0075215595 -0.010682645 -0.0036197726 -0.009899564 -0.009036316 0.008271834 -0.012328301
0.0006561258 0.013198482 0.0076842755 0.0039269957 -0.0021065995 0.01462194 -0.018795172 0.0043533505
0.0016606654 0.0053122947 -0.0027209583 0.00031943762 -0.0010113465 -8.224723e-05 0.0026844393 -0.0014356377
0.015171582 0.01052025 -0.008530539 0.004455746 -0.0010145679 0.016330507 0.014283773 -0.002220932
-0.011878932 -0.0010744093 0.00774623 0.0009485648 0.008356142 -0.008466881 0.0020417485 0.01027561
00000000: 14a6 523c 7b02 6f3a 9df2 873c 3697 0abb
00000010: e7bc dcbb f683 c33b e210 993c ab88 10bb
00000020: 5af4 21bb 4312 0a3c 0893 383b 5192 53bc
00000030: 42af 3cbb f157 e73b d14e cebb df51 e93b
00000040: bbd5 a73b 17b1 fabb f249 6f3c bc1a 333c
00000050: ca75 a83c 57b6 783c 92d4 da3b 2f0d 0dbc
00000060: f976 563a 2f4b 04bb 7d17 a13b e5dd 9c3b
00000070: 3d99 64bb 7138 093b 9192 58bb aff2 403b
00000080: 111c 973c 9d25 f5bb d312 693c 0f6f 493c
00000090: c680 333c c535 3c3c 34da cdbb eeaa 41b8
000000a0: c695 0abb a1af e93a 9c30 09bc b696 e53b
000000b0: 1eae 493c 5a6f c63b b126 153c 926c 453c
000000c0: b0db 45ba ec83 373c 571a 803c e6e9 31bb
000000d0: 6303 363c eb94 263c 0505 4abb 8225 8b3c
000000e0: 1a14 023c d2c2 db3b 3254 04bc c4be 2c3b
000000f0: 47d7 3f3a 1047 cc3b ac99 843c 5835 60bc
00000100: bd7c 7c3c b2ee 9dbb 1d83 4dbb 3277 b1bb
00000110: 4f53 d639 e4a7 e0b9 a066 a23b 51d3 263c
00000120: ff01 343c a8c7 fabb 3f29 1abb 6a13 2cbb
00000130: e7d1 243b 26aa 753b ce07 2d3c 22a9 1a3c
00000140: 7aed a53b f4fe 23bc 1135 adbb ae78 123c
00000150: ce8b 4a3c 707b 853c 417b 503c 44fd 163b
00000160: 365e 28bc 6a77 f63b 4306 2fbc b539 6dbb
00000170: c831 22bc 0e0d 14bc 9686 073c a4fc 49bc
00000180: dbff 2b3a 723e 583c 60cc fb3b 07ae 803b
00000190: e00e 0abb dd90 6f3c 55f8 99bc 8da6 8e3b
000001a0: afaa d93a c212 ae3b 1b52 32bb 317a a739
000001b0: 288f 84ba 257c acb8 6bed 2f3b 022c bcba
000001c0: 3a92 783c 205d 2c3c adc3 0bbc 8201 923b
000001d0: 40fb 84ba 8ec7 853c 7c06 6a3c 0e8d 11bb
000001e0: da9f 42bc 32d3 8cba 16d4 fd3b 1ba9 783a
000001f0: 33e8 083c acb8 0abc dbce 053b 085b 283c

network_body.linear_encoder.seq_layers.2.weight f4 [128, 128]
-0.008127691 0.20369294 -0.06028507 0.07793832 0.022842022 -0.0469918 0.07140913 0.10045495
0.10685428 0.04725328 0.19342564 -0.028127996 0.08202705 -0.039217312 0.017407136 0.155839
0.010633117 0.056623448 -0.06478159 -0.014288387 0.061503373 -0.149546 -0.08031962 -0.055547014
0.026736127 0.003270698 0.023891428 0.02031155 0.16931279 -0.18885225 -0.034577567 -0.086313486
-0.034679074 -0.22313924 -0.006441613 -0.082321815 0.08194944 0.037268896 0.016600326 0.20821156
-0.0363451 0.14942905 -0.11885362 -0.069286995 -0.1331143 -0.21661589 0.11506293 -0.07065996
0.0633276 0.042555753 -0.072923884 0.008771018 -0.11956023 0.009656336 -0.18290855 0.18098406
-0.08993522 0.111327276 0.053451102 0.074430294 -0.03332494 0.026107626 -0.008784104 -0.05828929
0.043848377 -0.19019344 -0.124503545 0.045671217 0.0031983105 -0.0710566 -0.03431516 0.19852237
-0.14923173 -0.120899975 0.1472291 -0.10879588 0.035304878 0.09696787 0.12847386 0.024423778
0.04583261 0.027710952 0.06576867 -0.096665554 -0.13586818 0.0776913 -0.00965775 -0.0072330786
-0.028540475 -0.008117553 0.007791857 -0.0453063 -0.011791541 0.05238953 0.015997166 -0.06575987
0.11060736 -0.08222723 0.14589456 0.067982376 0.0044440706 -0.043267183 -0.14804387 -0.1369439
0.018196322 -0.18126929 0.011783096 0.09275296 -0.07173866 0.077003695 0.034573153 0.04448575
-0.090514466 -0.05135149 -0.057344038 -0.0037134439 -0.01109791 0.032455858 0.06498201 0.06724485
0.101149864 0.020952709 0.08627924 0.15378776 -0.13624679 0.13351847 -0.015039092 -0.006139443
0.020645635 0.22006771 0.005874919 -0.016568534 -0.17329629 0.13772652 0.16753283 0.039878186
0.07543685 -0.06581349 0.14315121 0.03323565 -0.17358114 -0.10572166 -0.17963132 0.02158101
0.10261059 0.2374897 0.06346449 0.011770813 0.13654846 -0.124458194 -0.16085322 -0.07274779
-0.07045172 -0.24853499 -0.039561357 -0.028670056 0.09090761 -0.021316865 0.13006024 0.048771407
0.13722464 0.03401197 0.21438374 -0.056834195 -0.0005290564 0.06972937 0.10177874 0.11316672
0.07526057 0.05874557 0.013766309 -0.062225036 -0.1676437 0.03558899 0.13560468 0.04771431
-0.09299613 0.029630702 0.06630174 -0.030211544 -0.034227632 0.05319836 0.057413753 0.087354705
0.038976397 -0.09157503 0.121400446 -0.039405633 0.26835486 -0.08755592 0.11874252 0.0011632558
-0.08929472 -0.042360533 -0.024671689 -0.014730136 0.030792493 -0.0011092554 -0.054510888 -0.06688996
0.097192526 -0.053254522 -0.06940089 0.09195726 0.14770351 -0.061262596 -0.07007993 0.060912527
0.1263512 0.013479406 -0.066621326 0.013341206 -0.052545726 -0.035491213 0.003641383 0.032910846
0.11039709 -0.3398954 0.008303626 0.026764546 -0.023082871 0.03945304 0.18255807 -0.066577375
0.104548484 0.01371452 -0.018254768 0.11523208 -0.09017574 -0.10375029 -0.05147388 0.20525727
-0.17981136 0.09506743 -0.07442129 0.024827957 0.018793555 0.13521925 -0.011534857 -0.0035972053
-0.052388154 -0.05964805 0.01782507 0.020050615 -0.2535051 0.090516426 -0.15622663 -0.15300326
0.14771983 -0.15289633 0.11524626 -0.008603153 -0.07945884 -0.04286263 0.017825706 0.01214053
00000000: 022a 05bc e294 503e 7aed 76bd 209e 9f3d
00000010: 311f bb3c 797a 40bd f33e 923d 53bb cd3d
00000020: 6bd6 da3d a88c 413d 5f11 463e af6c e6bc
00000030: ccfd a73d 55a2 20bd 6999 8e3c 4294 1f3e
00000040: 8636 2e3c fded 673d 36ac 84bd d719 6abc
00000050: f6ea 7b3d 9622 19be 9d7e a4bd 4485 63bd
00000060: b905 db3c 3559 563b f5b7 c33c 6864 a63c
00000070: 5560 2d3e 7c62 41be 35a1 0dbd 20c5 b0bd
00000080: a50b 0ebd 9d7e 64be 2b14 d3bb 5798 a8bd
00000090: 1cd5 a73d 45a7 183d 68fd 873c 6935 553e
000000a0: 99de 14bd ee03 193e 8769 f3bd 57e6 8dbd
000000b0: 1d4f 08be 8ed0 5dbe 1da6 eb3d 2bb6 90bd
000000c0: e7b1 813d f14e 2e3d 1e59 95bd 51b4 0f3c
000000d0: fedb f4bd 9c35 1e3c 614c 3bbe e353 393e
000000e0: f52f b8bd 8eff e33d 8bef 5a3d e96e 983d
000000f0: bb7f 08bd a9df d53c 34eb 0fbc c0c0 6ebd
00000100: 5b9a 333d 12c2 42be b7fb febd be11 3b3d
00000110: bf9a 513b 1f86 91bd 0e8e 0cbd 7349 4b3e
00000120: 34d0 18be 689a f7bd 3ac3 163e 60d0 debd
00000130: d99b 103d 1797 c63d a78e 033e 6014 c83c
00000140: faba 3b3d 1402 e33c b9b1 863d 97f8 c5bd
00000150: 0721 0bbe 9e1c 9f3d 8a3b 1ebc 7603 edbb
00000160: b7cd e9bc 7cff 04bc d552 ff3b 1993 39bd
00000170: 4f31 41bc 6796 563d 7d0c 833c 1cad 86bd
00000180: 1d86 e23d c066 a8bd 6265 153e 583a 8b3d
00000190: 919f 913b ee38 31bd d098 17be 063b 0cbe
000001a0: 7410 953c a89e 39be e30d 413c 44f5 bd3d
000001b0: b8eb 92bd 1db4 9d3d 949c 0d3d b136 363d
000001c0: a65f b9bd f155 52bd 95e1 6abd 405d 73bb
000001d0: 02d4 35bc 6ff0 043d 4a15 853d abb7 893d
000001e0: a927 cf3d 04a5 ab3c 2cb3 b03d 8a7a 1d3e
000001f0: 4784 0bbe 11b9 083e 8666 76bc 612d c9bb
00000200: 0921 a93c 6e59 613e 6482 c03b bcba 87bc
00000210: 9574 31be 2e08 0d3e ba8d 2b3e 4f57 233d
00000220: a37e 9a3d 39c9 86bd 3b96 123e 1b22 083d
00000230: 41bf 31be 9984 d8bd 46f1 37be a9ca b03c
00000240: 8025 d23d 8030 733e acf9 813d 5eda 403c
00000250: 5cd3 0b3e f0e3 febd b5b6 24be cbfc 94bd
00000260: fe48 90bd f57f 7ebe 170b 22bd 77dd eabc
00000270: c52d ba3d b5a0 aebc 832e 053e 87c4 473d
00000280: 9e84 0c3e 2350 0b3d 6987 5b3e f9ca 68bd
00000290: 60b0 0aba 46ce 8e3d 5f71 d03d f4c3 e73d
000002a0: 3722 9a3d 329f 703d 168c 613c aedf 7ebd
000002b0: caaa 2bbe c3c5 113d f4db 0a3e 1570 433d
000002c0: c174 bebd 16bc f23c 35c9 873d 337e f7bc
000002d0: 4632 0cbd 86e6 593d af2a 6b3d 06e7 b23d
000002e0: b7a5 1f3d b08b bbbd cca0 f83d cd67 21bd
000002f0: cf65 893e 8550 b3bd 472f f33d 6378 983a
00000300: 26e0 b6bd 3d82 2dbd 481c cabc ab56 71bc
00000310: 8a40 fc3c 6f64 91ba cf46 5fbd 9afd 88bd
00000320: e00c c73d 6a21 5abd 0e22 8ebd 1754 bc3d
00000330: 973f 173e 7dee 7abd 1186 8fbd 6a7f 793d
00000340: 3562 013e bad8 5c3c c370 88bd 1395 5a3c
00000350: 303a 57bd 3c5f 11bd 45a4 6e3b 86cd 063d
00000360: df17 e23d c506 aebe ef0b 083c 5241 db3c
00000370: 4a18 bdbc 8399 213d 81f0 3a3e b859 88bd
00000380: 841d d63d deb2 603c 068b 95bc ccfe eb3d
00000390: 0fae b8bd 087b d4bd 46d6 52bd f62e 523e
000003a0: 7820 38be b6b2 c23d 306a 98bd 0064 cb3c
000003b0: f1f4 993c ea76 0a3e b2fc 3cbc 17bf 6bbb
000003c0: f694 56bd 8451 74bd e205 923c 3041 a43c
000003d0: 6ccb 81be ad60 b93d e0f9 1fbe e3ac 1cbe
000003e0: de43 173e db90 1cbe 3b06 ec3d 3df4 0cbc
000003f0: 51bb a2bd ba90 2fbd 3707 923c 13e9 463c
