results/Train1/DriveAroundTrack/DriveAroundTrack-98562.pt (torch, 541687 bytes, 39 tensors)

network_body.linear_encoder.seq_layers.0.weight f4 [128, 37]
0	0x3e53a9b5	0.20670207
1	0x3ccfd952	0.025372181
2	0xbd783e66	-0.060606383
3	0xbb415876	-0.002950219
4	0x3e5fe9af	0.21866487
5	0xbdc8e462	-0.098091856
6	0x3e77c2ad	0.24195357
7	0x3eae5d23	0.34055433
8	0x3c329e0b	0.010901938
9	0x3e4dba2c	0.2009055
10	0x3e85cefe	0.26134485
11	0x3e0d60b6	0.13806424
12	0x3eceac23	0.40365705
13	0xbea55a7c	-0.32295597
14	0x3d0469cd	0.032327462
15	0xbe528b27	-0.20560895
16	0xbdf60727	-0.12013083
17	0x3e870659	0.2637203
18	0xbe169d35	-0.14708407
19	0xbe00e944	-0.12588984
20	0x3de8f3a7	0.11374598
21	0x3e0efe77	0.13964258
22	0x3d1d0616	0.038335882
23	0xbd2e7ddf	-0.04260051
24	0xbdb01a8b	-0.08598813
25	0xbcd29c71	-0.025709363
26	0x3dd0f5bc	0.1020312
27	0x3de6e61d	0.112743594
28	0x3d5a6e0a	0.053327598
29	0x3e6bd462	0.23030236
30	0xbe13616c	-0.14392632
31	0xbd00e3e7	-0.031467345
32	0x3d8c09c4	0.068378
33	0x3dc31deb	0.09527191
34	0x3e8458f4	0.25849116
35	0x3ec5b272	0.38612705
36	0xbe6ee3f9	-0.23329152
37	0x3eb8ffee	0.3613276
38	0xbec2ed4a	-0.38071662
39	0xbd63f9f6	-0.055658303
40	0x3d1d11f7	0.03834721
41	0x3e5f81c1	0.21826841
42	0x3e5a8fd3	0.21343927
43	0xbbf91e9f	-0.0076025273
44	0xbe609160	-0.21930456
45	0xbe0113be	-0.12605187
46	0x3dddd1db	0.108310424
47	0x3e226189	0.15857519
48	0x3ebfe271	0.3747745
49	0x3db4272d	0.08796535
50	0xbd01ca69	-0.031687174
51	0x3da78c6f	0.081810825
52	0xbc91c631	-0.0177947
53	0x3d8a160c	0.06742486
54	0x3dc33d5d	0.095331885
55	0x3ea3937e	0.31948465
56	0xbbda02c9	-0.006653164
57	0x3d2ff774	0.0429606
58	0x3e19f9eb	0.15036742
59	0x3d77e6de	0.060522906
60	0xbe113867	-0.14181672
61	0x3e81a35d	0.2531995
62	0x3e9f6333	0.3113037
63	0x3e90a1e1	0.28248504
64	0xbe1a0c8d	-0.1504385
65	0x3c4d948b	0.012547622
66	0x3d3ab077	0.045578446
67	0xbde5e6d6	-0.11225669
68	0xbaf3b383	-0.0018592927
69	0x3db25ddc	0.087093085
70	0xbe12aa18	-0.14322698
71	0x3e0236a1	0.12716152
72	0xbcd65b53	-0.026166594
73	0xbdb4f16d	-0.08835111
74	0xbe072a19	-0.13199653
75	0xbe0d4a00	-0.1379776
76	0x3cace82a	0.021106798
77	0x3e6a39b9	0.22873582
78	0x3d008d39	0.03138468
79	0x3de6d451	0.11270965
80	0xbcfaa627	-0.030596806
81	0x3c908d12	0.017645393
82	0x3e3037cf	0.1720879
83	0xbde894fe	-0.11356543
84	0xbe5e5596	-0.21712336
85	0xbe154599	-0.1457733
86	0x3e3698c1	0.17831708
87	0xbd3eef7f	-0.04661512
88	0x3dbf2c56	0.09334628
89	0xbe5a069a	-0.21291581
90	0x3e26e55b	0.1629843
91	0xbe0db920	-0.13840151
92	0x3e2d9b96	0.16953883
93	0xbc8ef702	-0.017451767
94	0x3d52d265	0.05147018
95	0x3ca712f0	0.020394772
96	0x3cc0bd36	0.023527723
97	0xbdb41ae5	-0.08794192
98	0xbe2eec1f	-0.1708226
99	0xbe8c4437	-0.27395794
100	0xbea195c2	-0.3155957
101	0xbe506220	-0.20349932
102	0x3e0273f0	0.12739539
103	0x3dda07e4	0.10646036
104	0xbe1ce7bb	-0.15322773
105	0x3ebaf396	0.36513966
106	0xbd9be1fc	-0.076114625
107	0xbdadfb1d	-0.08495162
108	0xbe612de6	-0.21990165
109	0xbe5780ce	-0.21045229
110	0xbd944f8c	-0.07241735
111	0x3ebeb49c	0.3724717
112	0x3e24bbe7	0.16087304
113	0xbe427629	-0.18990387
114	0xbe5797ab	-0.2105395
115	0xbe4f9b8a	-0.20274177
116	0x3e8eb85c	0.2787503
117	0x3cc01c03	0.023450857
118	0xbe113dc3	-0.14183716
119	0xbd8a23c2	-0.067451015
120	0xbdfffd7e	-0.12499522
121	0x3dd23b0a	0.10265167
122	0xbd0cf275	-0.034410913
123	0xbdaf5fee	-0.08563219
124	0xbca2afb0	-0.019859165
125	0x3cd8e344	0.026475556
126	0x3e488b12	0.19584301
127	0xbdf44179	-0.119265504
128	0x3e93e993	0.2888914
129	0xbe762a76	-0.24039635
130	0x3e271a14	0.16318542
131	0x3e9dbafd	0.30806723
132	0x3e153f51	0.14574935
133	0xbc562ab1	-0.013071702
134	0x3ed99e9b	0.4250382
135	0x3e062a51	0.1310208
136	0x3d785482	0.060627468
137	0x3df80545	0.1211038
138	0x3d9d0823	0.076675676
139	0x3da5eb7c	0.08101556
140	0x3c88ec1e	0.016714152
141	0xbdb2b790	-0.08726418
142	0xbe42e6cd	-0.19033356
143	0xbe1fd83d	-0.15609832
144	0x3db95d4a	0.090509966
145	0xbe0a1518	-0.13484609
146	0x3dd72167	0.10504418
147	0x3ddd9f99	0.108214565
148	0x3ca41bdc	0.020032816
149	0xbbcd3e29	-0.0062635136
150	0x3e1cbbbc	0.1530599
151	0x3e4d88c3	0.20071702
152	0xbd645209	-0.055742297
153	0x3ea775a2	0.32706934
154	0x3c8fabe1	0.017538013
155	0x3ea8cdf7	0.3296964
156	0x3d3499c6	0.044091962
157	0x3e411990	0.18857408
158	0x3e453dc8	0.19261849
159	0x3dd71bdb	0.1050336
160	0x3eb94f23	0.3619319
161	0x3df83d10	0.12121022
162	0xbddf00c9	-0.10888822
163	0x3e89a34e	0.26882404
164	0x3e0ac1db	0.13550512
165	0xbd9442e9	-0.072393246
166	0x3dc7e296	0.09760015
167	0xbe095461	-0.13411094
168	0x3e04f0ca	0.12982479
169	0xbe3ac2b3	-0.18238334
170	0x3e23c8a1	0.15994503
171	0x3d40165c	0.046896324
172	0xbd0f91d8	-0.035051197
173	0x3df44029	0.119263
174	0x3ea00d8d	0.31260338
175	0xbe0e1545	-0.13875301
176	0xbd73c13c	-0.059510455
177	0xbbc45557	-0.0059916186
178	0xbe595c37	-0.21226583
179	0x3d867dfa	0.06566997
180	0xbe138fb1	-0.14410283
181	0x3e6df66b	0.23238532
182	0xbadd07c2	-0.0016863274
183	0xbd3c8782	-0.046027668
184	0x3ea70b4c	0.32625806
185	0x3e96df9d	0.29467478
186	0x3ec1eefa	0.37877637
187	0xbe1e8df4	-0.15483838
188	0xbdbaf085	-0.09127907
189	0x3e8e7669	0.27824715
190	0xbce0d2c6	-0.027444255
191	0x3d8cd51d	0.06876586
192	0x3d68327c	0.05668877
193	0xbdf1e8d2	-0.11811985
194	0x3ddbcc11	0.10732282
195	0xbe7bbc1a	-0.24583474
196	0x3bbfb27e	0.0058501353
197	0x3e19888a	0.14993492
198	0xbd8043fb	-0.06262966
199	0x3d89de6a	0.06731875
200	0x3defa8dc	0.11702129
201	0xbe0b5b4a	-0.13609043
202	0xbdbfc6b5	-0.09364072
203	0xbe3f8e42	-0.18706611
204	0xbd4bda0f	-0.049768504
205	0xbd3773d8	-0.04478821
206	0x3da87beb	0.082267605
207	0x3d70841b	0.058719736
208	0xbdbdf02b	-0.09274324
209	0xbe6cc935	-0.2312363
210	0xbdd9ce17	-0.10635012
211	0xbd84aba2	-0.06478049
212	0x3d4d4781	0.05011702
213	0x3dc5ed35	0.09664384
214	0xbd5691de	-0.052385204
215	0x3dbf2124	0.09332493
216	0x3da31127	0.07962256
217	0xbec0dcdf	-0.3766851
218	0x3edcb0f8	0.43103766
219	0x3e6208ad	0.22073622
220	0x3d23506d	0.039871622
221	0x3dcac00a	0.0989991
222	0xbd376a6b	-0.044779222
223	0x3e067e3c	0.13134092
224	0x3d84062c	0.0644649
225	0x3e3e97c7	0.18612586
226	0x3e1b9cb1	0.15196492
227	0xbdac220d	-0.08404932
228	0xbe973ec0	-0.29540062
229	0xbe122cd6	-0.14274916
230	0xbe940183	-0.28907403
231	0x3daaadf3	0.083339594
232	0xbc998d0a	-0.01874401
233	0x3cf78ed8	0.03021948
234	0x3ca058ae	0.019573536
235	0xbdb5835f	-0.08862948
236	0xbe9035ce	-0.2816605
237	0x3ebcb41f	0.3685617
238	0x3d8cd70f	0.06876957
239	0x3c7d7fc7	0.015472359
240	0x3e05d645	0.13070019
241	0x3e25b40f	0.16181968
242	0x3d41e0c1	0.047333483
243	0xbe8a2276	-0.26979417
244	0x3d48cf5b	0.049025875
245	0x3e79f567	0.2441002
246	0xbd2dffee	-0.0424804
247	0xbe03db3e	-0.12876603
248	0x3dc9f0c0	0.098603725
249	0x3e2aad07	0.16667567
250	0x3d3cc9c1	0.046090845
251	0x3cdc1bcb	0.026868721
252	0xbd4f983e	-0.0506823
253	0xbe93eb2b	-0.28890356
254	0x3d719e1a	0.058988668
255	0xbd043fb5	-0.03228732

network_body.linear_encoder.seq_layers.0.bias f4 [128]
0	0x3c310b72	0.010805951
1	0xbac732ac	-0.0015197597
2	0x3c839297	0.01606111
3	0x3c22947e	0.009923099
4	0x3bda2667	0.00665741
5	0xba971099	-0.0011525332
6	0x3c2db24a	0.010601589
7	0xbac4957c	-0.0014998163
8	0x3b33fbd0	0.0027463324
9	0x3c341750	0.010991886
10	0xbb2c4102	-0.0026283865
11	0xbc04f272	-0.008114444
12	0x3ac1b931	0.0014779923
13	0x3bc9a44c	0.006153619
14	0x3bac9e25	0.0052678757
15	0x3ba0de6a	0.0049093263
16	0x3aa94d9e	0.0012916808
17	0x3be938c1	0.0071173613
18	0xbb6b8803	-0.0035939224
19	0x39571ba7	0.00020514299
20	0xbc7f0131	-0.015564249
21	0xbb00cdac	-0.001965384
22	0xbbe2e5be	-0.00692436
23	0xbac27aed	-0.001483766
24	0x3c34ab49	0.011027166
25	0x3c995e87	0.018721832
26	0x3bba4f4a	0.0056857215
27	0xbc052381	-0.008126141
28	0xbb7765c8	-0.0037749875
29	0x3c669fdd	0.0140762
30	0xbbf4670c	-0.007458573
31	0xbc539b4c	-0.012915444
32	0x3bb25d9a	0.005443287
33	0x3b3d9c19	0.0028932153
34	0xbc5079c4	-0.012724344
35	0x3c400cb5	0.01172178
36	0x3b0be20b	0.002134445
37	0xbbc0cd99	-0.005883884
38	0x3ca41b55	0.020032564
39	0x3c7e2fca	0.0155143235
40	0x3c392579	0.011300438
41	0xbbdfc8b8	-0.0068293475
42	0x3be450ab	0.006967624
43	0x3b76677e	0.0037598307
44	0x3bf2d80c	0.0074110087
45	0xbaa6072b	-0.0012666931
46	0x3c510e6e	0.012759788
47	0x3c0c3f50	0.008560017
48	0x3b951b0c	0.0045503434
49	0x3bbc1311	0.0057395776
50	0xb9caaab5	-0.0003865563
51	0x3bf88fe7	0.007585514
52	0xbb1d350c	-0.0023987917
53	0x3c00d92e	0.00786428
54	0x3bc1c7ca	0.0059137093
55	0x3c74d5f2	0.014943587
56	0xbc20ba9f	-0.009810119
57	0xbb2399a8	-0.0024963412
58	0x3a68ce68	0.00088808546
59	0xbb76f3dd	-0.0037681975
60	0x3b4aa1ac	0.0030919118
61	0x3c285e9c	0.010276463
62	0x3c53f111	0.012935893
63	0x3c1513b1	0.009098933
64	0xbb6c9d89	-0.003610464
65	0x3b5051a1	0.0031786936
66	0xbc2f37b9	-0.010694438
67	0x3acb8aa0	0.0015528984
68	0xbba75c5a	-0.0051074447
69	0x3b4f138d	0.0031597347
70	0x3ca19eec	0.0197291
71	0x3ba276ca	0.0049580084
72	0x3b14a105	0.0022678983
73	0xbaca68d9	-0.0015442624
74	0x3bedc0b9	0.0072556403
75	0x3bcc3403	0.006231786
76	0x3bb8942b	0.0056328974
77	0x3b330cb9	0.0027320816
78	0x3c6b3c9c	0.014357712
79	0x3c356ac4	0.011072818
80	0x3c277872	0.0102215875
81	0x3af7c4d1	0.001890326
82	0x3a54b2e7	0.0008113817
83	0x3c03fcc4	0.0080558695
84	0xbc166dc2	-0.009181442
85	0x3c7ec78b	0.015550504
86	0xbbf5578f	-0.0074872444
87	0xbabebe04	-0.0014552479
88	0x3cc5764c	0.02410426
89	0x3ba4c6b2	0.005028569
90	0x3b6e8d71	0.0036400224
91	0xbae93723	-0.0017792921
92	0x3c859038	0.01630412
93	0xbc032f1a	-0.008006835
94	0x3a80e043	0.000983246
95	0xbb30e31a	-0.0026990832
96	0xbb686106	-0.003545822
97	0xbc02a622	-0.007974179
98	0xbbd1b054	-0.006399194
99	0xbb267616	-0.0025399975
100	0xbc2911e3	-0.010319206
101	0x3b47f9fa	0.0030513988
102	0xbc8096fb	-0.015696993
103	0x3cfca3f4	0.030839898
104	0x3c018e01	0.0079073915
105	0xba0b1bb0	-0.0005306555
106	0x3c3879de	0.011259524
107	0x3b89aedd	0.0042017535
108	0x3c3adf3e	0.011405764
109	0x3be70350	0.0070499554
110	0x3aecf24e	0.0018077584
111	0x3c75537f	0.01497352
112	0xbb8b70e8	-0.004255403
113	0x3c59e486	0.013299113
114	0x3c43c54d	0.011948896
115	0x3c82eff2	0.015983555
116	0xbac7d2ed	-0.0015245356
117	0xbb487c1e	-0.0030591558
118	0x3b13f082	0.0022573774
119	0x3c07ca1b	0.008287932
120	0x3aa4b800	0.0012567043
121	0xbc23d537	-0.009999565
122	0x3c4cbdb3	0.0124964
123	0x3c95e874	0.018299319
124	0xbbee10c4	-0.007265182
125	0x3b45082e	0.003006469
126	0xbb3a3386	-0.0028412058
127	0x3c484746	0.012224024

network_body.linear_encoder.seq_layers.2.weight f4 [128, 128]
0	0xbc6b4a13	-0.014360922
1	0x3e4aba6b	0.19797675
2	0xbd6de71e	-0.05808174
3	0x3d9891fb	0.074497186
4	0x3c9d13b4	0.019174434
5	0xbd35de7f	-0.044401642
6	0x3d8ad0f2	0.067781344
7	0x3dd7f24d	0.10544262
8	0x3dd35e1b	0.103206836
9	0x3d309c4d	0.04311781
10	0x3e4a674b	0.19765966
11	0xbcc452d1	-0.023965271
12	0x3dac3199	0.084078975
13	0xbd0e5416	-0.03474816
14	0x3c9436d7	0.018092556
15	0x3e23bde1	0.15990402
16	0x3be1c7c8	0.006890271
17	0x3d599861	0.053123835
18	0xbd77c045	-0.060486097
19	0xbc2533c6	-0.0100831445
20	0x3d85fb33	0.06542053
21	0xbe1cedca	-0.15325084
22	0xbda20d72	-0.07912721
23	0xbd721612	-0.05910308
24	0x3cedda65	0.029034803
25	0x39ea2b0a	0.00044664025
26	0x3cb61b3d	0.022229785
27	0x3cc23d66	0.023710918
28	0x3e30c6e5	0.17263372
29	0xbe47fadb	-0.19529288
30	0xbd20d691	-0.039267126
31	0xbda90930	-0.082537055
32	0xbd20efdb	-0.039291244
33	0xbe605e7c	-0.21911043
34	0xbb108fa2	-0.0022058268
35	0xbda8b8a8	-0.082383454
36	0x3dada337	0.084783964
37	0x3d29ea57	0.04148325
38	0x3ca28aec	0.019841634
39	0x3e50e6f8	0.20400608
40	0xbd323589	-0.043508086
41	0x3e1ca77e	0.15298268
42	0xbdeb9f89	-0.11505038
43	0xbd95a8cf	-0.07307588
44	0xbe03af56	-0.12859854
45	0xbe596276	-0.21228966
46	0x3de1b7d6	0.11021392
47	0xbd98c950	-0.07460272
48	0x3d73389a	0.05938015
49	0x3d40fad2	0.0471142
50	0xbd91de8d	-0.07122526
51	0x3c555e70	0.013023004
52	0xbdeeb8f7	-0.11656373
53	0x3c12a057	0.008949361
54	0xbe3a3093	-0.18182592
55	0x3e3de915	0.18545945
56	0xbdaf975a	-0.0857379
57	0x3dedf5e6	0.11619167
58	0x3d51b2f5	0.051196057
59	0x3d931674	0.07182017
60	0xbd14898d	-0.03626399
61	0x3cc34241	0.023835303
62	0xbb975fb8	-0.004619565
63	0xbd804228	-0.06262618
64	0x3d2f2b07	0.042765643
65	0xbe454ac5	-0.19266804
66	0xbdf7d224	-0.12100628
67	0x3d4e75d3	0.050405335
68	0xba181ecc	-0.0005802929
69	0xbd95c8fa	-0.07313724
70	0xbcfcce0a	-0.030859966
71	0x3e4833b1	0.19550969
72	0xbe16809f	-0.14697503
73	0xbdf13fb4	-0.117797285
74	0x3e13388d	0.14377041
75	0xbde7889f	-0.11305355
76	0x3cf6a383	0.030107265
77	0x3dbe934b	0.09305438
78	0x3e043d37	0.12913977
79	0x3cd44b9a	0.025914956
80	0x3d29de9f	0.041472074
81	0x3cc8461f	0.024447499
82	0x3d79bf86	0.060973667
83	0xbdcdfa4d	-0.10057507
84	0xbe0fb0e1	-0.14032318
85	0x3d969947	0.07353454
86	0xbbb6a41d	-0.005573763
87	0xbc33f31f	-0.010983258
88	0xbcc0de6a	-0.023543555
89	0xbb7867f5	-0.003790376
90	0x3b42a924	0.0029702866
91	0xbd499020	-0.049209714
92	0xbc035f31	-0.008018301
93	0x3d54acd0	0.05192262
94	0x3c285c66	0.010275936
95	0xbd8a37be	-0.06748913
96	0x3dd9a57b	0.10627266
97	0xbda01bf0	-0.07817829
98	0x3e0f8385	0.14015014
99	0x3d8710d2	0.06595005
100	0x3c20c2e2	0.009812089
101	0xbd1e73c0	-0.038684607
102	0xbe13cb5e	-0.14433047
103	0xbe0c3532	-0.13692167
104	0x3c84cc71	0.016210767
105	0xbe37cf4b	-0.1795017
106	0x3c53e44c	0.012932848
107	0x3db3dfc9	0.08782918
108	0xbd983a14	-0.074329525
109	0x3d9575ab	0.07297834
110	0x3d154d27	0.03645053
111	0x3d425f47	0.047454145
112	0xbdbf16ec	-0.09330544
113	0xbd6c3ae9	-0.05767337
114	0xbd78a472	-0.060703702
115	0xbc01fcfb	-0.00793385
116	0xbc4d7778	-0.012540691
117	0x3d1206c0	0.03565097
118	0x3d8c4fee	0.06851183
119	0x3d8fdfc7	0.07025104
120	0x3dc912e7	0.098180585
121	0x3cd13166	0.02553625
122	0x3da91ed6	0.082578346
123	0x3e1f04e9	0.15529217
124	0xbe06a2e3	-0.13148074
125	0x3e05d735	0.13070376
126	0xbc30da52	-0.010794239
127	0xbb891023	-0.004182832
128	0x3c79fff3	0.015258777
129	0x3e5a0b2b	0.21293323
130	0x3c41842e	0.011811299
131	0xbcaf8fff	-0.021430967
132	0xbe336a9c	-0.17521137
133	0x3e102f36	0.1408051
134	0x3e29774b	0.16549413
135	0x3d2e9bf1	0.042629186
136	0x3d95dd36	0.07317583
137	0xbd8ad50c	-0.06778917
138	0x3e16feb4	0.14745599
139	0x3d12f4f0	0.03587812
140	0xbe31514c	-0.17316169
141	0xbdca934c	-0.09891376
142	0xbe389cfd	-0.18028636
143	0x3ce2e4ea	0.027697045
144	0x3dcaefe4	0.09909037
145	0x3e6d686a	0.23184362
146	0x3d8cd4a3	0.06876495
147	0x3c771722	0.015081199
148	0x3e0e0c8e	0.13871977
149	0xbe00fcfd	-0.12596507
150	0xbe219472	-0.15779284
151	0xbd9cbe01	-0.07653428
152	0xbd85ce01	-0.06533433
153	0xbe7e355e	-0.24825045
154	0xbd18fe26	-0.03735175
155	0xbcef480c	-0.02920916
156	0x3dbc66ed	0.09199319
157	0xbcee78d4	-0.02911035
158	0x3e00d321	0.1258054
159	0x3d613052	0.054977722
160	0x3e065120	0.13116884
161	0x3d1b38c3	0.03789593
162	0x3e60bc77	0.21946894
163	0xbd512c3d	-0.05106758
164	0x3b374c2f	0.0027968993
165	0x3d96fab4	0.073720366
166	0x3dd6a3ae	0.10480438
167	0x3dda870d	0.1067029
168	0x3d913fca	0.07092245
169	0x3d80c66e	0.062878475
170	0x3ca335a2	0.019923035
171	0xbd8b1f2f	-0.06793057
172	0xbe242db8	-0.16033065
173	0x3d232a6a	0.03983537
174	0x3e04f762	0.12984994
175	0x3d2ca165	0.042146105
176	0xbdbf794d	-0.09349308
177	0x3d0cc90d	0.034371424
178	0x3d823228	0.06357223
179	0xbcd31f60	-0.025771797
180	0xbd0447c7	-0.032295015
181	0x3d645369	0.05574361
182	0x3d668f06	0.05628874
183	0x3dbe3fa4	0.09289482
184	0x3d303fe6	0.04302969
185	0xbdae87ff	-0.08522033
186	0x3df7f7a0	0.121077776
187	0xbd25766b	-0.040396135
188	0x3e889c30	0.26681662
189	0xbdc11059	-0.09426946
190	0x3dfd8865	0.12379531
191	0xbb35bdad	-0.0027731464
192	0xbdbd95e0	-0.09257102
193	0xbd37f531	-0.044911567
194	0xbcc456cb	-0.023967167
195	0xbc1b3976	-0.009474149
196	0x3cd77853	0.026302492
197	0xbbfc2f0b	-0.0076960376
198	0xbd524e86	-0.051344417
199	0xbd931f72	-0.07183732
200	0x3dcccd94	0.100001484
201	0xbd49ff27	-0.049315598
202	0xbd97c83f	-0.07411241
203	0x3dba05cb	0.09083136
204	0x3e13790b	0.14401643
205	0xbd893f08	-0.067014754
206	0xbd8344d6	-0.06409614
207	0x3d894cc0	0.06704092
208	0x3dfa9df7	0.12237161
209	0x3c195f67	0.009361125
210	0xbd90b5b8	-0.0706591
211	0x3c4a6b21	0.012354643
212	0xbd6fc1c4	-0.0585344
213	0xbd1d4b7e	-0.038402073
214	0x3c011086	0.007877475
215	0x3d08da0b	0.033411067
216	0x3df208c8	0.11818081
217	0xbeadac31	-0.33920434
218	0x3b279644	0.0025571743
219	0x3ca4bf17	0.02011065
220	0xbc84c86e	-0.016208854
221	0x3d309b3d	0.043116797
222	0x3e36cab1	0.17850758
223	0xbd89443e	-0.06702469
224	0x3dd16c2e	0.10225712
225	0x3c8f0ce8	0.017462209
226	0xbcd30229	-0.025757866
227	0x3de767f2	0.11299123
228	0xbdb1af75	-0.08676044
229	0xbdd034bb	-0.101663075
230	0xbd4bb976	-0.049737416
231	0x3e534561	0.20631935
232	0xbe39076c	-0.18069237
233	0x3dbc486d	0.091935016
234	0xbd9f3d65	-0.07775382
235	0x3c949a31	0.01813993
236	0x3c92c30b	0.01791527
237	0x3e06535b	0.13117735
238	0xbc6b14b6	-0.0143482
239	0x3b4a9b04	0.003091515
240	0xbd557904	-0.052117363
241	0xbd88cb98	-0.066794574
242	0x3c35729b	0.011074687
243	0x3c8fee91	0.017569812
244	0xbe8180e6	-0.25293654
245	0x3dbdd929	0.09269936
246	0xbe19d3fd	-0.15022273
247	0xbe1a4252	-0.15064362
248	0x3e17ea0f	0.1483538
249	0xbe16d34d	-0.14729042
250	0x3de5aec7	0.11214977
251	0xbc09f3ca	-0.00841994
252	0xbd9a9ab1	-0.07549036
253	0xbd43b46f	-0.047779497
254	0x3cb5b8bc	0.022182815
255	0x3c8d31e3	0.017235702

network_body.linear_encoder.seq_layers.2.bias f4 [128]
0	0x3c0d8759	0.008638226
1	0xbb500dbb	-0.0031746465
2	0x3c4f1e8c	0.01264156
3	0xbadc6a3f	-0.0016816332
4	0xbb791d60	-0.0038011894
5	0x3b534cab	0.0032241743
6	0x3c62953a	0.013829524
7	0x3a97cdc2	0.0011581706
8	0xbb92fffc	-0.004486082
9	0x3c06f854	0.008237917
10	0x3bb7e42b	0.0056119165
11	0xbc254efa	-0.01008963
12	0xb873419b	-5.7996815e-05
13	0x3bad3821	0.005286232
14	0xbbae3866	-0.005316782
15	0x3bbd44fc	0.005776046
16	0x3b147c67	0.0022657157
17	0xbb77fc60	-0.0037839636
18	0x3c1e6c69	0.009669402
19	0x3c14292c	0.009043019
20	0x3c80a9e6	0.015706014
21	0x3c256344	0.010094468
22	0x3bc14e58	0.005899232
23	0xbbb4f68e	-0.0055225557
24	0x3b2a8eb2	0.0026024994
25	0x3a9fe3b4	0.0012198598
26	0x3a1736de	0.0005768369
27	0x3be4320a	0.006963973
28	0xba280e1c	-0.0006410794
29	0x3b663fe5	0.00351333
30	0xba4b1054	-0.00077462685
31	0x3ac813da	0.0015264705
32	0x3c68fd25	0.014220511
33	0xbb8070de	-0.003919705
34	0x3c235d40	0.009970963
35	0x3c1a36b8	0.00941246
36	0x3bf151d7	0.0073644924
37	0x3c0f1a8b	0.008734356
38	0xbb4e9a7a	-0.003152518
39	0x3b4e04af	0.0031435897
40	0xb9a5bfc9	-0.00031614144
41	0x3bd1136a	0.006380488
42	0xbb83a421	-0.0040173684
43	0x3b88cf23	0.0041750832
44	0x3c244cf5	0.010028114
45	0x3b1a2237	0.0023518929
46	0x3bdfdca7	0.0068317237
47	0x3c444089	0.011978277
48	0x3b00dea3	0.0019663952
49	0x3c14cc45	0.009081905
50	0x3c39027f	0.011292099
51	0xb93a7c18	-0.00017784571
52	0x3c01ac01	0.007914544
53	0x3c1194ea	0.008885602
54	0xbb102e3b	-0.0022000212
55	0x3c501c3a	0.012702042
56	0x3b7dd18f	0.0038729643
57	0x3c02d76d	0.007985932
58	0xbb78136b	-0.003785337
59	0x3af6c534	0.0018827082
60	0x3b99da56	0.004695217
61	0x3b64cc8c	0.0034911959
62	0x3c7264e1	0.014794559
63	0xbc206b3a	-0.00979119
64	0x3c3cd8ee	0.011526329
65	0xbb0cba0d	-0.00214732
66	0xbafe3c83	-0.0019396696
67	0xbb371a1b	-0.0027939144
68	0x3b78b8a5	0.0037951854
69	0xbaa1851e	-0.0012322997
70	0xb9d1cd62	-0.0004001661
71	0x3bd869a7	0.0066043916
72	0x3bd3a588	0.006458942
73	0xbb9fb481	-0.0048738127
74	0xb9a02d29	-0.00030551225
75	0x3a45cff8	0.00075459434
76	0xba1c2cf7	-0.0005957628
77	0x3bb17ec1	0.0054167216
78	0x3c0dc6ac	0.008653324
79	0x3ba0f052	0.004911461
80	0x3c13f8f6	0.009031525
81	0xbbc746ed	-0.006081453
82	0xbb7e6a06	-0.003882052
83	0x3bb3be65	0.0054853433
84	0x3c3cabda	0.011515582
85	0x3c56b2d3	0.013104158
86	0x3c08addc	0.008342233
87	0x399280d6	0.0002794328
88	0xbbd85f56	-0.006603162
89	0x3b309f7e	0.0026950534
90	0xbbf4064a	-0.007447039
91	0x39f4c286	0.00046684238
92	0xbbcfd6d8	-0.00634275
93	0xbbaf5304	-0.0053504724
94	0x3bdc26c5	0.006718489
95	0xbc239d66	-0.009986257
96	0x3b54971e	0.0032438706
97	0x3bed288f	0.007237501
98	0x3b92092f	0.004456661
99	0x3bb3d6e1	0.005488262
100	0xbb80a0dc	-0.003925426
101	0x3c5b97a2	0.013402851
102	0xbc775997	-0.0150970435
103	0x3b8dafa0	0.0043239146
104	0x3b222261	0.002473973
105	0x3b69ec9a	0.0035694004
106	0x39ff6ebd	0.00048719897
107	0xbb230c69	-0.0024879223
108	0xb8becd55	-9.098152e-05
109	0xba936655	-0.0011245707
110	0x3b3a0a8f	0.002838764
111	0xbae6f2d7	-0.0017619979
112	0x3c43ca09	0.011950024
113	0x3c08d670	0.008351907
114	0xbba84d41	-0.0051361625
115	0x3b480705	0.0030521762
116	0xb9fcd1cf	-0.00048221505
117	0x3c4e2924	0.012583051
118	0x3c247b2d	0.010039133
119	0x3ab7943d	0.001400597
120	0xbc07220e	-0.008247865
121	0xbb05f5b3	-0.0020440638
122	0x3bd62de7	0.0065362337
123	0x3b88d7d6	0.0041761203
124	0x3c034740	0.008012593
125	0xbbab8ec4	-0.005235525
126	0x3b7d338e	0.0038635465
127	0x3c0cda79	0.00859701

action_model._discrete_distribution.branches.0.weight f4 [3, 128]
0	0xbc15e584	-0.009148959
1	0x3c2fd7bc	0.010732587
2	0xbb071980	-0.0020614564
3	0x3c10db4d	0.008841348
4	0x3b9a9e8e	0.004718608
5	0xbc938726	-0.01800878
6	0xbc5d4fa6	-0.013507759
7	0x3c788b6c	0.0151699595
8	0xbc84d630	-0.016215414
9	0x3b9c0505	0.0047613406
10	0xbb0c7d85	-0.002143712
11	0xbc40ffbe	-0.011779724
12	0x3c82c5bc	0.015963428
13	0xbbd2d154	-0.0064336453
14	0xbc3636dd	-0.011121479
15	0x3ba1cffa	0.004938123
16	0xbb8d7472	-0.00431686
17	0x3b65bc86	0.0035054996
18	0xbcb6e3df	-0.022325454
19	0xbc415c6f	-0.011801823
20	0xbcbf3f5d	-0.023345644
21	0xbcba096a	-0.022709567
22	0x3a17015a	0.0005760394
23	0x3be573d1	0.007002332
24	0xbbacc1ea	-0.00527214
25	0x3c53b144	0.012920681
26	0x3985d5d4	0.0002552705
27	0xbbe3a932	-0.00694766
28	0x3b4ffbb7	0.0031735727
29	0x3b787b72	0.0037915376
30	0x3ca4b5a7	0.02010615
31	0xbc6f9d3d	-0.014624891
32	0xbc8961a9	-0.0167702
33	0x3c0aab70	0.008463725
34	0x3c8a23a4	0.016862698
35	0xbb37f5b1	-0.0028070027
36	0xbc85ca9e	-0.016331967
37	0xbc901dd8	-0.017592356
38	0x3cd8db6c	0.026471816
39	0x3b03238f	0.0020010208
40	0xbb7b43e0	-0.0038340017
41	0x39978611	0.00028900852
42	0xba7a5148	-0.0009548855
43	0xbc63a03b	-0.013893182
44	0xbcae5fd3	-0.021285927
45	0xbc7700cc	-0.015075874
46	0x3bc823e7	0.0061077955
47	0xbba7893e	-0.005112796
48	0x3b828369	0.0039829505
49	0xbc71e9d5	-0.014765223
50	0xbc4918d3	-0.012273985
51	0xbb89173f	-0.0041836794
52	0x3b4c4294	0.0031167613
53	0x3c4f07fd	0.012636182
54	0x3b563550	0.0032685585
55	0xbc8f3141	-0.01747954
56	0xbc3c8301	-0.011505843
57	0x39cf53c3	0.00039544524
58	0x3b80bdd1	0.003928878
59	0x3c313335	0.010815431
60	0xbadedce6	-0.0017003089
61	0xbbd184b7	-0.0063939947
62	0xbb2c2b77	-0.0026271024
63	0x3c46e12b	0.012138645
64	0xbc9e00a5	-0.019287417
65	0x3b7ac154	0.0038262205
66	0x3cb2c605	0.021822939
67	0x3c4192ce	0.011814786
68	0x37ce7d0d	2.4615345e-05
69	0x3bf51c3e	0.0074801734
70	0xbb7aa25a	-0.0038243742
71	0x3c24c672	0.010057079
72	0xbb81e162	-0.0039636353
73	0x3c50bb14	0.012739915
74	0x3c7acf7e	0.015308259
75	0xbad9d506	-0.0016619272
76	0xbb879de1	-0.0041386937
77	0xb9bf12d7	-0.00036444396
78	0xbc6fcb02	-0.014635803
79	0xb9b8f4ce	-0.0003527761
80	0x3bd1eaf8	0.0064061843
81	0xbaa3f126	-0.0012507781
82	0x3bdc9197	0.006731223
83	0xbb7a24bb	-0.0038168866
84	0xbb46ab83	-0.0030314631
85	0xbc655cbc	-0.01399916
86	0xbcc3b120	-0.02388817
87	0x3bc9266a	0.0061386125
88	0x3c1ce1f8	0.0095753595
89	0xba4f7b6c	-0.00079148146
90	0x3b14e49a	0.0022719265
91	0x3c20df13	0.00981881
92	0x3d0deb34	0.034648135
93	0x3c24c784	0.010057334
94	0xbc6f6759	-0.014612042
95	0xbb0b3a55	-0.0021244485
96	0x3baefa63	0.005339907
97	0x3aa7a7cd	0.0012791097
98	0xbc8c0277	-0.01709102
99	0x3b8c9512	0.0042902315
100	0xbc8c616e	-0.017136302
101	0x3c9551b8	0.018227443
102	0x3c78eae1	0.015192718
103	0x3c8f7e96	0.017516416
104	0xbb9cf3d6	-0.0047898097
105	0xbc8639fd	-0.016385073
106	0x3c86493a	0.016392339
107	0xbc618bdd	-0.013766256
108	0x3b35f3c8	0.0027763713
109	0xbb656d63	-0.0035007827
110	0x3b987c9c	0.0046535265
111	0x3c1b0b3f	0.0094631305
112	0xbc7858f9	-0.0151579315
113	0xbc88be8b	-0.01669242
114	0x3cd9c130	0.026581377
115	0x3b1e3e7e	0.0024146135
116	0xb9a40134	-0.00031281414
117	0xbc4086e6	-0.011750912
118	0xbc3ad799	-0.011403942
119	0x3bd004e2	0.0063482383
120	0x3c89f056	0.016838234
121	0xbc893a4c	-0.01675143
122	0x3cb0e271	0.02159235
123	0x3bec9665	0.007220077
124	0xbc6cc5c4	-0.014451448
125	0x3b6d0ede	0.0036172192
126	0x3cea79d5	0.028622547
127	0xbb73821d	-0.003715641
128	0x3c58e93f	0.013239204
129	0x3bd7bf5b	0.0065840906
130	0x3d27c2af	0.04095715
131	0xbabf0389	-0.0014573197
132	0xbcc4b552	-0.024012242
133	0x3b362896	0.0027795187
134	0x3c21ea70	0.009882554
135	0xbce13959	-0.027493166
136	0x3c5b17db	0.013372387
137	0xbbbf4842	-0.005837471
138	0xbc1881db	-0.009308304
139	0xbcda703d	-0.026664848
140	0xbc4fc326	-0.012680804
141	0x3ca3d0b4	0.019996978
142	0x3a55708c	0.0008142076
143	0xbc6153ce	-0.013752891
144	0xbb74556d	-0.0037282363
145	0xbc0b37c6	-0.008497184
146	0x3ce3e3dd	0.027818615
147	0x3cae1bc9	0.021253483
148	0x3cef974c	0.029246949
149	0x3c874581	0.016512634
150	0x3c84fe8f	0.016234664
151	0xbcc0daae	-0.023541775
152	0x3be5d595	0.0070139864
153	0xbc7d1e32	-0.015449094
154	0x3bc50b78	0.00601333
155	0xbce6def9	-0.028182494
156	0xbccc9bc1	-0.024976613
157	0xbce09881	-0.02741647
158	0xbc6aef57	-0.01433929
159	0x3c6949f4	0.014238823
160	0x3cdfdff8	0.027328476
161	0xbc893630	-0.016749471
162	0xbbf08eb2	-0.0073412294
163	0x3cd38614	0.02582077
164	0x3c0daf01	0.008647681
165	0x3c4c1e8e	0.012458457
166	0xbcb45891	-0.022014888
167	0xbcabbd8d	-0.020964408
168	0xbc9e36a7	-0.01931317
169	0xbc6e4f33	-0.01454525
170	0xbcd9ee0b	-0.026602766
171	0x3c00f467	0.00787077
172	0x3a7dcc01	0.0009681583
173	0x3c6502ea	0.013977746
174	0x3b1c571b	0.002385563
175	0x3c4a270c	0.012338411
176	0xbc74e2ee	-0.014946682
177	0x3cae5be5	0.021284053
178	0x3cdbe5ee	0.026843037
179	0x3aa88e23	0.0012859743
180	0xbb4a0a37	-0.0030828842
181	0xbcdd8073	-0.027038788
182	0xbae61b34	-0.0017555715
183	0x3b10e294	0.0022107707
184	0x3c0cb2ef	0.008587583
185	0x3b881a8d	0.0041535557
186	0xbc879771	-0.016551705
187	0xbc2a346a	-0.010388473
188	0xbcb65a0b	-0.022259733
189	0x3c40b527	0.01176194
190	0x3c6d9886	0.014501696
191	0xbcf91fa0	-0.030410588
192	0x3cc7e24f	0.024399905
193	0xbb38700a	-0.0028142952
194	0x3af845c1	0.0018941687
195	0xbc4f1469	-0.0126391435
196	0xbace888e	-0.0015757249
197	0xbc25d7d6	-0.01012226
198	0x3c8094f8	0.015696034
199	0xbaba20c3	-0.0014200438
200	0x3cab2add	0.020894462
201	0xbc211f2d	-0.009834093
202	0xba3616be	-0.0006946138
203	0xbc7c373d	-0.015394029
204	0x3c697b80	0.014250636
205	0xbc0b9cb4	-0.008521248
206	0x3c58d9f8	0.013235562
207	0x3c00c452	0.007859306
208	0xbc598a18	-0.013277553
209	0xbcdb92af	-0.026803343
210	0xbad54dee	-0.0016273835
211	0x3c5e82c3	0.013580981
212	0xbc8f8f75	-0.01752446
213	0x3c308250	0.010773256
214	0x3c549a83	0.012976292
215	0xbc1575af	-0.009122296
216	0xbcf896b8	-0.030345306
217	0x3c8f1267	0.01746483
218	0xbc86cf1b	-0.016456177
219	0xbc9a9f36	-0.018874746
220	0xbc062cd1	-0.008189396
221	0xbd063afe	-0.032771103
222	0xbc8af2c2	-0.01696146
223	0xbc62070c	-0.013795625
224	0xbc7961bc	-0.015221056
225	0x3c9c7ac2	0.019101504
226	0x3ca51074	0.020149447
227	0xbccb0fb2	-0.024787758
228	0x3b84933e	0.004045873
229	0xbc4eaa69	-0.012613871
230	0xbc3c2d76	-0.011485448
231	0xbca00d95	-0.019537726
232	0x3b616a52	0.0034395647
233	0x3c82067d	0.015872234
234	0xbc17995b	-0.009252871
235	0x3ba03d27	0.0048901024
236	0x3bbd43dc	0.0057759117
237	0xbc98e739	-0.018664943
238	0x3c946839	0.018116103
239	0x3b4270cd	0.0029669285
240	0x3d01389c	0.031548128
241	0xbbd12781	-0.006382883
242	0xbc2c7c31	-0.010527656
243	0xbc81e452	-0.015855942
244	0x3c583061	0.013195128
245	0xba926b32	-0.0011170863
246	0x3c84a6d7	0.016192837
247	0xbd24b563	-0.040212046
248	0xbcfadc52	-0.030622635
249	0xbad6a9a8	-0.0016377466
250	0xbc62cd30	-0.013842866
251	0xbb536c25	-0.0032260504
252	0x3bee01f4	0.0072634164
253	0xbc837c9c	-0.01605063
254	0x3c3df05c	0.011592951
255	0x3c8bb54b	0.01705422

action_model._discrete_distribution.branches.0.bias f4 [3]
0	0xbbfc72ab	-0.007704099
1	0x3c580940	0.013185799
2	0xbb5cd3bd	-0.0033695542

action_model._discrete_distribution.branches.1.weight f4 [3, 128]
0	0x3c3c8aec	0.011507731
1	0xb9efca79	-0.00045736486
2	0xba97d410	-0.0011583585
3	0xbb77c68c	-0.0037807552
4	0xbce75263	-0.028237527
5	0x3bea8311	0.0071567376
6	0xbb705842	-0.00366737
7	0xbc5269ac	-0.012842577
8	0xbbe32e04	-0.0069329757
9	0xbc33fbc4	-0.010985319
10	0x3c0457e2	0.0080775935
11	0xbbab466d	-0.0052269013
12	0xbb49bad8	-0.0030781534
13	0x3cc34d43	0.023840552
14	0x3b8c72d7	0.004286151
15	0xbc7e26f1	-0.015512214
16	0xbc381ee8	-0.011237837
17	0xbb8d65fc	-0.004315136
18	0xbc2619b8	-0.010137968
19	0x3ba518cc	0.0050383564
20	0x3b982a35	0.0046437033
21	0x3b295254	0.0025836425
22	0x3c9bd7c7	0.01902379
23	0xbc574c5a	-0.013140762
24	0x3c10baee	0.00883363
25	0xbb24c458	-0.0025141444
26	0xbba94c0d	-0.0051665367
27	0xbc0a24e5	-0.008431648
28	0xbbecf703	-0.0072315945
29	0xba48c997	-0.0007659434
30	0xbbaab721	-0.005209819
31	0x3c1c49c8	0.009539075
32	0x3b5912fc	0.0033122888
33	0x3b83ae03	0.0040185465
34	0xbbe0a15f	-0.0068551744
35	0x3ca0afe7	0.019615127
36	0xbb9ff057	-0.0048809457
37	0x3cdfa1f4	0.027298905
38	0xbc550f00	-0.013004065
39	0x3a2f4a28	0.00066867704
40	0x3b677917	0.0035319978
41	0xbbe05b73	-0.006846839
42	0xbb9aab24	-0.0047201086
43	0x3bd5dbdc	0.0065264534
44	0x3b62e83e	0.003462329
45	0x3c13acb3	0.009013343
46	0x3ca045b5	0.019564489
47	0x3d00ebf6	0.03147503
48	0xbbc795a2	-0.0060908357
49	0x3c3ed2a5	0.011646901
50	0x3bf4b482	0.0074678073
51	0x3c1babe4	0.009501431
52	0x3b95a275	0.0045664855
53	0xbc599a9e	-0.0132814925
54	0xb92f1bbf	-0.00016699637
55	0xbca20d48	-0.019781724
56	0x3be24b2a	0.006905933
57	0x3ca19576	0.019724589
58	0xbb76bd1d	-0.0037649341
59	0xba83efdd	-0.0010065992
60	0xba081082	-0.0005190448
61	0x3cb60339	0.022218334
62	0xbc6123cd	-0.013741446
63	0xbb6e0531	-0.0036319012
64	0x3c8a67b4	0.016895153
65	0x3c1402ed	0.009033901
66	0x3b09a6ab	0.0021003883
67	0xbcaa3936	-0.020779233
68	0xbb746603	-0.003729225
69	0xbc7ceac1	-0.015436829
70	0x3b9674df	0.004591569
71	0xbc6733f9	-0.014111512
72	0xbb8d58f8	-0.0043135844
73	0xba3e7388	-0.00072651403
74	0x3c926730	0.01787147
75	0xba754e46	-0.0009357672
76	0xbc0ebbde	-0.008711783
77	0x3b974231	0.004616045
78	0xba404528	-0.0007334524
79	0xbc8a30a8	-0.016868904
80	0xbc254888	-0.010088094
81	0xb9301b94	-0.00016794942
82	0x3c807ccc	0.015684508
83	0x3c3ac024	0.011398349
84	0x3ca37ec1	0.019957902
85	0x3b6fc71e	0.003658719
86	0xbb70b178	-0.0036726873
87	0xbc2a255c	-0.010384884
88	0xbbde2205	-0.006778958
89	0xbbaa2f54	-0.0051936302
90	0xbb86fa28	-0.0041191764
91	0x3b35c5e2	0.0027736356
92	0xbc815d3f	-0.015791534
93	0x3b051ca6	0.0020311265
94	0x3c93a278	0.018021807
95	0xbacc18f4	-0.0015571401
96	0x3c37330c	0.011181604
97	0xbc267225	-0.01015905
98	0xbb86e612	-0.004116782
99	0xbba3b686	-0.0049961237
100	0x3c3a2cc3	0.011363211
101	0xbc22cb84	-0.009936217
102	0xbc126f0a	-0.008937607
103	0xbc9e33b7	-0.019311769
104	0xbcbb126c	-0.022835933
105	0x3ca82389	0.020524757
106	0x3c283c12	0.010268228
107	0x3bfd1e0c	0.007724529
108	0x3b9877ca	0.004652952
109	0x3c964bb7	0.01834665
110	0xba45e68b	-0.0007549307
111	0xbc77a1e7	-0.015114284
112	0x3cc412cb	0.023934742
113	0xbc59a19f	-0.013283162
114	0x3beb0233	0.007171893
115	0xbcee5d73	-0.029097294
116	0x3a5a4b74	0.00083272834
117	0xbc22fe1e	-0.009948282
118	0x3bd4676a	0.0064820545
119	0x3abb322b	0.0014281919
120	0xbb72597b	-0.0036979604
121	0xbb32ca71	-0.002728131
122	0xbbffad50	-0.007802643
123	0x3abeabc4	0.001454704
124	0x3c3c4d7a	0.011493081
125	0xbbb99240	-0.0056631863
126	0xbc41a8cf	-0.011820032
127	0xbaa269bb	-0.0012391129
128	0xbc7b7c28	-0.015349425
129	0xbcc6578b	-0.024211666
130	0x3c84f58d	0.016230369
131	0x3c29339e	0.010327248
132	0x3beb01e0	0.0071718544
133	0xbc2a0bab	-0.010378758
134	0xbcebe3c5	-0.028795132
135	0xbae9e93e	-0.0017846001
136	0x3bfbb26a	0.0076811807
137	0xbc563a59	-0.013075435
138	0x3d1fbe44	0.03899981
139	0x3ce54c9b	0.02799063
140	0x3a18a60a	0.00058230816
141	0x3c9b07a3	0.01892454
142	0xbb9a0aae	-0.00470098
143	0xbc828e84	-0.015937097
144	0xbcac8d56	-0.021063488
145	0xbbf8512e	-0.0075780367
146	0x3b9a6c03	0.004712583
147	0x3ca9da46	0.020733964
148	0xbc866e2b	-0.016409954
149	0xbc3a5811	-0.011373536
150	0x3bf1231b	0.007358921
151	0x3c771ecf	0.015083029
152	0x3d12bc84	0.035824314
153	0x3b2a29d0	0.0025964864
154	0xbc530a6e	-0.012880905
155	0xbc4d3272	-0.012524234
156	0xbb8fef73	-0.0043925582
157	0xbcc250db	-0.023720196
158	0x3c9ce68f	0.019152908
159	0x3ad3ead6	0.0016168009
160	0xbb720932	-0.003693175
161	0x3c7f26b0	0.015573189
162	0xbd1e4793	-0.038642477
163	0xbba997af	-0.005175553
164	0xbc864063	-0.016388124
165	0xbce5a228	-0.028031424
166	0x3c7c94b1	0.01541631
167	0x39f54e4e	0.00046788383
168	0xbd2f0fc6	-0.042739652
169	0x3b259200	0.0025264025
170	0x3c1f263a	0.009713704
171	0xbcb39742	-0.021922711
172	0xbd3d88c1	-0.046272997
173	0x3aa789ad	0.001278212
174	0xbccc3945	-0.024929652
175	0x3c033553	0.008008319
176	0x3c9ba6af	0.01900038
177	0x3c6e9dab	0.014563958
178	0xbbc342a2	-0.005958871
179	0x3c7734a8	0.015088238
180	0xbd23bc34	-0.039974406
181	0xbd1ab103	-0.037766468
182	0x3ca95459	0.020670103
183	0xbc0a474d	-0.008439851
184	0xbcae833f	-0.021302817
185	0x3cbf3b3e	0.023343679
186	0xbb9d953e	-0.004809051
187	0xbc1d234f	-0.009590938
188	0xbab73a48	-0.0013979161
189	0xbbb3b1db	-0.0054838485
190	0x3cc671a8	0.024224117
191	0x3c1895bc	0.009313043
192	0x3a54fbd3	0.0008124683
193	0x3c9f8a87	0.019475235
194	0x3cd28101	0.02569628
195	0x3c62633d	0.013817606
196	0x3b6d9fc9	0.003625857
197	0xbcb93a0f	-0.022610692
198	0x3bc6e344	0.0060695726
199	0xbd058305	-0.032595653
200	0x3b67e657	0.0035385096
201	0x3b02c0a0	0.001995124
202	0x3cba4c8a	0.022741575
203	0x3ca27f0c	0.019835971
204	0x39fc73ee	0.0004815156
205	0x3c88ff8f	0.016723422
206	0xbcbb278d	-0.022846008
207	0xbcc3d2af	-0.023904173
208	0x3b2c36bf	0.0026277748
209	0xbc1fa33f	-0.009743511
210	0x3ce9653e	0.028490659
211	0xbcc2764e	-0.023738053
212	0xbceef40d	-0.029169107
213	0x3990c4fd	0.00027612588
214	0xbc1128bd	-0.00885981
215	0xbcc69a5a	-0.024243522
216	0x3c1b6ce7	0.009486414
217	0xbca2206b	-0.019790849
218	0x3acfcdc5	0.0015854171
219	0x3c424658	0.011857592
220	0x3c482c37	0.012217573
221	0x3b774671	0.0037731195
222	0xbd4a9f96	-0.0494686
223	0xbba11bd2	-0.0049166465
224	0x3d17f3a4	0.03709759
225	0xbc855a6d	-0.01627847
226	0x3b38e237	0.0028211006
227	0xbcd15495	-0.025553027
228	0x3c19075c	0.0093401335
229	0xbce13b5b	-0.027494123
230	0x3c084721	0.00831774
231	0xbd245e6e	-0.040129118
232	0x3d143bcc	0.03618984
233	0x3a653dd6	0.0008744871
234	0xbbd6b091	-0.00655181
235	0x3bc5f601	0.006041289
236	0x3cf46f1d	0.02983814
237	0xbd0d631c	-0.034518346
238	0x3d34eeff	0.044173237
239	0x3ca17ec5	0.019713769
240	0xbbacc7b3	-0.0052728294
241	0xbc9e1409	-0.019296663
242	0x3cb41d1a	0.021986533
243	0xbce45ae1	-0.027875366
244	0x3d10e733	0.03537674
245	0xbcd23ffc	-0.025665276
246	0xbc9302de	-0.017945703
247	0xbb8afc79	-0.004241523
248	0x3c03da70	0.008047685
249	0xbbd7d04f	-0.0065861116
250	0xbc7a6d03	-0.0152847795
251	0x3c49037a	0.012268895
252	0x3cbdc3b9	0.023164617
253	0x3c6b41b7	0.014358929
254	0x3c371cec	0.011176329
255	0x3c1a22a5	0.009407674

action_model._discrete_distribution.branches.1.bias f4 [3]
0	0x3b383d4f	0.0028112715
1	0xbbe43e71	-0.0069654514
2	0x3bad0ce9	0.00528108

critic.network_body.linear_encoder.seq_layers.0.weight f4 [128, 37]
0	0x3e148f98	0.14507902
1	0x3e5e5b42	0.217145
2	0xbe48725c	-0.19574875
3	0xbc8f319c	-0.01747971
4	0xbd16a028	-0.03677383
5	0xbe18056b	-0.14845817
6	0xbd80bbbd	-0.06285808
7	0x3e1bfa4b	0.15232198
8	0x3d229098	0.039688677
9	0x3e99d5f9	0.3004606
10	0x3da29f3d	0.079405285
11	0xbe18b071	-0.14911057
12	0x3eb8a4ad	0.36063138
13	0x3c1af8a4	0.009458695
14	0xb9a608f2	-0.00031668652
15	0x3e1352a5	0.14386995
16	0xbe641d27	-0.22276746
17	0x3e072adc	0.13199943
18	0xbe7aca37	-0.24491201
19	0x3e0aab3f	0.13541888
20	0xbe22fc5f	-0.15916584
21	0xbd87d7b3	-0.06632938
22	0xbe1c79fe	-0.15280911
23	0xbe69bbbb	-0.2282552
24	0xbe8b9b21	-0.2726679
25	0xbdf10625	-0.1176875
26	0x3e9e0f8a	0.3087123
27	0xbb0a1054	-0.0021066861
28	0xbd8da156	-0.06915538
29	0xbd822c7e	-0.063561425
30	0xbe1f9e51	-0.15587737
31	0xbe49b928	-0.19699538
32	0x3e54f231	0.20795514
33	0xbd3c72b4	-0.046007827
34	0x3db8796d	0.09007535
35	0xbdcca1a1	-0.09991766
36	0x3e8538c9	0.26019886
37	0xbe792c21	-0.2433324
38	0xbdcb2428	-0.09919006
39	0xbe91e430	-0.28494406
40	0x3cc7e605	0.024401674
41	0xbe28d426	-0.16487178
42	0x3e8a8c09	0.27059963
43	0xbea353e4	-0.3189994
44	0xbd19c708	-0.037543327
45	0xbe9fbf12	-0.31200463
46	0xbcddc72d	-0.027072513
47	0xbd1930f7	-0.037400212
48	0xbe158802	-0.14602664
49	0x3e107721	0.14107944
50	0x3e461cda	0.19346943
51	0x3e58c452	0.2116864
52	0xbdaca360	-0.08429599
53	0xbe7e2ee4	-0.24822575
54	0xbcee5f34	-0.02909813
55	0xbe175910	-0.14780068
56	0x3cb1fb9c	0.021726422
57	0xbe273372	-0.16328219
58	0x3e43ae41	0.19109441
59	0x3e493a4f	0.19651149
60	0x3ec7afbb	0.3900126
61	0xbeadff54	-0.33983862
62	0x3e9e532b	0.30922827
63	0x3d4d9927	0.050194886
64	0x3f0104b4	0.503978
65	0xbe704978	-0.23465526
66	0xba3060c0	-0.0006728284
67	0x3ca56005	0.020187387
68	0x3df27768	0.11839181
69	0xbd79e476	-0.061008893
70	0x3cdbd980	0.02683711
71	0x3e898e0d	0.2686619
72	0x3e6d64bf	0.23182963
73	0xbede8501	-0.4346085
74	0x3e130cde	0.14360377
75	0x3e40a97d	0.18814655
76	0xbecfc666	-0.40581053
77	0xbe8db74f	-0.27678916
78	0xbcc7f60d	-0.024409318
79	0x3e5678e9	0.20944561
80	0x3dc35c04	0.09539035
81	0xbe1d7260	-0.15375662
82	0x3e91c14b	0.28467783
83	0x3d1c65ec	0.038183138
84	0x3d1fdae1	0.0390271
85	0x3c9cb7f2	0.01913068
86	0x3db12991	0.08650506
87	0xbbc1711a	-0.0059033753
88	0xbcdb855e	-0.026796993
89	0xbe9bd566	-0.30436248
90	0xbc881fe5	-0.016616771
91	0xbe2c4181	-0.16821863
92	0x3d19fc50	0.03759414
93	0xbdef4e32	-0.116848364
94	0x3d72a36d	0.059237886
95	0x3e3d885d	0.1850905
96	0xbd949ad9	-0.07256097
97	0x3d6c53bd	0.057697047
98	0xbdecf917	-0.115709476
99	0x3def08ca	0.11671598
100	0x3d1b2262	0.037874587
101	0x3e463237	0.19355093
102	0xbe74c1a4	-0.23901993
103	0x3c5d8dcb	0.013522576
104	0xbdc647ae	-0.096816406
105	0xbe022f20	-0.1271329
106	0xbd175d29	-0.03695408
107	0x3e0257ec	0.12728852
108	0xbccc5567	-0.024943067
109	0x3dae889c	0.0852215
110	0x3e341b23	0.17588477
111	0x3dc292f0	0.09500682
112	0x3b464063	0.003025078
113	0xbe13caf3	-0.14432888
114	0x3d802da7	0.062587075
115	0xbd91aeb0	-0.07113397
116	0xbd6da906	-0.05802252
117	0xbe5b91b6	-0.21442303
118	0x3e9abccd	0.3022217
119	0x3e974fe6	0.29553145
120	0x3e13b3ff	0.14424132
121	0x3d31f56e	0.04344695
122	0x3dccc27a	0.09998031
123	0xbd294f67	-0.04133549
124	0x3daf1076	0.085480615
125	0xbc3da16c	-0.0115741305
126	0xbd2866e1	-0.041113738
127	0xbec26f3a	-0.37975484
128	0xbccdcd27	-0.025122238
129	0xbc5f5e46	-0.013633316
130	0x3d9235e5	0.07139186
131	0x3e0dc13e	0.13843247
132	0x3eb05e87	0.3444712
133	0xbe8d1fe1	-0.27563384
134	0x3e57b31d	0.2106442
135	0xbe3d1046	-0.18463239
136	0x3ddf4f56	0.10903804
137	0x3e47c597	0.19508968
138	0x3e8d93e3	0.2765189
139	0x3dd3dea0	0.10345197
140	0xbdc97bfe	-0.09838103
141	0x3d0bdf13	0.034148287
142	0xbd811ca5	-0.06304292
143	0xbe738395	-0.23780663
144	0x3d1a0bf6	0.037609063
145	0x3db86a9b	0.090047084
146	0xbde5caa8	-0.11220294
147	0x3df37c20	0.11888909
148	0xbd200099	-0.03906307
149	0xbeb55879	-0.35419062
150	0xbdfb70f6	-0.12277405
151	0x3eb94b22	0.36190134
152	0xbdbb545d	-0.091469504
153	0x3e03b3ea	0.128616
154	0x3e35f52b	0.17769305
155	0x3ec4626b	0.38356337
156	0xbd8e31f5	-0.06943122
157	0xbea3d92e	-0.32001632
158	0xbd0c26b6	-0.034216605
159	0x3e1f12e8	0.15534556
160	0x3b81159a	0.0039393427
161	0x3d0a32ed	0.033739973
162	0x3e2fc02b	0.1716315
163	0xbe9d998f	-0.30781218
164	0xbd5ac06c	-0.053406164
165	0x3df90cd2	0.121606484
166	0x3d48b0da	0.048996784
167	0x3de2cd0a	0.11074264
168	0xbd9d7999	-0.076892085
169	0x3e015a47	0.12632094
170	0xbe05a987	-0.13052951
171	0xbe3786f0	-0.17922568
172	0xbc1c88ce	-0.009554101
173	0x3e222747	0.15835296
174	0x3e1736a5	0.14766939
175	0xbe099a77	-0.1343783
176	0xbd38aac8	-0.045084745
177	0xbe5595af	-0.20857881
178	0x3dce9e5c	0.100887984
179	0x3d5c0bc6	0.053722166
180	0x3e866b11	0.2625356
181	0x3b3036f9	0.0026888235
182	0xbe5533d5	-0.20820554
183	0x3d55128a	0.052019633
184	0x3e2d435d	0.16920228
185	0x3e31fd82	0.17381862
186	0xbd2c66eb	-0.042090338
187	0xbe009184	-0.1255551
188	0x3e5ad465	0.21370085
189	0xbd614d2b	-0.055005234
190	0x3e092352	0.1339238
191	0x3d8127f8	0.063064516
192	0x3e88d953	0.26728305
193	0x3e915e47	0.2839224
194	0x3e54ed7d	0.2079372
195	0x3e706e31	0.23479535
196	0xbd653704	-0.05596067
197	0xbe0f2587	-0.1397916
198	0x3e3311a6	0.17487201
199	0x3e573abb	0.21018498
200	0x3d72e214	0.059297636
201	0xbc21a375	-0.009865631
202	0xba8cdd8c	-0.0010747178
203	0xbe74b1ec	-0.23895997
204	0xbc8e3f4b	-0.017364165
205	0xbc95a7ff	-0.018268583
206	0xbd0a49eb	-0.0337619
207	0xbe81ede9	-0.25376824
208	0xbe2d90fb	-0.16949837
209	0x3d9d1fad	0.07672057
210	0x3e86a1b1	0.26295236
211	0x3c93974d	0.018016482
212	0xbdd917ae	-0.1060022
213	0x3e045c15	0.12925752
214	0x3e203eff	0.15649031
215	0x3e956f0f	0.29186293
216	0xbe192354	-0.14954883
217	0x3d56f2ad	0.052477527
218	0x3dfd8a91	0.12379945
219	0x3dad3fa8	0.08459407
220	0xbcabc480	-0.020967722
221	0x3c844b15	0.016149083
222	0x3e7bf6bb	0.24605839
223	0x3d4d79df	0.050165053
224	0xbe937dfc	-0.28807056
225	0xbd3947a4	-0.045234337
226	0x3e475191	0.19464709
227	0x3e86979d	0.26287547
228	0x3dfd3287	0.12363153
229	0x3dcfa253	0.10138383
230	0xbde2183c	-0.110397786
231	0x3e4c97d2	0.1997979
232	0x3e275154	0.16339618
233	0xbc508688	-0.012727387
234	0x3d88c978	0.06679052
235	0x3e3e2d58	0.18571985
236	0x3c1e3c71	0.009657965
237	0xbe05ab19	-0.1305355
238	0xbdfceb80	-0.123496056
239	0x3d6a6a12	0.057230063
240	0xbbd86916	-0.006604324
241	0x3e14b573	0.14522342
242	0xbcf24267	-0.029572679
243	0x3da52b6d	0.080649234
244	0x3d85f6f8	0.06541246
245	0xbdf0f81f	-0.11766075
246	0xbee73378	-0.45156455
247	0xbda67aee	-0.08128916
248	0xbec37a85	-0.38179412
249	0x3dfbf454	0.12302461
250	0x3dfb1e31	0.12261618
251	0xbe4f7e8b	-0.20263116
252	0x3ee12eee	0.43981117
253	0xbe0faa85	-0.14029892
254	0xbe152ea5	-0.14568575
255	0x3da0451d	0.07825682

critic.network_body.linear_encoder.seq_layers.0.bias f4 [128]
0	0x3aa7220b	0.0012751234
1	0x3bbbc23f	0.005729943
2	0x3bfc63de	0.007702335
3	0x3b2c92b7	0.0026332566
4	0x3c7272fb	0.014797921
5	0x3ab7f0d1	0.0014033561
6	0xbc1f2030	-0.009712264
7	0xbb74ad43	-0.0037334717
8	0x3860d20e	5.360139e-05
9	0x3d357ea9	0.044310246
10	0x3bcc4788	0.006234113
11	0x3bc98d28	0.0061508603
12	0x3a39c0df	0.000708593
13	0x398ad13b	0.000264773
14	0x3b2ae10e	0.0026074084
15	0x3af9cc7c	0.0019058133
16	0x3a106a82	0.0005509035
17	0xbb7a5b11	-0.0038201252
18	0xba684fc5	-0.0008861984
19	0x3b812837	0.0039415616
20	0xba7185af	-0.0009213341
21	0xbbaa2149	-0.005191956
22	0x3b7140a6	0.0036812215
23	0x3be7c841	0.0070734327
24	0x3c1caf7f	0.009563326
25	0x3b1a904a	0.0023584538
26	0xbb17ffa6	-0.002319315
27	0x3b80924d	0.0039236904
28	0xbbbe2abd	-0.0058034346
29	0x3b0b3d13	0.002124612
30	0xbb642412	-0.0034811539
31	0x3ae4bf37	0.0017452006
32	0x3bde710c	0.0067883786
33	0x3b753c6d	0.003742005
34	0xbab47646	-0.0013768158
35	0x3b68749d	0.0035469898
36	0x3c15d2ff	0.009144544
37	0x3c4ca161	0.012489648
38	0x3b881735	0.004153157
39	0xba4f0216	-0.0007896734
40	0xbca00412	-0.01953319
41	0xbb6ab629	-0.0035814142
42	0xbb0eed52	-0.0021808934
43	0x394151d9	0.00018436405
44	0x3aa46060	0.0012540929
45	0x3a9eca85	0.0012114799
46	0xbadc6fb1	-0.0016817955
47	0xbacc8e73	-0.0015606418
48	0x3ab44c6c	0.0013755686
49	0x3c71f8e3	0.014768812
50	0xba1e68d7	-0.0006042844
51	0x3a3d1002	0.0007212163
52	0xbb346628	-0.002752671
53	0x3c85264c	0.016253613
54	0x3b73a4b4	0.0037177028
55	0x3c18b814	0.009321231
56	0xbb163c8f	-0.002292428
57	0x3c1cf180	0.009579062
58	0x3b4766c6	0.0030426248
59	0x3bbd5df8	0.005779024
60	0xbb182a4f	-0.0023218577
61	0xb9def8a5	-0.00042528394
62	0x3c24a481	0.010048986
63	0xbb220e9d	-0.0024727948
64	0x3973f606	0.00023265937
65	0xb9d05fa5	-0.00039744112
66	0xba8a0dff	-0.0010532736
67	0x3ba8d901	0.005152822
68	0x3cc21917	0.023693604
69	0xba803d4b	-0.0009783892
70	0x3c99442b	0.018709263
71	0x3a92f4a2	0.0011211822
72	0xbb578636	-0.0032886392
73	0x3b89b478	0.0042024218
74	0xb989da16	-0.00026293163
75	0x3bafb817	0.0053625214
76	0x3adafc24	0.0016707224
77	0xbbb2d051	-0.005456962
78	0x3b8bbdbf	0.004264563
79	0xbc032649	-0.008004733
80	0x3b336d32	0.0027378318
81	0x3bb6fd4a	0.0055843936
82	0x3b8c2b86	0.0042776493
83	0xbb72954d	-0.003701526
84	0xbae429ad	-0.001740744
85	0xbb646c06	-0.0034854426
86	0xbb0098d2	-0.0019622338
87	0x3b955b9b	0.0045580394
88	0x3c3af202	0.011410238
89	0x3a2fecd8	0.00067110127
90	0x3bea960b	0.007159
91	0x3cf92a2f	0.030415623
92	0xbb813b89	-0.0039438647
93	0x3c0bf226	0.008541619
94	0xbb30657b	-0.0026915956
95	0x398cad6f	0.000268321
96	0x3b4a9355	0.003091057
97	0x3bae25d2	0.005314567
98	0xbb351913	-0.0027633354
99	0x3ac07bbb	0.0014685312
100	0x3ad5ee04	0.0016321545
101	0xbb288e35	-0.0025719528
102	0x3ba261a5	0.004955488
103	0x3b62e367	0.0034620406
104	0x3c008ab4	0.007845569
105	0xbac62b34	-0.0015119077
106	0x3bb151a8	0.0054113455
107	0xb92c7e34	-0.00016450213
108	0x3bf7dfb7	0.0075645107
109	0xb775506c	-1.4621863e-05
110	0x3bf828d7	0.007573228
111	0xbabfd5b7	-0.0014635836
112	0xba9382e5	-0.001125422
113	0xbaab3f4e	-0.0013065131
114	0x3b1c4076	0.0023842133
115	0xbb1dd74e	-0.002408463
116	0xbbb91aa6	-0.0056489287
117	0x3bcbb34b	0.0062164417
118	0xbad8d52d	-0.0016543024
119	0x3b708a70	0.003670361
120	0x3a3aa545	0.0007119964
121	0x3b63536c	0.0034687174
122	0x3b9790c0	0.00462541
123	0x3b405ed3	0.0029353395
124	0x3a88a143	0.0010424036
125	0x3b1692fd	0.0022975795
126	0x3c81b937	0.015835388
127	0x3b58669a	0.003302014
